forecasting/midroll/dnn_model/model_0.ckpt (torch, 42071 bytes, 5 tensors)

mlp.0.weight f4 [64, 90]
000000 08 3f 9c 3d 29 34 a4 3d 36 07 62 bd e0 0c c9 3d
       0.0762921 0.08017761 -0.055182658 0.09816909
000010 c7 10 47 bd c7 4f d3 3d 6e 09 21 3d e4 64 0f 3e
       -0.048599984 0.10317951 0.039315633 0.1400333
000020 19 60 8d bc 78 cd 8c 3b 7b 8a c4 bd 6f 02 ae 3c
       -0.017257737 0.0042969547 -0.095967256 0.021241395
000030 6a 37 92 bc 07 98 bb bd 67 a7 b3 3d 5e 19 e5 3c
       -0.01784869 -0.09159856 0.08772164 0.027966198
000040 65 6d bf bd b8 d3 8d 3d 19 e5 08 3c 81 d3 89 bd
       -0.09347037 0.06925148 0.008355402 -0.06729794
000050 1d 1d d8 3c c5 88 c1 3b 2d 77 53 3d 29 1c 4f bc
       0.02638107 0.005906197 0.051627327 -0.012640991
000060 dc dc 85 bd 3a 3b 65 3c d3 3c 7e 3d 46 a1 22 3b
       -0.06536266 0.0139911715 0.062069725 0.0024815365
000070 0d 67 99 bd 02 36 b4 bd 4b 8b b5 3d 68 86 52 3d
       -0.074903585 -0.08799364 0.08864459 0.05139771
000080 d9 93 31 bc 81 b9 b6 3d 2d 01 d5 bd a7 86 54 3c
       -0.010838472 0.08922101 -0.10400615 0.012971557
000090 af 3b 36 3d d3 77 bd bd ab d5 cb 3b a9 f3 36 3c
       0.044490512 -0.0925137 0.0062205396 0.011166492
0000a0 42 bc 49 3a 12 0b 1f bd 90 fa 7c 3d e7 89 21 be
       0.0007695594 -0.038828917 0.061762393 -0.15775262
0000b0 34 dd 92 3d 52 18 bb bc 5b db b0 3d 59 9f 5c ba
       0.071710974 -0.022838745 0.08635589 -0.00084160786
0000c0 b7 c8 83 3d 0b 56 59 3d 72 67 df bd 3f bd cb 3d
       0.06434768 0.053060573 -0.109084025 0.09948205
0000d0 d2 b9 11 3b b2 2c 44 bd 5e b6 35 be ee 16 34 3d
       0.0022236002 -0.047894187 -0.17745349 0.04396718
0000e0 e1 26 2b 3e cd 78 2b 3e 0e cd b5 b9 0d de 94 bd
       0.1671405 0.167453 -0.00034675788 -0.07268915
0000f0 b6 79 3f 3d a7 6c 22 bd 3a 32 a7 bd f2 54 22 3d
       0.046746932 -0.0396544 -0.08163877 0.03963179
000100 04 13 06 3e 19 49 d4 bd 86 b6 8a 3d 19 85 ae 3d
       0.13093191 -0.10365505 0.06773095 0.0852148
000110 6c e0 d3 bb 8d c4 75 3d 38 18 9d 3a 08 e8 c5 3c
       -0.006465962 0.0600019 0.0011985367 0.024158493
000120 dc 68 5a bd bf 7d 20 3c f9 65 ee bd d2 50 79 3c
       -0.053322658 0.009795605 -0.116405435 0.015217023
000130 3c 38 73 bd 21 ea fd 3d 0f 18 89 bb ef 73 f5 bd
       -0.0593798 0.12398172 -0.004183776 -0.11985003
000140 83 b5 1a be e6 7f 14 be 13 f0 1b 3e 12 87 19 bc
       -0.15108304 -0.14501914 0.152283 -0.009370582
000150 c6 37 48 bd 38 de 1c bd 40 c2 86 bc b1 61 74 bd
       -0.048881315 -0.03829786 -0.016450047 -0.05966348
000160 b8 51 f8 3d 29 b2 43 3d 65 29 a2 3d c3 75 05 3d
       0.121249616 0.04777733 0.07918052 0.03258301
000170 78 9e 15 38 c4 56 e8 bc fd 55 a9 bd b6 08 8e 3d
       3.5671954e-05 -0.028361686 -0.08268354 0.06935255
000180 3d 43 59 bd fa 72 8a 3d 0e 8f b4 bd 52 2a 88 3d
       -0.05304264 0.06760211 -0.08816348 0.06648697
000190 e7 8f ef bc cf 4a db 3d ff b1 cc 3c 3f 5c a1 3d
       -0.029243423 0.10707628 0.024987219 0.07878923
0001a0 70 db 9a 3d 5c e1 fa 3c 78 d2 f2 bc c0 cc 8b bd
       0.07561386 0.030625038 -0.029641375 -0.06826162
0001b0 a0 1a a6 3d e9 50 b6 3b a4 eb 2f bd f7 6b 04 bd
       0.08110547 0.0055638445 -0.042949334 -0.032329526
0001c0 aa d4 9a bd e5 59 9e bb 97 78 f8 3d e4 5b 5b 3d
       -0.07560094 -0.0048324936 0.12132376 0.05355443
0001d0 13 b8 fa 3d a1 d8 79 3d 84 cc 85 bd 42 e6 d4 3c
       0.122421406 0.06099761 -0.06533149 0.025988702
0001e0 ad 25 a2 3d 9d c1 6a 3d 72 4c a5 bd db 11 9e bd
       0.07917342 0.05731355 -0.080712214 -0.077182494
0001f0 f6 88 c0 bd 5a ba 3d bd a8 13 47 3c 85 eb 01 be
       -0.09401123 -0.046320297 0.0121506825 -0.126875
000200 9e 62 33 3d d2 71 b8 bd de f5 1d 3d 56 fe 79 bd
       0.04379522 -0.090060845 0.038564555 -0.06103357
000210 2e 20 85 bd 64 7a 8a bd 84 dd 74 3d f8 65 5d 3d
       -0.065002784 -0.067616254 0.059781566 0.054052323
000220 e7 a5 48 bc 1a c2 09 be 92 29 7e 3c 3d 67 40 bd
       -0.012246585 -0.1345295 0.015512841 -0.046973456
000230 56 c3 be bd a5 51 75 bd 38 ab 96 bd 3d ef 78 3d
       -0.09314601 -0.059892315 -0.07356876 0.06077503
000240 b8 6a bb 3d b8 e3 20 3d 09 8f 90 3e c1 5a 74 bd
       0.09151214 0.03927967 0.28234127 -0.059656862
000250 7d d6 3f be 34 b3 6c bc a6 b9 0f bc f2 21 ba bc
       -0.18734165 -0.014447022 -0.008772289 -0.022721265
000260 f9 9d f3 bd 9f 40 c0 3d c9 87 45 bd 22 4a e9 ba
       -0.11895365 0.093873255 -0.048225198 -0.0017798583
000270 4c 37 f3 bc f3 62 7c 3d 6d 14 b2 3d 38 19 58 bd
       -0.029689454 0.061617803 0.08695302 -0.052758425
000280 d4 62 3b 3d bf ce 7f 3d 59 f5 63 3d 71 88 ff bb
       0.045748547 0.062453028 0.055653904 -0.0077982475
000290 02 d4 5b 3a 83 3a b5 3d 0d f9 4c bd 9b 4f 0b be
       0.00083857786 0.08849051 -0.0500422 -0.13604586
0002a0 9b 92 1f 3d d0 e3 ae bd 43 13 b2 bc 4d 83 ee bd
       0.038958173 -0.085395455 -0.0217377 -0.116461374
0002b0 e0 18 40 bd 25 26 88 3d a4 c3 83 3d be ab 58 bd
       -0.046898723 0.066479005 0.064338 -0.05289816
0002c0 f3 8f 01 be 3c 0b 7f 3d cb 28 32 3d 1c 0d b6 3c
       -0.12652569 0.062266573 0.043495934 0.022223048
0002d0 99 1a 16 3e ff 55 fd bc 59 95 1f be ec 21 60 3d
       0.14658584 -0.030924795 -0.15584315 0.05471985
0002e0 fa 91 4d be 70 05 7c bd 38 3d b1 bd 7f 15 70 3d
       -0.20075217 -0.061528623 -0.08654255 0.05861425
0002f0 55 9c 9a 3b 8d c3 fb 3d c1 87 55 bd 17 86 30 bd
       0.0047183433 0.12293158 -0.05213142 -0.043096628
000300 9b 58 2b 3d 78 d2 ae bd 93 e5 65 bd 80 5e 20 3e
       0.041832548 -0.085362375 -0.056127142 0.15661049
000310 f8 59 fc bd fb 27 81 3b 39 ac 44 bd 66 f9 9e 3d
       -0.12321848 0.0039415336 -0.048015807 0.07762413
000320 95 cc 86 3d 22 67 90 3d a3 ad 9f 3d ff 0f 88 bd
       0.0658199 0.07050921 0.077967905 -0.06643676
000330 75 2e a0 bd 85 5b bd bb 46 3c 9c bc 2d 60 4a 3d
       -0.07821361 -0.0057787322 -0.01907171 0.049408127
000340 ba 50 fb 3c 79 a2 00 bc cb fd e1 3d 3d c0 cd 3c
       0.030678142 -0.0078512365 0.11034735 0.02511608
000350 05 76 27 bd 9c 9f 8f bd 3b b4 4b 3d d4 80 9e 3d
       -0.040884037 -0.07012865 0.049732428 0.07739416
000360 5c a4 e6 3d f8 8c 03 3d 15 8a 29 bd cd 9d 14 bd
       0.11261818 0.03211686 -0.04139145 -0.036283303
000370 f9 f6 7b bd 24 b9 93 3d cf e3 36 be 49 22 e4 3c
       -0.06151483 0.07213047 -0.1786034 0.02784838
000380 a9 24 12 be f4 fd c5 3c 61 c6 a1 bc 06 55 d6 3b
       -0.14271797 0.024168946 -0.019747915 0.0065408973
000390 22 62 c9 bc 36 32 05 bc 06 2d fe bd e3 16 6e bc
       -0.024582926 -0.008129647 -0.12410931 -0.014531824
0003a0 09 4a 1f bd 19 7c 94 bc c8 d0 ab bd cb c8 64 bd
       -0.038888965 -0.01812558 -0.08389431 -0.055855554
0003b0 b3 ad 74 3c 60 e6 a9 3d 27 34 a1 3e 75 85 ab 3d
       0.014933991 0.08295894 0.31485102 0.08375064
0003c0 3f be 46 3e 91 c7 ca bd 98 c3 b5 3d c9 94 67 bd
       0.1940851 -0.099013455 0.08875197 -0.056538377
0003d0 1e 08 14 3e 0f b5 4d be 2c 1b c5 3d 6e af 36 bd
       0.14456221 -0.200886 0.09624323 -0.044600897
0003e0 16 95 17 3d bc 86 87 3c e3 df 93 39 45 aa b9 bd
       0.037007414 0.016543739 0.00028204834 -0.090656795
0003f0 1c 0c b6 bc 48 98 37 bd 10 a9 83 3d f9 c3 08 bc
       -0.022222571 -0.04482296 0.064287305 -0.008347505

mlp.0.bias f4 [64]
000000 71 15 9f bd 18 a9 ae bd ce b6 02 be 3c 78 af 3d
       -0.077677615 -0.08528346 -0.12765047 0.08567855
000010 29 b1 8e bd d8 9e 4f bd 23 1f b9 3d e2 62 34 3c
       -0.06967384 -0.050688595 0.09039142 0.011009904
000020 09 30 15 3d 36 86 24 bd 41 8e 62 3d 6e ba 65 3d
       0.036422763 -0.040167056 0.055311445 0.056085996
000030 4c 79 6c bd b3 02 c1 bd 35 fa a6 3d ec 89 e5 3c
       -0.057732865 -0.09424343 0.08153192 0.028019868
000040 cb c2 c3 3c c3 f4 a6 3d a0 b2 51 3d 41 79 75 bc
       0.023896595 0.08152153 0.05119574 -0.014982522
000050 8c 44 81 3d 6a 55 a0 bd b4 08 64 3d 54 38 df bc
       0.063119024 -0.078287914 0.055672362 -0.027248539
000060 a0 92 4f bd 88 df 4c 3d a2 bb d2 bd 7d c2 7d bd
       -0.050676942 0.050017864 -0.10289694 -0.061953057
000070 78 3d db b9 35 69 c3 3d 3d bd fb bc cd 25 83 bd
       -0.00041816733 0.09541551 -0.030729884 -0.06403694
000080 ff b5 87 bd d5 19 8e bd 0b 1f 8c ba c6 1f aa bd
       -0.0662651 -0.06938521 -0.0010690404 -0.083068416
000090 86 ca bc bd 68 bf e3 bc 45 6e ef 3d c2 5c ca 3d
       -0.09218316 -0.02780123 0.11690954 0.098809734
0000a0 84 91 c4 bd 6c 8c dc bd b2 8f a9 3d 61 4f 80 bc
       -0.095980674 -0.10768971 0.08279361 -0.01566285
0000b0 53 7e ca bb db 11 c2 3d 76 57 18 bc e9 c4 16 3d
       -0.00617961 0.09476062 -0.009298196 0.036808882
0000c0 8f 1f 1c bd 3a 26 f9 3c 98 84 d3 3c 03 07 6e bd
       -0.038116034 0.030413736 0.025820062 -0.058112156
0000d0 71 c3 c5 bd da 9e 18 bd 59 79 f0 bd c1 3d be 3d
       -0.09656418 -0.037260868 -0.11741895 0.092891224
0000e0 73 40 0f 3d b9 27 a2 3d 61 86 80 3d 2c 2e d3 bc
       0.034973573 0.07917733 0.06275631 -0.025778852
0000f0 e8 43 2e bc 63 aa c9 bd 03 28 67 bd 1c 83 b1 3d
       -0.010636307 -0.09846952 -0.056434643 0.08667585

mlp.2.weight f4 [64, 64]
000000 d3 43 e3 bd d3 c2 1e 3d 51 47 04 bd 5f 20 25 be
       -0.11096921 0.038760018 -0.032294575 -0.1612563
000010 ff ff ff bc 3a 95 e6 3d 48 5a e1 3d 66 8c 32 3c
       -0.031249998 0.112589315 0.11003548 0.010897731
000020 e4 bb 68 3d b9 0b 06 3d 22 27 1b 3e 19 1d b3 3b
       0.05681981 0.032726023 0.15151647 0.005466115
000030 79 b3 07 3d c4 51 79 bd a3 c5 1a be 32 5e 3d bd
       0.033130143 -0.060868993 -0.15114455 -0.04623241
000040 be b6 5c bd bf a5 71 3c 48 82 57 3c 6c e4 86 3d
       -0.053885214 0.01474899 0.01315362 0.06586537
000050 d8 b6 27 be d7 da 26 3d a9 5d 6d bd 40 dc 17 bc
       -0.16378343 0.040736046 -0.05795065 -0.00926882
000060 79 07 1d 3e f4 31 aa 3d 0d 12 d0 3d d3 62 a6 3c
       0.15334882 0.08310309 0.10159693 0.020310795
000070 79 d3 05 bd f6 72 37 be 81 f1 9d 3c 2a fd 53 3c
       -0.03267238 -0.17914948 0.019280197 0.012938777
000080 33 ae 0b be a4 fd 98 3b fb f1 64 bd 43 63 79 3d
       -0.1364067 0.004668908 -0.055894833 0.06088568
000090 12 20 f5 3d 3a 13 94 3d 0c 41 7e bc 0b 71 43 bd
       0.119690076 0.0723023 -0.015518438 -0.047715228
0000a0 8e 5e 35 bd 34 64 86 bd 2c 2d 84 bd 52 bd 27 3d
       -0.044279628 -0.06562081 -0.06453928 0.040952034
0000b0 0d 89 55 bd 0f c4 3f 3d a4 dc ac bd 7e 87 89 3d
       -0.052132655 0.046817835 -0.08440521 0.06715296
0000c0 53 7a 96 3c f1 95 02 bd c1 82 52 3d e9 d4 96 3c
       0.018368876 -0.031881277 0.051394228 0.01841207
0000d0 c4 af 1c bd 47 fb 02 be 6c a1 67 3d 1a a6 93 bd
       -0.03825356 -0.12791167 0.05655043 -0.07209416
0000e0 10 44 fd bc 5c a7 c3 3d e6 3f 25 3d d1 b4 14 be
       -0.030916244 0.09553406 0.04034414 -0.14522101
0000f0 d1 f6 db bd f9 c8 72 3d d2 61 5b bd b8 cf ef 3d
       -0.10740436 0.059273694 -0.053560086 0.11709541
000100 10 29 c7 3c 65 f3 90 bd b7 1c 36 3e a0 a3 0a 3e
       0.024311572 -0.07077674 0.17784391 0.1353898
000110 e8 6e 20 3e 81 f8 a9 bd 3d 54 55 bd 8f f5 f5 bc
       0.15667307 -0.082993515 -0.05208229 -0.030024318
000120 76 36 2f 3d 7b be 83 bd 51 75 07 bd 99 12 54 be
       0.042776547 -0.06432816 -0.033070866 -0.2071022
000130 bf a6 26 be f3 09 bc bc 8d 2b 8b 3d 51 0c ac 3d
       -0.16274546 -0.022953963 0.06795416 0.08400787
000140 a8 9c f6 3c 07 a4 7f 3c 5b 5e 3c bd b1 f2 12 3e
       0.030103996 0.015603072 -0.045988422 0.14350392
000150 1c 36 06 3e 2f d1 fc 3d cd 33 84 bd 9c cf 68 3d
       0.13106579 0.12344586 -0.06455193 0.056838617
000160 3f ab 86 3c 95 c8 84 bb 0a 3e 87 bd 62 d3 f7 3c
       0.016439078 -0.0040522316 -0.0660363 0.030252162
000170 11 9e f0 3d 3b c8 db bc 35 bf 59 bd 1f 0f c0 3d
       0.11748899 -0.026828876 -0.053160865 0.09377884
000180 04 63 15 be 33 10 e2 bd 92 84 4f 3d 8b e4 d1 3d
       -0.14588553 -0.11038246 0.05066354 0.10248669
000190 35 5e 21 bd 9f 34 24 bb e9 c7 27 be 5d 1d 4f 3c
       -0.039396483 -0.0025055779 -0.16384853 0.012641278
0001a0 ef 11 b0 bd ef 7b e8 3d 2a 2d 9d 3b 04 63 5c 3c
       -0.085971706 0.113517635 0.0047966437 0.013451342
0001b0 78 87 f3 bc 42 2e 92 3d 2b b6 c4 bd 6b cf 03 3d
       -0.029727682 0.07137729 -0.09605058 0.03218023
0001c0 88 85 ec 3d e6 d1 6f bd 8d e8 2a 3d 41 21 95 bd
       0.115489066 -0.058549784 0.041725684 -0.07281733
0001d0 dc c9 ca 3b d0 1b 05 be 03 99 1f be 20 e5 16 3e
       0.0061886143 -0.12998891 -0.15585713 0.14735842
0001e0 11 cf 46 bd 09 5e 0c be c9 c7 43 3e a4 45 a8 bd
       -0.048537318 -0.13707747 0.1911918 -0.08216408
0001f0 c3 c6 f0 bd 6f 0d f2 3d a6 cf c7 bd fb 8c e9 3d
       -0.11756661 0.118189685 -0.09756403 0.11403843
000200 8e 77 f6 3d ea ec 09 3e 29 dc a6 3c c2 33 c9 3d
       0.12034522 0.13469282 0.020368652 0.09824325
000210 45 3e 75 bd 30 26 c2 bb 79 2f b6 bd c9 46 9c 3d
       -0.059873838 -0.0059249625 -0.088957734 0.07630689
000220 ae b6 ca 3d 6d 2e b3 bd 54 ba 80 bd da 93 b5 3d
       0.09898125 -0.087490894 -0.06285539 0.08866091
000230 3a 28 17 3e 3d 47 e6 3d a2 6c 44 3d bb 2c f0 3d
       0.14761439 0.112440564 0.047955163 0.11727282
000240 a4 71 00 bd eb 74 79 bd 94 af 42 3d 2d b5 27 bb
       -0.031358376 -0.060902517 0.047530726 -0.0025590167
000250 fd 3c f5 3d 7f aa 4a 3d be e6 ae bc 3b f0 34 bd
       0.11974523 0.049479004 -0.02135026 -0.044174414
000260 4b ee a5 bd 6f c1 00 be 1e 2b 41 bd 0c 43 da bc
       -0.081020914 -0.12573789 -0.04716026 -0.026643299
000270 81 43 68 3d 74 9e 53 3d 05 d8 5e 3b 45 6d 04 bd
       0.056705 0.051664785 0.003400327 -0.03233077
000280 c9 db 75 3d b5 d7 b7 3d da 7a e2 3d 3a 4f 10 3c
       0.060024057 0.0897669 0.11058588 0.008807952
000290 a2 d9 8e 3c 7e eb a8 3d a1 b5 11 be a8 42 c9 3d
       0.01743776 0.082480416 -0.14229442 0.09827167
0002a0 1e 08 0b 3d 38 13 0f bd ce 1d 58 3d 07 83 8b bd
       0.033943288 -0.034930438 0.0527628 -0.06812101
0002b0 76 c8 01 bc 1d 3c 99 3c 49 89 1d 3d c4 4c 04 3e
       -0.007921329 0.018705422 0.038461003 0.12919909
0002c0 64 21 98 3d 7c cc 8f 3d 1e eb 41 ba 0f 04 d9 bd
       0.07428244 0.07021424 -0.0007397401 -0.10596477
0002d0 8b cf 6a bd b5 19 a3 3b 90 ff 13 be f6 bd d2 3d
       -0.057326835 0.0049774298 -0.14452958 0.102901384
0002e0 82 db 86 bc 7e 0b f2 bb 5e 4f c7 3b 3f 18 80 bd
       -0.016462091 -0.007386624 0.0060824594 -0.062546246
0002f0 fe e4 a6 3d 39 49 1f 3d e7 ff 1d 3d a9 21 09 3e
       0.081491455 0.03888819 0.038574126 0.13391747
000300 7a 03 3f bc bb ae 36 bd b4 34 29 3e fe d7 d4 3d
       -0.011658544 -0.04460023 0.16524011 0.1039276
000310 15 07 4a bc 1c 6f 32 bd d2 99 ac bc 13 61 87 3b
       -0.01233079 -0.043562993 -0.021069441 0.004131445
000320 25 d2 9d 3c 45 88 c2 bc 98 51 8a 3d a8 d7 95 bd
       0.019265244 -0.023746619 0.06753844 -0.07316524
000330 e4 63 37 bd a8 45 e3 3c 71 98 be 3d b3 41 b8 3d
       -0.044772997 0.027743176 0.0930642 0.08996906
000340 ed 35 46 bd 60 9b 11 bd 5c 76 bc bd e0 81 f7 3d
       -0.04839127 -0.035548568 -0.09202263 0.120853186
000350 56 e0 39 be 45 02 2f bd b7 5f 73 be 43 e5 25 3d
       -0.18151984 -0.042726774 -0.23766981 0.040501844
000360 56 99 ad 3c 58 b5 12 be 51 d3 3f be 62 6b 40 bd
       0.02119128 -0.1432699 -0.18732955 -0.04697741
000370 a4 59 b6 bc 65 2e 5c be e7 b7 c9 bd 51 83 9b bd
       -0.02225954 -0.21502073 -0.0984953 -0.07593406
000380 a2 89 e3 3d d0 5b 32 be dd 32 6a 3c 17 2c 62 be
       0.11110236 -0.17417836 0.014294353 -0.22087131
000390 fb 8b d3 bd 8e 6b f7 bc 80 7d be bc 52 f2 13 3e
       -0.103294335 -0.030202653 -0.023253202 0.14447907
0003a0 ed 20 3d bd 97 9a b2 3d 05 da 79 3d c9 8c d5 3d
       -0.04617398 0.08720892 0.060998935 0.10427243
0003b0 bf 45 24 be 41 43 10 be e1 98 44 3d be 36 43 be
       -0.16042231 -0.14088155 0.04799736 -0.19063851
0003c0 00 f8 46 be 68 7f d4 3c 3d 40 83 bd 5c 6a 19 be
       -0.19430542 0.025939658 -0.06408737 -0.14981979
0003d0 78 1f 60 3d 26 12 1c bd da 09 ac 3c ff d6 fa bd
       0.05471751 -0.038103245 0.021000791 -0.122480385
0003e0 69 6f f2 bd 74 b5 1e bd 35 8d e7 3d df 4e ba bd
       -0.11837656 -0.038747266 0.1130623 -0.09097075
0003f0 1a 7d 25 bd 27 0f 90 3d a7 bc 12 3c 4f 00 3f be
       -0.04040251 0.0703414 0.008956111 -0.18652461

mlp.2.bias f4 [64]
000000 00 03 0a 3e d2 7e 1b be a9 63 98 bd 5b 97 d4 bd
       0.13477707 -0.15185097 -0.07440884 -0.10380431
000010 e7 20 0e 3e 9e 48 24 be bb 66 55 3d d7 8a 15 be
       0.13879739 -0.16043326 0.052099925 -0.14603744
000020 b5 f9 6e 3d 21 38 cf 3d 03 cf 07 3e 92 bf e2 3d
       0.058343608 0.101181276 0.13262562 0.110716954
000030 bf 9f 6a 3d 5a 58 91 bd 88 15 13 be a7 69 29 be
       0.057281252 -0.0709693 -0.14363682 -0.1654421
000040 6c 7c f5 3c 3e 5c 8d 3d fb 87 c8 3d 95 b7 bb bd
       0.029966556 0.069023594 0.09791561 -0.09165875
000050 e6 8a a1 bd 64 88 ee 3d c8 28 9b bc 28 da 14 be
       -0.07887821 0.11647108 -0.018940344 -0.14536345
000060 89 f5 91 bd 29 bb 9c bb 5a 17 83 3d f2 d5 a4 3d
       -0.0712691 -0.0047830534 0.06400938 0.08048619
000070 43 a6 b3 bd 1c 5a 0c bd ad e0 0d 3d c7 17 a9 bd
       -0.08771946 -0.034265622 0.034638096 -0.08256488
000080 6c 09 f2 bd f4 2a 4b 3d f8 25 95 bd c2 03 94 3d
       -0.11818203 0.04960151 -0.072826326 0.07227279
000090 bd dd 09 bd 6f de 19 3d b8 03 8f 3d f0 3c b3 3c
       -0.03365873 0.037565645 0.06983131 0.021879643
0000a0 09 26 9a 3b be 53 4f 3c 0c 25 0b be fe af 98 3d
       0.004704241 0.012654243 -0.13588351 0.07455443
0000b0 5f cc 35 3e d0 58 08 3e 5c 2c 20 bb a6 8b 5e bd
       0.17753743 0.1331513 -0.0024440503 -0.054332398
0000c0 91 92 2e 3d 74 3c 81 bd 9a 9e ee bd 0f 59 f6 3a
       0.042620245 -0.06310359 -0.116513446 0.0018794852
0000d0 ea aa a4 3c 9a 7d da 3d 43 10 0e 3d 60 72 ce 3d
       0.02010103 0.10668488 0.034683477 0.10080409
0000e0 9f 9a e4 3b fa a7 ee bc 0b c4 10 bd 4e dc aa 3d
       0.00697644 -0.029132832 -0.03534321 0.08342801
0000f0 a2 60 de 3c 64 e3 0f 3d 4f df e3 3c 60 c5 8c bd
       0.027145687 0.035128966 0.027816443 -0.06873584

mlp.4.weight f4 [1, 64]
000000 3b 2a 5c 3d 24 4c 2d bd 85 2b cf bc 9b 58 3c 3d
       0.05375121 -0.04230894 -0.025289306 0.04598294
000010 75 e7 4d 3d 58 2a 14 3d b4 34 d0 3c 2e c2 12 3c
       0.050269563 0.036173195 0.025415756 0.008957429
000020 12 40 81 3d 9c 09 bc 3e 54 d8 80 3d f4 75 6a 3d
       0.063110486 0.3672608 0.06291261 0.057241395
000030 01 8a f9 bc da c0 cb 3d d2 4d a4 bd b8 66 e8 bc
       -0.030461313 0.09948893 -0.080226555 -0.028369293
000040 9d 54 77 3c 21 4f 36 3e 27 3b 14 3d f9 13 97 bc
       0.015095857 0.17803623 0.036189225 -0.01844214
000050 5d 7e 4c 3e b8 ef 09 3e 8e 51 8d bc e1 b7 d8 3b
       0.19970079 0.13470352 -0.017250802 0.006613717
000060 ea e9 64 3c 86 39 09 3d e5 00 88 3d 6d 10 a6 3b
       0.013971785 0.033502124 0.066407956 0.005067876
000070 ce 2a 03 3c 2c 84 eb 3d 56 26 44 be d1 a2 27 3d
       0.008005811 0.11499819 -0.19155249 0.04092676
000080 ff f1 01 be 7c fc d7 3d 9c f5 28 3e a0 23 35 be
       -0.1268997 0.105462044 0.16499943 -0.17689371
000090 47 74 3f 3d b6 ad a1 3c 4b 82 87 3c 94 69 59 3c
       0.04674175 0.019736152 0.01654162 0.013269801
0000a0 ad 5d ab bc c9 14 2f bd 78 b1 78 3c 9a 69 ee 3d
       -0.020918692 -0.04274443 0.015179031 0.11641236
0000b0 87 60 c8 3d 94 da 2c 3d 02 da 7b bd df 77 92 bc
       0.09784036 0.04220064 -0.061487205 -0.017879425
0000c0 1f e0 a8 3d 9e 14 ea 3c 96 59 01 bc a6 cd 13 3d
       0.08245873 0.028574284 -0.007894894 0.036084794
0000d0 10 35 a8 3d 22 6c ac 3d fa df b1 3d d4 a2 d1 3d
       0.08213246 0.08419062 0.08685298 0.10236135
0000e0 38 d0 5f bd 8e 16 e0 bb c1 ee 92 3d 9a 28 b8 3d
       -0.054641932 -0.006838626 0.07174445 0.08992119
0000f0 d9 a5 85 bd 62 03 6c 3d 11 31 25 bd 8b 77 1a be
       -0.065257736 0.057620414 -0.040329996 -0.15084665
