forecasting/midroll/dnn_model/model_3_ofwc2023.ckpt (torch, 42527 bytes, 5 tensors)

mlp.0.weight f4 [64, 90]
0	0x3dac3ba9	0.08409817
1	0x3ea30b07	0.3184435
2	0x3eab2a30	0.33430624
3	0xbed69952	-0.4191385
4	0x3da73eae	0.08166252
5	0x3e96f8fd	0.29486838
6	0x3ea5a4f0	0.323524
7	0xbe9ca1f2	-0.30592304
8	0xbe7c59da	-0.2464365
9	0x3e714be3	0.23564105
10	0x3d8e75c9	0.069560595
11	0x3c98eff3	0.018669104
12	0xbdbc9783	-0.09208586
13	0x3d2f1d05	0.042752285
14	0x3e686a80	0.22696877
15	0xbde88761	-0.113539465
16	0x3dbd81c8	0.092532694
17	0x3e0653f7	0.13117968
18	0x3e461ccf	0.19346927
19	0x3e0a8de8	0.13530695
20	0x3e3b1bd3	0.18272333
21	0x3d034aff	0.032053944
22	0xbce94207	-0.028473867
23	0x3e44e6b4	0.19228631
24	0xbeaf8780	-0.34283066
25	0xbe37659f	-0.17909859
26	0xbe5298de	-0.20566127
27	0x3e072571	0.13197877
28	0xbe02474f	-0.12722515
29	0xbd9f0bd8	-0.07765931
30	0xbe1e7cea	-0.15477338
31	0xbd524ae7	-0.051340964
32	0xbd95c154	-0.07312265
33	0xbe5bbbb3	-0.2145832
34	0x3e23af5b	0.15984862
35	0x3e73c749	0.2380649
36	0xbdaeda47	-0.08537727
37	0x3e36b6d6	0.17843184
38	0x3e920e82	0.28526694
39	0xbd828e0b	-0.06374749
40	0xbd0e9369	-0.03480855
41	0xbb651416	-0.00349546
42	0x3e4b6422	0.19862416
43	0xbd1d5f81	-0.038421158
44	0x3dba2379	0.09088797
45	0xbc09d486	-0.008412486
46	0x3cc13670	0.023585528
47	0xbdb921c7	-0.09039646
48	0xbd6bd724	-0.05757822
49	0x3eb1b9bf	0.34712026
50	0xbd387275	-0.04503103
51	0xbe9faa3f	-0.31184575
52	0xbeb723c2	-0.3576947
53	0xbe849781	-0.25896838
54	0x3e280744	0.16409022
55	0xbec1feab	-0.3788961
56	0xbb6a3537	-0.0035737285
57	0x3e64c837	0.22342001
58	0x3d90b6f4	0.070661455
59	0x3d0c0a76	0.034189664
60	0xbdcc7aec	-0.09984383
61	0x3e3fffd0	0.18749928
62	0x3e21a7dd	0.15786691
63	0x3e8abe78	0.2709844
64	0xbeae5a92	-0.34053475
65	0x3e928f96	0.28625172
66	0xbd9c4b73	-0.07631578
67	0x3c1bf8e4	0.009519789
68	0x3ddfa61c	0.10920355
69	0xbb7d99db	-0.0038696441
70	0xbd089e68	-0.033354193
71	0xbe3cace9	-0.18425335
72	0xbe99fac0	-0.3007412
73	0x3ed6c789	0.41949108
74	0xbeb75458	-0.35806537
75	0x3cab804d	0.020935202
76	0xbefb60ea	-0.49097377
77	0xbe4a5a96	-0.19761118
78	0x3d54dc44	0.051967874
79	0x3d7ed595	0.062215406
80	0x3e8a96cb	0.2706817
81	0xbc74fc5b	-0.014952744
82	0xbd16283d	-0.036659468
83	0x3dbb1de6	0.09136562
84	0xbd9c8989	-0.0764342
85	0x3dd03f5c	0.10168335
86	0x3db6cb15	0.089254536
87	0xbc6e84ad	-0.014558
88	0x3d0f4d06	0.034985565
89	0x3c0a299c	0.008432772
90	0xbd43dad3	-0.04781611
91	0x3e956d8a	0.29185134
92	0xbdb4928c	-0.08817014
93	0xbe7ab2f8	-0.24482334
94	0xbde202c4	-0.11035684
95	0x3e2d87f7	0.16946398
96	0x3f019e15	0.5063184
97	0xbe5ea444	-0.2174235
98	0xbd65fa90	-0.05614716
99	0x3d789452	0.060688324
100	0x3b20b568	0.002452219
101	0xbca09e24	-0.019606657
102	0xbdd63d22	-0.10460879
103	0xbc3f05d5	-0.011659105
104	0xbe4536b1	-0.19259144
105	0xbd0b5138	-0.034013003
106	0x3cae4cd6	0.021276873
107	0xbe03364c	-0.12813681
108	0x3d94b980	0.07261944
109	0x3dcbd538	0.099527776
110	0x3dd0c8a7	0.101945214
111	0xbbd2e245	-0.006435665
112	0xbda1bb2a	-0.07897027
113	0x3d8c14f4	0.06839934
114	0xbe1026c4	-0.14077288
115	0x3c6dbd58	0.014510475
116	0xbd7a9886	-0.061180614
117	0xbd4c8763	-0.049933802
118	0x3dcb406a	0.099243954
119	0xbe804fa4	-0.2506076
120	0x3da23801	0.07920838
121	0x3d37c395	0.044864256
122	0x3e020659	0.12697734
123	0xbcbe77ac	-0.023250423
124	0x3ca4bad8	0.020108625
125	0xbdc5ddec	-0.09661469
126	0x3c39374d	0.011304689
127	0x3d3f176a	0.04665319
128	0x3df572eb	0.119848095
129	0xbc922b8d	-0.017843032
130	0x3d24cc5d	0.04023396
131	0xbd3e456e	-0.046452932
132	0x3d6e9c8b	0.05825476
133	0xbdc3ad4e	-0.095545396
134	0x3dd834e0	0.1055696
135	0xbe2b99ec	-0.16757935
136	0x3e266ac2	0.16251662
137	0xbd53b7a8	-0.05168882
138	0xbd9beb99	-0.07613296
139	0x3d5992f6	0.05311867
140	0x3d0e66d6	0.03476604
141	0xbde3b8c9	-0.11119229
142	0xbdbacbab	-0.09120878
143	0x3c909ead	0.017653788
144	0xbdc72399	-0.097235866
145	0xbdccfa4d	-0.100086786
146	0xbdd238ca	-0.10264738
147	0xbe3d93d7	-0.18513428
148	0xb9ccaaae	-0.00039037078
149	0x3accdf87	0.0015630581
150	0x3b630be6	0.0034644543
151	0xbd0a79e5	-0.033807654
152	0xbd54e5a2	-0.051976807
153	0x3d0e8069	0.03479043
154	0x3da73bb3	0.081656836
155	0x3de4e79d	0.11176989
156	0xbc17bfcd	-0.009262037
157	0x3d650115	0.055909235
158	0xbd0bd977	-0.034142938
159	0x3deaf6e5	0.11472873
160	0x3e0af143	0.13568597
161	0xbbafae6e	-0.00536137
162	0xbca24c84	-0.019811876
163	0x3e1d59b6	0.15366253
164	0xbe22d5ca	-0.15901867
165	0x3e26cf8f	0.16290115
166	0xbd0f3ab8	-0.034968108
167	0x3da17a3f	0.07884645
168	0x3d9e2f73	0.07723894
169	0x3e3dad44	0.18523127
170	0x3e58a694	0.21157295
171	0xbdaa87af	-0.08326661
172	0x3e1cf74e	0.15328714
173	0x3cff694b	0.031178137
174	0x3ca85b6d	0.020551408
175	0x3c8df5c7	0.01732911
176	0x3d8ec970	0.06972015
177	0xbc9a0405	-0.018800745
178	0x3dd1b50b	0.10239609
179	0xbe35597d	-0.17709918
180	0xbd93953b	-0.07206198
181	0x3dbab2c7	0.0911613
182	0xbdb3ef1a	-0.087858394
183	0xbe500f49	-0.20318331
184	0xbd8ede02	-0.069759384
185	0x3e38ea74	0.18058187
186	0x3eb900a1	0.36133292
187	0xbe6028ac	-0.21890515
188	0xbdea2cca	-0.11434324
189	0xbdc63205	-0.09677509
190	0xbc24b674	-0.010053266
191	0x3e3735a6	0.17891559
192	0xbe08037e	-0.13282582
193	0xbd8bd4d2	-0.06827702
194	0xbdc63db4	-0.09679738
195	0x3addbc09	0.0016917001
196	0xbd2aa8d0	-0.0416649
197	0xbd1b7b5f	-0.037959453
198	0xbd16e5e5	-0.03684034
199	0x3dce7fdf	0.10082983
200	0x3d016952	0.031594582
201	0x3d5656ec	0.05232899
202	0x3c95e25a	0.01829641
203	0xbcecbfff	-0.028900145
204	0xbd25fa3a	-0.040521838
205	0xbcc023fc	-0.023454659
206	0x3c289f08	0.010291822
207	0xbd540f89	-0.051772628
208	0x3ddb2987	0.1070128
209	0xbe5284e7	-0.2055851
210	0x3de5c390	0.11218941
211	0xbcbd08fa	-0.02307557
212	0x3dbe46cf	0.092908494
213	0x3e346760	0.1761756
214	0x3d5cd6b6	0.0539157
215	0xbe241d74	-0.1602686
216	0x3dd40abc	0.1035361
217	0x3e0c982c	0.13729924
218	0xbcabf751	-0.020991953
219	0x3d800013	0.06250014
220	0x3d0326dc	0.03201948
221	0xbc934438	-0.017976865
222	0xbda8d695	-0.08244053
223	0x3e048110	0.12939858
224	0xbdbf5513	-0.093423985
225	0xbd125126	-0.03572192
226	0x3ce7d72e	0.028300848
227	0xba70cf83	-0.0009186195
228	0xbd765877	-0.06014296
229	0x3de8c93e	0.11366509
230	0x3d3ead6c	0.046552107
231	0xbda77266	-0.08176117
232	0xbe4c9bf1	-0.19981362
233	0x3e0b6498	0.13612592
234	0xbc6339fd	-0.013868806
235	0xbd8ce9ba	-0.06880517
236	0xbdf36b9c	-0.11885759
237	0x3ca2eec1	0.019889237
238	0x3d296f37	0.04136583
239	0x3d922237	0.07135432
240	0x3e249d62	0.16075662
241	0x3d837c7d	0.06420229
242	0x3da9a32a	0.08283074
243	0xbda8ae67	-0.082363896
244	0x3c0a9017	0.008457205
245	0xbd2e57b2	-0.0425641
246	0xbde27655	-0.11057726
247	0x3e2336ac	0.15938824
248	0xbd8d0b30	-0.068868995
249	0x3e1c6257	0.15271889
250	0x3d60937d	0.054828156
251	0x3caa2b58	0.020772621
252	0xbdff75ee	-0.12473665
253	0x3c9ba243	0.01899827
254	0xbcbb9d45	-0.02290214
255	0x3d530b20	0.05152428

mlp.0.bias f4 [64]
0	0xbd434c25	-0.04768004
1	0x3dd2195d	0.10258744
2	0x3e23a44f	0.15980648
3	0x3e28d375	0.16486914
4	0xbd675e14	-0.056486204
5	0x3dd5a0cc	0.1043106
6	0x3c9e125f	0.01929587
7	0x3d0ecd55	0.03486379
8	0x3ce6d634	0.028178312
9	0xbd4f91f7	-0.050676312
10	0xbded70c8	-0.11593777
11	0x3d4c64f1	0.049900953
12	0x3e174fc8	0.14776528
13	0xbd8bd6c0	-0.0682807
14	0xbd20d4b1	-0.03926534
15	0x3dd42759	0.103590675
16	0x3d660ef0	0.05616659
17	0xbd9fcafe	-0.078023896
18	0x3e1fc177	0.15601145
19	0x3caea5c0	0.02131927
20	0x3d2602f0	0.040530145
21	0x3d8ab047	0.067719035
22	0x3de1435c	0.10999176
23	0x3d4563c5	0.04819085
24	0x3df3e84b	0.11909541
25	0x3d8a1376	0.06741993
26	0xbdb5d193	-0.08877864
27	0x3e012513	0.12611799
28	0x3de16b8a	0.110068396
29	0x3dc9daa2	0.09856154
30	0xbd2fbf2e	-0.042906933
31	0xbd91b9c4	-0.0711551
32	0x3cc835a7	0.024439646
33	0xbd0ce297	-0.03439578
34	0xbbde21f5	-0.0067789503
35	0x3d21c910	0.03949839
36	0x3d9ab189	0.075533934
37	0xbc321ee9	-0.010871627
38	0x3d20905c	0.03920017
39	0x3e2977d9	0.16549625
40	0xbd59efd6	-0.05320724
41	0x3e25a3ee	0.16175815
42	0x3da409b8	0.08009666
43	0xbdab0e06	-0.08352284
44	0x3d32f486	0.043690227
45	0x3dcb2416	0.09918992
46	0x3d41935b	0.04725967
47	0x3dfb4c49	0.122704096
48	0x3c44667d	0.011987326
49	0x3e15e677	0.14638697
50	0x3e0d92c4	0.13825518
51	0x3d5e1425	0.05421843
52	0x3e0fc8c5	0.14041431
53	0x3dcda1dd	0.100406386
54	0x3cdf82a3	0.027283972
55	0x3aa26c4c	0.0012391894
56	0x3e07def4	0.13268644
57	0xbd9ed3fe	-0.07755278
58	0x3c582eda	0.013194764
59	0xbc554a11	-0.013018147
60	0x3d7600dc	0.060059413
61	0x3b8d378f	0.0043096016
62	0x3db5eb43	0.08882763
63	0xbc9cf909	-0.019161718

mlp.2.weight f4 [64, 64]
0	0xbddc02a3	-0.107426904
1	0xbdd56011	-0.10418714
2	0xbc04798d	-0.008085621
3	0x3ccb42db	0.024812153
4	0x3b424c50	0.0029647537
5	0xbca3ef12	-0.020011459
6	0xbd6fd831	-0.058555786
7	0xbda2ca2a	-0.07948716
8	0x3db97331	0.09055174
9	0xbd4140d7	-0.047180977
10	0xbc61a8d8	-0.013773166
11	0x3d963934	0.073351294
12	0x3c3065b2	0.010766434
13	0xbd18810a	-0.037232436
14	0x3dbcd580	0.092204094
15	0x3d3642c2	0.04449726
16	0xbdb3349e	-0.0875027
17	0x3d820d5b	0.063502036
18	0xbd23c974	-0.039987043
19	0xbd510456	-0.051029526
20	0xbd6922fe	-0.056918137
21	0x3d1da664	0.03848876
22	0xbda851c5	-0.08218721
23	0xbd902cd7	-0.070398025
24	0x3da58c13	0.08083358
25	0xbd2a09f7	-0.04151341
26	0x3d23e510	0.040013373
27	0x3ca195b4	0.019724704
28	0xbd82b34a	-0.06381853
29	0xbd8d7273	-0.06906595
30	0x3c36f0d9	0.011165821
31	0xbd5bd12e	-0.053666286
32	0xbe0ac507	-0.13551722
33	0x3db0b238	0.086277425
34	0x3dad8ff3	0.08474722
35	0xbd091d43	-0.03347517
36	0xbe0077af	-0.12545656
37	0x3d5360c4	0.051605955
38	0xbc2363b5	-0.0099725025
39	0x3cc50796	0.024051469
40	0x3d638b35	0.05555268
41	0xbe0eb276	-0.13935265
42	0x3d062bca	0.032756604
43	0x3cf9322b	0.03041943
44	0xbd774139	-0.060364936
45	0x3d5089b0	0.05091256
46	0x3a0d46af	0.0005389256
47	0x3dab2975	0.08357517
48	0xbcc60200	-0.024170876
49	0x3da3dff3	0.08001699
50	0xbc86eeab	-0.016471228
51	0x3ddec8d2	0.10878147
52	0xbe059616	-0.13045534
53	0x3c45c212	0.012070196
54	0xbcac487d	-0.021030659
55	0xbd0f15e1	-0.034932975
56	0xbd2bf762	-0.04198397
57	0x3c3d9f5a	0.011573637
58	0xbd56098a	-0.05225519
59	0xbda7a9c7	-0.08186679
60	0xbd799699	-0.060934637
61	0xbd1fc5a2	-0.039006837
62	0xbd9bf534	-0.07615128
63	0xbdc14dc9	-0.094386645
64	0x3daedb74	0.08537951
65	0xbda020ad	-0.078187324
66	0xbb97686f	-0.0046206038
67	0xbe0d350b	-0.13789766
68	0xbc810e06	-0.015753757
69	0x3db87c3d	0.090080716
70	0xbda94e8c	-0.08266935
71	0xbde917d0	-0.11381495
72	0x3dc9e668	0.098584
73	0x3cecafd9	0.028892444
74	0x3ca01b54	0.019544281
75	0xbdfbabc6	-0.122886226
76	0x3d4490a0	0.047989488
77	0x3cfe1ea4	0.03102047
78	0x3da01ade	0.078176245
79	0x3d663830	0.05620593
80	0xbd2aa7b8	-0.041663855
81	0xbd4b73c6	-0.049670957
82	0x3d137e89	0.036009345
83	0xbda9aef9	-0.082853265
84	0xbdcbc939	-0.099504896
85	0x3d5a7bb2	0.05334062
86	0x3d156b23	0.036479127
87	0xbdd67231	-0.10470999
88	0x3dc3f33e	0.09567879
89	0xbe060e76	-0.13091454
90	0xbc690d04	-0.014224295
91	0x3aa6a929	0.0012715209
92	0x3d61b8ce	0.055107884
93	0x3dd8c619	0.10584659
94	0x3c5e881a	0.013582254
95	0xbd74ee0f	-0.059797343
96	0x3d2eeb82	0.042705067
97	0x3c1a9bf9	0.009436601
98	0x3dd67ee6	0.10473423
99	0xbd5e170f	-0.05422121
100	0xbd9ed1e9	-0.07754881
101	0x3da7e5c1	0.08198119
102	0x3ca7c3b3	0.020479059
103	0x3c96352e	0.018335905
104	0x3c1a6608	0.00942374
105	0xbc2c52f3	-0.0105178235
106	0xbc895255	-0.016762892
107	0x3dd2848d	0.10279188
108	0x3d7253f4	0.059162095
109	0x3daf434b	0.08557757
110	0x3d15f51d	0.03661071
111	0xbcd28e96	-0.025702756
112	0x3d11f0f5	0.035630185
113	0xbda458b0	-0.08024728
114	0xbda5c124	-0.08093479
115	0x3d90497f	0.07045268
116	0xbd75d898	-0.060021013
117	0x3d004306	0.03131392
118	0xbdfe1a50	-0.124073625
119	0x3d0bd89f	0.034142133
120	0xbc5567cf	-0.013025238
121	0xbd671ff9	-0.056426976
122	0x3b0d81d0	0.0021592267
123	0x3dd6baf2	0.10484876
124	0xbd2e60f0	-0.042572916
125	0xbd4cc15c	-0.04998909
126	0xbd6d889c	-0.05799161
127	0xbd786103	-0.060639393
128	0xbdd742bc	-0.105107754
129	0xbdb83f34	-0.0899643
130	0x3dd77dfc	0.105220765
131	0x3cba1cc5	0.022718797
132	0xbc999640	-0.018748403
133	0x3db1d70f	0.08683597
134	0xbddf1eb1	-0.10894526
135	0xbd93ec0f	-0.07222759
136	0x3d9dae32	0.07699241
137	0x3ba1a180	0.0049325824
138	0x3d42ca18	0.047556013
139	0xbdcf4688	-0.10120875
140	0x3d768bcf	0.060191926
141	0x3d314807	0.04328158
142	0xbd997bdd	-0.07494328
143	0x3d9293f2	0.071571246
144	0xbdfecc70	-0.12441337
145	0xbd397509	-0.04527763
146	0x3dd99566	0.106241986
147	0xbd3547b8	-0.04425785
148	0xbd47481f	-0.048652764
149	0xbe0686ef	-0.1313741
150	0xbde6fc0d	-0.112785436
151	0x3d9a6dff	0.07540511
152	0x3d28013d	0.041016806
153	0xbd5278ee	-0.05138486
154	0x3d5bdd66	0.05367794
155	0xbd0e6a08	-0.034769088
156	0xbd2fdf75	-0.042937715
157	0xbd14b948	-0.03630951
158	0xbd2703e9	-0.040775213
159	0xbc8efb35	-0.01745377
160	0xbd86ef4f	-0.06588613
161	0xbd73b746	-0.059500955
162	0xbd28fad2	-0.041254826
163	0xbdb1daa7	-0.08684283
164	0x3d81a72c	0.06330714
165	0x3d4a0031	0.04931659
166	0x3dc00226	0.0937541
167	0x3d87f3fb	0.066383325
168	0xbdb2c716	-0.08729379
169	0x3ce4d48a	0.027933378
170	0xbda59756	-0.08085506
171	0x3bc56056	0.006023447
172	0xbd42383b	-0.047416907
173	0xbd2133af	-0.03935593
174	0xbca637db	-0.020290306
175	0xbdea9304	-0.11453822
176	0xbe0266e9	-0.1273457
177	0xbd19d049	-0.03755215
178	0x3d1014fc	0.035176262
179	0xbd2274a2	-0.03966201
180	0xbd53deb4	-0.051726058
181	0xbd065233	-0.032793235
182	0x3d50a114	0.050934866
183	0x3da7d0fc	0.081941575
184	0x3d3e0e2f	0.046400245
185	0xb9edcdc3	-0.00045357467
186	0xbe0211fe	-0.12702176
187	0x3d0b73a8	0.034045845
188	0xbc80a6e3	-0.015704578
189	0x3bed4b1a	0.007241619
190	0x3cda7721	0.026668133
191	0xbc056993	-0.008142847
192	0x3f3678a4	0.71277833
193	0x3c6089eb	0.013704757
194	0x3dc1c56c	0.09461483
195	0x3d774d83	0.060376655
196	0x3d93cdc8	0.07216984
197	0x3e0128b7	0.12613188
198	0x3df0aef0	0.11752117
199	0xbd024d01	-0.031811718
200	0x3da8f59b	0.082499705
201	0xbf4f007d	-0.8086012
202	0x3dec475a	0.11537047
203	0x3e2e1c6a	0.17003027
204	0x3d991773	0.07475176
205	0x3dd3c463	0.10340192
206	0x3df563d9	0.11981935
207	0x3dfcd697	0.12345617
208	0x3e2d944e	0.16951105
209	0x3f712d61	0.9420987
210	0x3d751627	0.05983558
211	0xbac698cd	-0.0015151739
212	0x3e2f8cb2	0.17143515
213	0x3da020f5	0.07818786
214	0x3f23f891	0.6405116
215	0xbf33c6b1	-0.70225054
216	0x3e15457b	0.14577286
217	0x3dcc2bcf	0.09969293
218	0x3ecba43a	0.39773732
219	0xbce68c7f	-0.028143166
220	0x3f02b173	0.51052016
221	0x3badb865	0.0053015226
222	0x3e045ac2	0.12925246
223	0x3f0afdee	0.54293716
224	0x3e1620fc	0.1466102
225	0x3de5f95b	0.112292014
226	0x3e42c5fc	0.19020838
227	0x3dd71472	0.105019465
228	0x3e1bb273	0.15204792
229	0xbedcab0b	-0.43099245
230	0x3e39969a	0.18123856
231	0x3cdbb982	0.026821855
232	0xbc9eb7fc	-0.01937484
233	0x3e250c4b	0.1611797
234	0x3e2f0521	0.170918
235	0x3f2968ab	0.66175336
236	0x3c7880f3	0.015167463
237	0xbc81eda0	-0.015860379
238	0x3c4a9554	0.012364704
239	0x3d689702	0.056784637
240	0x3d1b5266	0.03792038
241	0x3c469987	0.012121565
242	0xbcd46667	-0.025927735
243	0xbf06312b	-0.52418774
244	0xbbffb23a	-0.0078032287
245	0x3e1da762	0.15395883
246	0x3f2f66c4	0.6851618
247	0x3e2ee7ec	0.17080659
248	0x3df1d855	0.1180884
249	0xbf0ba7c2	-0.54552853
250	0x3e2cdf35	0.16882022
251	0xbcf82609	-0.030291574
252	0x3c50886f	0.012727841
253	0xbce41d61	-0.02784604
254	0x3c612fd2	0.013744311
255	0x3ed5e98b	0.41779742

mlp.2.bias f4 [64]
0	0x3d90bd37	0.0706734
1	0xbe00324d	-0.12519188
2	0x3d56b8a2	0.052422173
3	0x3e367e61	0.17821647
4	0xbe0fb08c	-0.14032191
5	0xbd48f861	-0.049064998
6	0xbd22fc70	-0.039791524
7	0x3ddde512	0.10834707
8	0x3e21f30c	0.15815371
9	0x3e125035	0.14288409
10	0xbd5eb01b	-0.054367166
11	0xbdc53be8	-0.09630567
12	0x3e247282	0.16059306
13	0x3d26a32e	0.040682964
14	0xbdd0b13f	-0.10190057
15	0x3e1a7cfa	0.15086737
16	0x3caa1e73	0.020766472
17	0x3c886e39	0.01665412
18	0x3d6441d7	0.055726852
19	0xbb7315a3	-0.0037091754
20	0x3d938109	0.07202346
21	0xbdc989e2	-0.09840752
22	0xbd5518df	-0.052025672
23	0x3de47765	0.11155585
24	0xbe116338	-0.14198005
25	0x3d7bf7d9	0.061515663
26	0x3dfcb1b5	0.123385824
27	0xbdfaf60a	-0.122539595
28	0x3d9844f2	0.07435025
29	0xbd488eca	-0.0489643
30	0x3d8a0ef9	0.06741137
31	0x3da98518	0.08277339
32	0x3c74effd	0.014949796
33	0xbdfee872	-0.12446679
34	0x3cf025b8	0.02931486
35	0xbd2d2ad0	-0.042277157
36	0x3c3aabf7	0.011393539
37	0xbcb051d5	-0.021523396
38	0xbdcc82e4	-0.09985903
39	0x3d764f56	0.060134254
40	0x3d05170e	0.03249269
41	0x3cd47025	0.02593238
42	0x3bff5d3f	0.007793098
43	0x3dcb3c74	0.0992364
44	0xbcde146f	-0.027109353
45	0x3dc58a9f	0.096455805
46	0x3b1584f0	0.0022814833
47	0x3d3f6de5	0.046735663
48	0xbc565e15	-0.013083954
49	0x3e1b4f81	0.15167047
50	0xbc3f125c	-0.011662092
51	0xbd7292a1	-0.059221867
52	0x3df24f73	0.1183156
53	0x3d1cb48c	0.03825812
54	0xbd8dabe9	-0.06917555
55	0xbd6ea684	-0.05826427
56	0xbd0e49d7	-0.034738388
57	0x3d2e05e2	0.04248608
58	0x3e0fe0e3	0.14050631
59	0xbd9d47e8	-0.07679731
60	0x3dbc5801	0.09196473
61	0x3e282e62	0.16423944
62	0x3e2a2d05	0.16618736
63	0xbdb137cc	-0.086532205

mlp.4.weight f4 [1, 64]
0	0xbce272c6	-0.027642619
1	0xbdaabb06	-0.08336453
2	0xbd9e745f	-0.0773704
3	0x3e7fed52	0.24992874
4	0xbd5ae20e	-0.05343824
5	0x3e68947c	0.22712892
6	0x3deb9e1a	0.11504765
7	0x3e8dd3a9	0.27700546
8	0x3e63feaa	0.22265115
9	0x3e6f6d06	0.23381433
10	0x3e960ee2	0.2930823
11	0xbcc2f696	-0.023799222
12	0x3e5692e4	0.20954472
13	0xbde06eab	-0.10958608
14	0xbd05e112	-0.032685347
15	0x3e7d37cc	0.24728316
16	0xbddb6fb2	-0.107146636
17	0x3bc6e9b5	0.0060703405
18	0x3e6bb32e	0.2301757
19	0xbdbfe2c8	-0.09369427
20	0xbdb37a12	-0.087635174
21	0xbd2f3966	-0.04277935
22	0xbcdc8e7c	-0.02692341
23	0x3e5b9bea	0.21446195
24	0xbd988ad2	-0.07448353
25	0xbd2a42b0	-0.041567504
26	0x3e9b7fce	0.30370945
27	0xbda4617e	-0.08026408
28	0x3e7dac5e	0.24772784
29	0xbd768fcd	-0.060195733
30	0x3e6c1bc1	0.23057462
31	0xbc9daea0	-0.019248307
32	0x3e734cb2	0.23759726
33	0xbda085b0	-0.07837999
34	0x3e8dfd8d	0.27732506
35	0xbdb1fe30	-0.086910605
36	0x3ea28739	0.31743792
37	0x3e8389d5	0.25691095
38	0xbde41569	-0.11136896
39	0x3e628c28	0.22123778
40	0x3e5fadd1	0.2184365
41	0xbd70d76a	-0.058799185
42	0xbdaf9e55	-0.08575121
43	0xbd28a3f4	-0.041171983
44	0x3e579005	0.21051033
45	0x3e552afc	0.20817178
46	0x3e9a16d0	0.3009553
47	0xbdac8492	-0.08423723
48	0xbba182da	-0.004928929
49	0x3e7a5446	0.2444621
50	0x3e55f572	0.20894411
51	0xbb610bb5	-0.0034339253
52	0x3e6d2a9c	0.23160785
53	0x3e91ad8a	0.28452712
54	0xbce0d755	-0.027446428
55	0xbc90f6f5	-0.017695883
56	0x3e681855	0.22665532
57	0x3e6edf14	0.23327285
58	0x3e34053c	0.17580122
59	0xbb9bcbf9	-0.00475454
60	0xbdaab2a1	-0.08334852
61	0x3e6c7d3d	0.2309465
62	0x3e4d9ffb	0.20080559
63	0xbc74f625	-0.014951264
