forecasting/midroll/dnn_model/model_1_ofipl2022.ckpt (torch, 42535 bytes, 5 tensors)

mlp.0.weight f4 [64, 90]
0.0029152553 0.22394478 0.05756499 -0.004446735 0.2258327 0.1441285 -0.06458045 -0.008101043
-0.012227429 -0.03621322 0.012702053 -0.107665844 -0.16867585 -0.08656671 -0.06469035 0.11214883
-0.08903124 -0.079831466 0.038168907 -0.042740658 -0.02444553 -0.042882264 0.057222124 0.13950428
0.076602854 -0.055742595 0.029667428 0.06899872 -0.1002676 0.06987941 -0.07704977 -0.016542489
-0.06455384 -0.005285359 0.015521996 0.04826504 0.08817803 -0.074670844 -0.06468689 -0.019723047
-0.058110513 0.101958014 0.024279749 0.005097784 0.046163145 0.121158265 -0.06256368 -0.008976212
0.084271915 0.082808025 0.045703143 0.057562597 0.07209495 -0.016313544 0.048623227 -0.023306703
0.1503013 -0.00768759 0.0284015 -0.0058692875 0.057859726 -0.07265265 0.010083065 0.057495203
-0.08020494 -0.13226585 -0.12795737 0.014686148 0.07496364 -0.0419004 0.043167714 -0.07212357
-0.12279729 -0.071954824 -0.060881227 -0.05614024 -0.07837933 0.038358554 -0.13160428 0.06445125
0.14049332 0.077328525 0.022485431 0.0011953997 -0.057753168 0.047355816 0.017430294 0.024037357
-0.067012675 -0.05789144 0.18559061 0.46092007 0.0019594627 -0.10796417 0.14271592 0.43091846
-0.19212629 0.0390267 -0.056586705 -0.0418969 0.18568605 -0.26170763 -0.07222083 -0.09270074
-0.23279212 0.12693267 -0.08104628 0.10438333 0.009896273 0.010179123 0.034955032 -0.055066876
0.047122195 0.034620296 0.004242461 -0.15325566 -0.018385326 0.17521538 -0.1161932 0.08056245
0.060110543 0.06568055 0.03228539 -0.03311949 0.0720412 -0.021006308 -0.08698687 0.0040300023
-0.12701961 0.009528492 -0.008468689 0.035544846 -0.0073697274 -0.03243409 0.107241444 -0.031393014
-0.094500184 0.015108667 0.0032464128 0.1184775 0.037948743 -0.050679233 0.15005401 -0.016596688
-0.0035127052 0.25793225 -0.0938458 -0.03311191 -0.07607041 -0.26150906 -0.014139152 0.097438134
-0.1549992 -0.28981227 -0.0034738 0.004154778 0.040082794 0.053851757 -0.062805906 0.060049616
0.09296852 -0.050607916 -0.13237782 0.094040684 -0.16410922 -0.076660484 -0.15727086 -0.15814814
-0.04302551 -0.20729965 -0.04420426 -0.079407245 -0.104522005 0.2080839 -0.099183604 -0.044899862
0.11165553 0.008100541 -0.06233353 -0.09190424 -0.03448739 0.337982 0.034450814 -0.15697825
0.15055503 0.32050946 -0.09499979 -0.080710225 -0.23027539 -0.0856348 0.081832916 -0.18020658
-0.16853708 -0.17904598 -0.17899989 -0.014391455 -0.04370377 0.07319751 0.039426178 0.045597233
-0.0601159 0.07381521 -0.043492604 0.03796152 -0.036005422 -0.028759103 0.018149698 0.10841265
-0.029163234 0.12001773 -0.08308952 -0.05178699 0.012273448 -0.05765919 0.019815085 0.053361125
0.05850032 0.15214074 0.021624366 0.23042741 -0.052697483 0.09778614 0.09254785 -0.055508234
-0.035499636 -0.08896218 0.064430654 -0.074615516 -0.058106955 0.06999696 0.017704267 0.05712241
-0.06900674 -0.0401429 0.029829074 0.040937737 -0.027003082 -0.025450211 0.12172782 -0.04839701
-0.12884581 -0.070680305 -0.006038201 -0.13812421 0.10892761 -0.014803996 0.071898945 0.019033302
-0.12555057 0.042300414 0.050379124 -0.23570834 -0.11111977 -0.09570319 0.025044478 -0.11677272
00000000: de0d 3f3b c851 653e 44c9 6b3d ebb5 91bb
00000010: b040 673e 6c96 133e c142 84bd 3dba 04bc
00000020: 8e55 48bc 5054 14bd 461c 503c e97f dcbd
00000030: 5db9 2cbe e349 b1bd 607c 84bd 49ae e53d
00000040: 0356 b6bd ae7e a3bd 0057 1c3d d410 2fbd
00000050: fe41 c8bc 50a5 2fbd bf61 6a3d 36da 0e3e
00000060: f5e1 9c3d 5952 64bd 1b09 f33c 334f 8d3d
00000070: 1959 cdbd f01c 8f3d 45cc 9dbd 1d84 87bc
00000080: ce34 84bd ce30 adbb f84f 7e3c 90b1 453d
00000090: af96 b43d 07ed 98bd 8f7a 84bd 3a92 a1bc
000000a0: 4a05 6ebd 5dcf d03d 53e6 c63c 500b a73b
000000b0: 9115 3d3d d321 f83d 6321 80bd f610 13bc
000000c0: c196 ac3d 4197 a93d 3833 3b3d c2c6 6b3d
000000d0: 84a6 933d fba3 85bc 2629 473d b3ed bebc
000000e0: 96e8 193e 2ee8 fbbb 43aa e83c 2753 c0bb
000000f0: 52fe 6c3d eaca 94bd 7133 253c 1780 6b3d
00000100: 7d42 a4bd b370 07be 4207 03be 2b9e 703c
00000110: 8986 993d c19f 2bbd a1d0 303d 86b5 93bd
00000120: 257d fbbd 0d5d 93bd 985e 79bd 4ff3 65bd
00000130: 5885 a0bd dc1d 1d3d 46c3 06be 04ff 833d
00000140: 7bdd 0f3e 6b5e 9e3d 5e33 b83c f5ae 9c3a
00000150: 968e 6cbd 2cf8 413d fac9 8e3c fee9 c43c
00000160: f13d 89bd 931f 6dbd 770b 3e3e b7fd eb3e
00000170: 546a 003b 521c ddbd 1f24 123e 58a1 dc3e
00000180: c1bc 44be 76da 1f3d 76c7 67bd 159c 2bbd
00000190: 7c24 3e3e 8bfe 85be 84e8 93bd e3d9 bdbd
000001a0: 0f61 6ebe a3fa 013e 98fb a5bd edc6 d53d
000001b0: fa23 223c 56c6 263c 022d 0f3d ce8d 61bd
000001c0: 3403 413d 03ce 0d3d 5804 8b3b 0def 1cbe
000001d0: d39c 96bc a96b 333e b3f6 edbd edfd a43d
000001e0: 7936 763d 8683 863d af3d 043d 4da8 07bd
000001f0: 568a 933d 6c15 acbc 2c26 b2bd 1c0e 843b
00000200: 6e11 02be 641d 1c3c 42c0 0abc 7997 113d
00000210: c17d f1bb 9cd9 04bd 67a1 db3d f695 00bd
00000220: 5089 c1bd 588a 773c c5c1 543b 55a4 f23d
00000230: 2470 1b3d 0795 4fbd c2a7 193e c7f5 87bc
00000240: 6a35 66bb b20f 843e 3a32 c0bd 5ba0 07bd
00000250: ceca 9bbd 84e4 85be e7a7 67bc a58d c73d
00000260: 1cb8 1ebe 4662 94be b1a8 63bb ce24 883b
00000270: db2d 243d a993 5c3d 62a0 80bd 96f6 753d
00000280: 4866 be3d 3f4a 4fbd 0d8e 07be 6798 c03d
00000290: 3f0c 28be 2c00 9dbd 9d0b 21be 96f1 21be
000002a0: 843b 30bd 5c46 54be 870f 35bd 44a0 a2bd
000002b0: a20f d6bd f213 553e c620 cbbd ebe8 37bd
000002c0: a8ab e43d 22b8 043c 7251 7fbd 4a38 bcbd
000002d0: a642 0dbd fa0b ad3e 4c1c 0d3d e8be 20be
000002e0: 192b 1a3e d119 a43e 408f c2bd 674b a5bd
000002f0: 50cd 6bbe 4c61 afbd 0498 a73d 1388 38be
00000300: fc94 2cbe d457 37be bf4b 37be 23ca 6bbc
00000310: b902 33bd 93e8 953d 587d 213d 2ac4 3a3d
00000320: 173c 76bd 6e2c 973d 4d25 32bd 8a7d 1b3d
00000330: 6c7a 13bd 3698 ebbc adae 943c 7407 de3d
00000340: bce7 eebc dbcb f53d d72a aabd 981e 54bd
00000350: 9216 493c 0b2c 6cbd 3f53 a23c 3291 5a3d
00000360: 089e 6f3d c8ca 1b3e 9525 b13c 2af5 6b3e
00000370: 51d9 57bd 1a44 c83d ba89 bd3d 9a5c 63bd
00000380: 1168 11bd ce31 b6bd 38f4 833d 05d0 98bd
00000390: 8f01 6ebd 915a 8f3d 8a08 913c 30f9 693d
000003a0: 6853 8dbd e26c 24bd 1a5c f43c 54ae 273d
000003b0: 9135 ddbc f67c d0bc 6f4c f93d f13b 46bd
000003c0: 28f0 03be d6c0 90bd 1adc c5bb 6f70 0dbe
000003d0: 7015 df3d 768c 72bc c13f 933d baeb 9b3c
000003e0: 5490 00be 3343 2d3d 575a 4e3d 875d 71be
000003f0: c392 e3bd 0900 c4bd 142a cd3c 8926 efbd

mlp.0.bias f4 [64]
0.07952663 -0.042697616 -0.10416279 -0.018578047 -0.023398789 0.013696565 -0.057773147 0.12367486
-0.04497318 -0.09223162 -0.0055321977 -0.12441819 0.039763764 0.008572899 -0.07448406 0.08301101
-0.0023952755 -0.05194 -0.091593884 0.037865084 -0.05470073 -0.022830488 0.03508033 0.069810554
0.02231838 0.05524611 0.0691455 0.05432421 -0.035012443 0.05930614 0.024364572 -0.033434216
-0.074595705 -0.07351738 0.038839363 -0.0021897191 -0.104646266 -0.060817983 -0.09263253 0.0346058
0.09818235 -0.09398067 0.007846806 -0.084646195 0.055454064 0.09214662 -0.03234344 -0.103891164
0.0023149597 -0.06181908 -0.09451953 -0.08088304 -0.07611354 -0.007377443 0.048195217 -0.03849597
-0.09595032 0.024736486 -0.11060771 -0.006932335 -0.11646988 0.08264439 -0.09836195 -0.11848507
00000000: dcde a23d b2e3 2ebd 4d53 d5bd fd30 98bc
00000010: d1ae bfbc 8f67 603c 89a3 6cbd 3f49 fd3d
00000020: cc35 38bd eee3 bcbd 7047 b5bb f7ce febd
00000030: 54df 223d 5875 0c3c 198b 98bd ad01 aa3d
00000040: 0efa 1cbb 0abf 54bd 9395 bbbd 6b18 1b3d
00000050: df0d 60bd 0107 bbbc 64b0 0f3d d6f8 8e3d
00000060: 09d5 b63c bf49 623d 289c 8d3d 1083 5e3d
00000070: 3569 0fbd ffea 723d 3698 c73c 51f2 08bd
00000080: a2c5 98bd 4890 96bd 0616 1f3d 6481 0fbb
00000090: c850 d6bd 471c 79bd 20b6 bdbd d0be 0d3d
000000a0: d413 c93d f078 c0bd e48f 003c fc5a adbd
000000b0: cd23 633d 5eb7 bc3d 8e7a 04bd e4c4 d4bd
000000c0: 94b6 173b 0136 7dbd 7593 c1bd 02a6 a5bd
000000d0: 6ae1 9bbd 7abe f1bb 5968 453d f3ad 1dbd
000000e0: 9a81 c4bd 2ca4 ca3c 4c86 e2bd a428 e3bb
000000f0: c387 eebd 7641 a93d fd71 c9bd 4da8 f2bd

mlp.2.weight f4 [64, 64]
-0.05795524 -0.053859778 -0.13409977 0.107743554 0.10019826 -0.12058963 -0.114956826 -0.08829004
-0.03112656 -0.043813188 0.09845312 -0.019093988 0.0112207355 0.012252904 0.10282541 -0.018682893
-0.013078628 0.08048446 -0.061718296 -0.1427741 -0.17468852 -0.025609283 -0.17287691 -0.11276783
-0.04320232 -0.07350477 0.01509939 0.09271186 -0.09427684 -0.07312055 -0.14911313 0.09379496
0.05123672 -0.023063354 -0.0917013 -0.13274477 -0.12097119 -0.08744392 -0.07056499 0.08553936
-0.06739197 -0.027803842 0.03656545 -0.098928474 -0.12738535 -0.049988944 -0.10877835 0.03516223
0.03175398 0.00055535487 -0.07667229 0.067636214 0.0754752 -0.0033502204 -0.096640654 0.058153924
-0.032364786 -0.089460924 0.06234141 0.023011459 0.0651628 0.052675836 -0.11064775 0.036610037
0.10845618 0.17582783 0.1597846 0.094225764 0.07465457 0.08921934 -0.113906555 -0.05245861
-0.07432583 0.27291986 0.08764796 -0.095686086 0.0032684878 0.30488485 0.34669054 -0.7705954
-0.030041663 0.06874613 -0.5636108 0.15080626 0.34146324 0.00027556118 0.49427658 0.1803599
0.20417355 0.042826023 0.05085801 0.014804448 -0.029718671 0.21401374 0.059702627 0.18371312
0.2645317 -0.04199652 0.07674026 0.19345193 0.18553841 -0.44651407 -0.07191185 0.1757743
0.010407862 0.19495861 -0.049995992 -0.095761485 -0.1684535 -0.025518563 0.028515665 0.3409033
-0.005429967 0.058429517 0.15285893 0.33141884 0.14551373 -0.016501818 0.43076235 -0.05425495
0.002854541 0.3984586 -0.09865393 0.032187715 -0.00819557 0.06996424 0.014795368 0.18529783
0.19329418 0.030718287 -0.1062906 0.024328941 -0.10122905 -0.13622777 0.07175632 0.08022226
0.17516355 -0.3475247 0.13445827 0.092292815 -0.08261683 -0.27375418 0.08929239 -0.19461617
0.05472887 0.0223068 0.2579822 -0.44547153 0.05178226 0.020319004 -0.33466282 -0.11180795
0.18699265 0.027357874 0.013060886 0.1621076 0.116704576 -0.2971206 0.19407111 -0.3239912
0.03202971 0.14807428 -0.1386677 -0.32906252 -0.07473948 0.25153962 0.12644477 0.18239829
0.17904882 -0.21569641 0.11682405 0.02241717 -0.020783953 -0.043719716 -0.0029151102 -0.027917612
0.07397461 0.06635293 0.03453928 -0.09998178 -0.2422023 -0.09286685 -0.43482935 -0.15092205
-0.10092285 0.14734313 0.12269054 0.011422066 -0.017741112 -0.016402578 0.040637124 -0.19246164
0.060982756 0.18342085 0.13919647 0.05190107 0.024532566 0.16405848 -0.06963541 0.059864763
-0.045357186 0.2646734 0.2537633 0.06734355 -0.026880635 0.22052051 0.20082733 -0.1604909
0.018576438 0.07732305 -0.53277296 0.28867486 0.3246441 0.025476843 0.28500888 0.20284447
0.32343763 0.12306946 -0.02488107 -0.04042971 0.038416117 0.36670431 0.07232106 0.007097804
0.27752572 0.09237669 0.14758374 0.2615617 0.25199446 0.020916155 0.06641064 0.17845985
-0.03551989 0.30969834 -0.022089897 0.005031962 -0.05572441 0.05668393 0.052730944 0.30942154
0.12561084 0.18255354 0.17909034 0.23445979 0.23951569 0.18144089 0.37261087 0.059660867
-0.06518483 0.26254 -0.037599638 0.12701221 -0.023955463 0.13026763 0.1678034 0.08112342
00000000: 7962 6dbd 129c 5cbd 7351 09be a7a8 dc3d
00000010: bf34 cd3d b2f7 f6bd 7c6e ebbd 69d1 b4bd
00000020: 21fd febc 7575 33bd caa1 c93d ff6a 9cbc
00000030: 2dd7 373c 67c0 483c 2196 d23d de0c 99bc
00000040: be47 56bc 09d5 a43d 53cc 7cbd 6033 12be
00000050: 8ce1 32be 8fca d1bc a506 31be d2f2 e6bd
00000060: eaf4 30bd ab89 96bd 6f63 773c b7df bd3d
00000070: 3714 c1bd 3ac0 95bd 1db1 18be 9217 c03d
00000080: 98dd 513d 5cef bcbc e4cd bbbd 3fee 07be
00000090: bebf f7bd cc15 b3bd 6184 90bd 432f af3d
000000a0: cd04 8abd e2c4 e3bc a7c5 153d 039b cabd
000000b0: 4e71 02be 35c1 4cbd 2fc7 debd 4506 103d
000000c0: 7610 023d 3c95 113a 5d06 9dbd db84 8a3d
000000d0: be92 9a3d 5f8f 5bbb 89eb c5bd cf32 6e3d
000000e0: f090 04bd 4a37 b7bd b559 7f3d 8782 bc3c
000000f0: 1374 853d 9ec2 573d 4a9b e2bd 68f4 153d
00000100: 461e de3d 360c 343e 939e 233e 70f9 c03d
00000110: 7fe4 983d a1b8 b63d d747 e9bd d7de 56bd
00000120: 2438 98bd 27bc 8b3e c680 b33d 11f7 c3bd
00000130: 2034 563b de19 9c3e 6c81 b13e bd45 45bf
00000140: ef19 f6bc c5ca 8c3d cc48 10bf f56c 1a3e
00000150: 45d4 ae3e 3279 9039 d211 fd3e 44b0 383e
00000160: df12 513e 576a 2f3d 7d50 503d 5b8e 723c
00000170: 9274 f3bc 6b26 5b3e be8a 743d 4b1f 3c3e
00000180: b370 873e 8b04 2cbd ff29 9d3d 4318 463e
00000190: c8fd 3d3e 7e9d e4be 8546 93bd 2efe 333e
000001a0: bd85 2a3c 3ba3 473e 99c8 4cbd 991e c4bd
000001b0: 137f 2cbe 4e0c d1bc af99 e93c e18a ae3e
000001c0: dded b1bb ca53 6f3d 0d87 1c3e bbaf a93e
000001d0: 8d01 153e d22e 87bc e28c dc3e 703a 5ebd
000001e0: 4013 3b3b c402 cc3e 120b cabd 44d7 033d
000001f0: b646 06bc 6949 8f3d 4568 723c b7be 3d3e
00000200: e9ee 453e eba4 fb3c e3ae d9bd 7d4d c73c
00000210: 2d51 cfbd 4b7f 0bbe faf4 923d 914b a43d
00000220: 135e 333e c2ee b1be 6eaf 093e 0404 bd3d
00000230: 0333 a9bd 8229 8cbe eede b63d 7649 47be
00000240: 612b 603d c0bc b63c 3e16 843e d814 e4be
00000250: a319 543d 0a74 a63c ed58 abbe 91fb e4bd
00000260: 007b 3f3e 9f1d e03c 54fd 553c 89ff 253e
00000270: cf02 ef3d 3120 98be 94ba 463e 2de2 a5be
00000280: 9631 033d c9a0 173e e8fe 0dbe e27a a8be
00000290: 0311 99bd cdc9 803e bd7a 013e 9ec6 3a3e
000002a0: 9358 373e 85df 5cbe 7341 ef3d 37a4 b73c
000002b0: 1c43 aabc 7213 33bd 6f0b 3fbb 7ab3 e4bc
000002c0: 0080 973d 0ce4 873d 0f79 0d3d 3fc3 ccbd
000002d0: e103 78be fa30 bebd f4a1 debe 4f8b 1abe
000002e0: a4b0 cebd 1ee1 163e 2e45 fb3d 9e23 3b3c
000002f0: cf55 91bc b35e 86bc 1d73 263d aa14 45be
00000300: 0ec9 793d add2 3b3e 8589 0e3e 3796 543d
00000310: 85f8 c83c f2fe 273e 039d 8ebd c134 753d
00000320: 75c8 39bd 4683 873e 43ed 813e 6aeb 893d
00000330: c734 dcbc 21d0 613e aea5 4d3e ba57 24be
00000340: 9d2d 983c 8c5b 9e3d cf63 08bf 31cd 933e
00000350: c037 a63e d0b4 d03c afec 913e 76b6 4f3e
00000360: 9e99 a53e d70b fc3d 63d3 cbbc a099 25bd
00000370: 385a 1d3d abc0 bb3e 101d 943d b294 e83b
00000380: da17 8e3e fd2f bd3d 3120 173e 6aeb 853e
00000390: 6b05 813e 5b58 ab3c 4d02 883d 2ebe 363e
000003a0: 4e7d 11bd c890 9e3e dff5 b4bc 28e3 a43b
000003b0: 473f 64bd 692d 683d 67fc 573d 806c 9e3e
000003c0: 21a0 003e 51ef 3a3e 7563 373e 3a16 703e
000003d0: 9a43 753e a4cb 393e dac6 be3e f45e 743d
000003e0: a07f 85bd a56b 863e 1402 1abd 7d0f 023e
000003f0: 3f3e c4bc e164 053e a8d4 2b3e 0924 a63d

mlp.2.bias f4 [64]
0.06727014 -0.14866434 -0.07269833 0.027011696 -0.106729604 0.13427867 -0.104294464 0.00429231
0.20205675 0.022586245 0.02621637 -0.041191444 0.0880862 -0.071034625 -0.08983802 -0.100570716
-0.0025797372 0.026247008 -0.09495448 0.08941955 -0.0586591 -0.018733757 -0.058004722 0.20227061
0.0018583518 0.13063912 0.058111463 -0.14455847 -0.07724796 0.13996176 0.07032704 -0.047207322
-0.10699302 0.085051045 0.08931997 0.13194753 0.014543382 -0.12619953 0.18438576 0.17102784
0.15107304 0.058630705 0.09944928 0.110172965 0.09101638 0.068355925 -0.034289446 0.07873875
0.11735341 0.18836431 0.1783646 0.058800884 -0.0016412411 0.100839466 -0.0072671734 -0.0044085877
-0.11483988 -0.1704313 -0.037922617 0.10792325 0.03914967 0.0299962 -0.12512171 0.062124174
00000000: edc4 893d 773b 18be dde2 94bd a247 dd3c
00000010: 0d95 dabd 5980 093e 5698 d5bd 82a6 8c3b
00000020: f7e7 4e3e ca06 b93c b6c3 d63c 5cb8 28bd
00000030: 8a66 b43d 9a7a 91bd fffc b7bd 05f8 cdbd
00000040: cf10 29bb f703 d73c 7f77 c2bd 9921 b73d
00000050: 8644 70bd 8977 99bc 5c96 6dbd 0720 4f3e
00000060: f093 f33a 43c6 053e 4906 6e3d 2307 14be
00000070: 2e34 9ebd 2352 0f3e a007 903d 775c 41bd
00000080: 281f dbbd 3e2f ae3d 63ed b63d 411d 073e
00000090: 5e47 6e3c 733a 01be 9fcf 3c3e ec21 2f3e
000000a0: e4b2 1a3e c026 703d 10ac cb3d 5da2 e13d
000000b0: cc66 ba3d 31fe 8b3d 1773 0cbd c841 a13d
000000c0: fc56 f03d 93e2 403e 36a5 363e 32d9 703d
000000d0: ea1e d7ba ec84 ce3d 7821 eebb ea75 90bb
000000e0: 2c31 ebbd 8b85 2ebe bf54 1bbd dd06 dd3d
000000f0: 685b 203d 97ba f53c e81f 00be eb75 7e3d

mlp.4.weight f4 [1, 64]
-0.03077658 0.362367 -0.2849926 0.19237311 -0.10483845 0.19694276 -0.07887245 0.22126363
0.16331546 0.23754103 0.16643308 -0.052769456 -0.087324016 -0.09545892 -0.007146216 -0.05356564
0.14720294 0.25198132 -0.4295387 0.39419264 -0.034511197 0.23263331 -0.28976366 0.19759706
0.23391178 0.23365402 0.20736428 -0.08693463 -0.14162347 0.24279979 -0.23184966 0.4024082
-0.36923546 0.16751009 0.14475815 0.22832537 0.19175822 -0.037890993 0.2889723 0.2068388
0.23531626 -0.27041844 -0.037601493 0.2891045 0.22632854 0.2130973 -0.65266407 0.31458044
0.19738382 0.23119494 0.21823971 -0.1015036 0.2866286 -0.10858684 -0.08345337 0.18922912
-0.6070717 -0.5882849 -0.13672455 0.17928676 -0.49040774 -0.21760574 -0.008284007 -0.085861936
00000000: 2b1f fcbc 2b88 b93e 8dea 91be 75fd 443e
00000010: 8bb5 d6bd 5dab 493e e187 a1bd ef92 623e
00000020: 2b3c 273e f53d 733e 6f6d 2a3e c924 58bd
00000030: efd6 b2bd f77f c3bd ce2a eabb a567 5bbd
00000040: 5ebc 163e b203 813e 7fec dbbe 9ed3 c93e
00000050: 9d5b 0dbd 6d37 6e3e e75b 94be e256 4a3e
00000060: 9286 6f3e 0043 6f3e 4d57 543e c90a b2bd
00000070: be05 11be 82a0 783e ff69 6dbe 7308 ce3e
00000080: 6e0c bdbe c487 2b3e 7b3b 143e 20ce 693e
00000090: 445c 443e 9633 1bbd 2df4 933e 8dcd 533e
000000a0: bff6 703e 4974 8abe 0604 1abd 8105 943e
000000b0: abc2 673e 2e36 5a3e fe14 27bf b010 a13e
000000c0: fc1e 4a3e 5ebe 6c3e 3b7a 5f3e 1fe1 cfbd
000000d0: fcc0 923e c762 debd 9ae9 aabd 47c5 413e
000000e0: 0d69 1bbf d799 16bf 8501 0cbe f396 373e
000000f0: b916 fbbe 0ad4 5ebe a5b9 07bc 62d8 afbd
