forecasting/midroll/dnn_model/model_1_ofac2023.ckpt (torch, 42527 bytes, 5 tensors)

mlp.0.weight f4 [64, 90]
0	0x3d3847cf	0.044990357
1	0x3e1d566e	0.15365002
2	0x3e70cfb5	0.23516734
3	0xbd9a15e8	-0.075237095
4	0x3d32e33e	0.043673746
5	0x3d408a3c	0.04700683
6	0x3dabd827	0.08390837
7	0x3dbef44c	0.0932394
8	0xbe1f2d08	-0.15544522
9	0x3db48601	0.08814622
10	0xbdbaa8b9	-0.091142125
11	0xbd8860f0	-0.06659114
12	0xbe151005	-0.14556892
13	0x3e08c5c7	0.13356696
14	0xbd7578a1	-0.059929494
15	0xbd2388ab	-0.03992526
16	0xbd7801c9	-0.060548577
17	0xbe015b07	-0.1263238
18	0xbc9bfde8	-0.01904197
19	0x3d2ae843	0.04172541
20	0xbb71deb1	-0.0036906416
21	0x3de07535	0.109598555
22	0x3cde4d23	0.027136391
23	0x3da28dde	0.07937215
24	0xbd4d8fc7	-0.050185945
25	0xbd0f1e3d	-0.034940947
26	0x3d8d5a28	0.069019616
27	0x3da98364	0.08277014
28	0xbcee6a58	-0.029103443
29	0x3b938692	0.004502126
30	0xbda9c61f	-0.08289742
31	0xbe4ab6b2	-0.19796255
32	0x3dba49ee	0.09096132
33	0xbd72c196	-0.05926665
34	0x3b3d42a2	0.0028878828
35	0x3ddef439	0.108864255
36	0x3cd1b16b	0.025597295
37	0x3d15105e	0.036392562
38	0x3d392609	0.04520229
39	0x3da449b9	0.08021874
40	0xbd3b1f27	-0.045684006
41	0xbd02310d	-0.03178506
42	0x3ac36fb2	0.0014910607
43	0x3caf3fd9	0.02139275
44	0xbdb30fbf	-0.08743238
45	0xbd5b6ca8	-0.05357042
46	0xbdb3adfe	-0.08773421
47	0xbd7bbd50	-0.06145984
48	0x3d8ed406	0.06974034
49	0xbbaa44a2	-0.00519617
50	0x3d0baec6	0.034102224
51	0x3bba0f9a	0.0056781294
52	0x3cdee2e1	0.027207794
53	0x3df1dc39	0.11809582
54	0x3c814d05	0.015783796
55	0x3b2790f6	0.0025568581
56	0x3df90eda	0.12161036
57	0xbd35f4bb	-0.044422846
58	0xbe20ec4e	-0.15715143
59	0xbe546f82	-0.20745662
60	0x3d8f9069	0.07009966
61	0xbe340675	-0.17580588
62	0x3dc349b4	0.09535542
63	0x3e282bbd	0.16422935
64	0xbd5e899d	-0.054330457
65	0xbd24328d	-0.04008727
66	0xbdc5490c	-0.09633073
67	0x3b29ae8d	0.0025891394
68	0xbcb01a66	-0.021496963
69	0xbd799a79	-0.060938332
70	0x3c834f82	0.016029123
71	0x3d786690	0.060644686
72	0x3ce6a2c5	0.028153786
73	0x3c951c06	0.01820184
74	0xbac4b5f8	-0.0015007844
75	0xbd8b1f67	-0.06793099
76	0xbdad4cda	-0.08461924
77	0x3da5f9da	0.08104296
78	0x3cc42e48	0.02394785
79	0x3d82e007	0.06390386
80	0x3c3ea51b	0.011636044
81	0x3d86afb6	0.06576483
82	0xbd8fc60b	-0.070201956
83	0x3db17124	0.08664158
84	0x3d4ece15	0.050489504
85	0xbd293811	-0.041313235
86	0x3d617c8c	0.055050418
87	0x3dacdfdb	0.084411345
88	0x3d678ea3	0.056532513
89	0x3e24d8d9	0.16098346
90	0xbcbc2ed5	-0.02297155
91	0x3ea03131	0.3128753
92	0x3ee9101b	0.455201
93	0xbe017097	-0.12640606
94	0x3e30e250	0.17273831
95	0x3cccb761	0.024989786
96	0xbd005a96	-0.03133639
97	0x3da2cf4c	0.07949695
98	0xbd04ea16	-0.032449804
99	0xbb758f66	-0.0037469505
100	0xbde545e3	-0.111949705
101	0xbd62eb6f	-0.05540031
102	0xbe1e3ed5	-0.15453656
103	0x3df3eb3b	0.11910101
104	0x3d04d2f9	0.03242776
105	0x3e44a180	0.19202232
106	0xbe194ad3	-0.1496995
107	0x3ddf498e	0.10902701
108	0xbcb686c5	-0.02228106
109	0x3dbd3a79	0.092396684
110	0x3cc1fe05	0.023680696
111	0x3d6b36ca	0.057425298
112	0x3ddbab1d	0.10725997
113	0xbd7ce6da	-0.061743595
114	0x3d686e7b	0.056745987
115	0xbb614cb2	-0.003437799
116	0xb9405b85	-0.0001834464
117	0x3da90053	0.08252015
118	0xbd841fe1	-0.06451393
119	0x3cf2647c	0.02958893
120	0xbdad8a56	-0.08473651
121	0xbda45e76	-0.080258295
122	0x3d8dd59f	0.069255106
123	0x3cd181da	0.025574613
124	0xbda02ec4	-0.0782142
125	0xbdb80d05	-0.08986858
126	0x3ba88bd2	0.005143621
127	0xbe0ea272	-0.13929155
128	0xbdc19a4c	-0.09453258
129	0xbd82c7ed	-0.06385789
130	0xbe17892f	-0.14798425
131	0xbda47248	-0.0802961
132	0xbd61809a	-0.055054285
133	0x3cd13e4a	0.025542397
134	0x3d5ef919	0.054436777
135	0xbe0537f6	-0.13009629
136	0x3ded2c3f	0.11580705
137	0xbdc0265f	-0.09382319
138	0x3cf8c1c4	0.030365832
139	0xbda56bb8	-0.08077186
140	0x3cc0d5c4	0.023539431
141	0xbd8ec7a9	-0.06971676
142	0xbc1e8fb9	-0.009677821
143	0xbd9b9e47	-0.075985484
144	0x3dd68837	0.104752
145	0xbe059090	-0.13043427
146	0xbc1bacbc	-0.009501632
147	0x3c502283	0.012703541
148	0xbda6e93f	-0.08149957
149	0x3d192f65	0.037398715
150	0xbd3a377a	-0.045463063
151	0xbcc133b6	-0.023584228
152	0x3c20d6a1	0.0098167965
153	0x3dbfe132	0.093691245
154	0xbdc64246	-0.096806094
155	0xbca585f8	-0.020205483
156	0x3d2cc419	0.0421792
157	0xbd97a35b	-0.074042045
158	0x3d0eada5	0.03483357
159	0xbc1a43ae	-0.00941555
160	0x3e042fbf	0.12908839
161	0x3dbec775	0.09315387
162	0xbda796b1	-0.08183039
163	0xbda5d9c1	-0.08098174
164	0xbde51e0e	-0.11187373
165	0x3d81c249	0.06335885
166	0x3da476c1	0.08030463
167	0x3e03f419	0.12886085
168	0x3bd0ab82	0.0063681016
169	0xbc22fe06	-0.009948259
170	0x3cf45231	0.029824348
171	0x3d40d9c7	0.04708269
172	0xbbe9fc6a	-0.007140686
173	0xbcccb799	-0.02498989
174	0x3dec9ef6	0.11553757
175	0xbe1393d6	-0.14411864
176	0x3d5bfeea	0.053709902
177	0xbd351995	-0.04421385
178	0x3e1c3ec0	0.15258312
179	0xbc31b63d	-0.010846672
180	0xbdf0a071	-0.11749352
181	0x3e9b6267	0.30348513
182	0x3f06e28a	0.5268942
183	0xbd4c5bba	-0.049892165
184	0x3e9cde3e	0.30638307
185	0x3d5798c3	0.05263592
186	0x3d52b19f	0.051438924
187	0x3bca8a97	0.006181072
188	0x3d8d72de	0.06906675
189	0xbd197cf2	-0.037472673
190	0xbdb154c7	-0.08658748
191	0x3d1e7872	0.038689084
192	0xbe01e640	-0.1268549
193	0x3d694c1d	0.056957353
194	0x3e0766a5	0.1322275
195	0x3e4b24bd	0.19838233
196	0xbde6c3bf	-0.11267804
197	0xbd72e8f7	-0.059304204
198	0xbc8b6e0b	-0.017020246
199	0x3d2141df	0.03936946
200	0x3d8d751c	0.069071025
201	0x3dc4a5b1	0.09601916
202	0xbcfd81bb	-0.03094565
203	0x3d0e8aaf	0.034800228
204	0xbd1b6067	-0.037933733
205	0xbc58c227	-0.013229883
206	0xbc4ee3da	-0.012627566
207	0x3df1f201	0.11813737
208	0xbd3eaf90	-0.04655415
209	0xbe133c29	-0.14378418
210	0xbdca6f6f	-0.098845355
211	0xbe0ad90d	-0.13559361
212	0xbda0cff3	-0.07852163
213	0x3d85e40b	0.06537636
214	0xbd51769a	-0.051138498
215	0xbd2b5cec	-0.041836664
216	0x3e03249c	0.12806934
217	0xbd9bad0f	-0.07601368
218	0xbd2d4935	-0.042306144
219	0x3d20502e	0.039138965
220	0x3d47cb50	0.04877788
221	0xbbf19863	-0.0073729022
222	0x3dbb3606	0.091411635
223	0x3e023c8e	0.12718412
224	0x3adbf625	0.0016781731
225	0xbd4f163b	-0.05055831
226	0xbe0b9f4f	-0.1363499
227	0x3e03f121	0.12884952
228	0xbc47d57a	-0.012196893
229	0xbd54daf4	-0.051966622
230	0x3cf341ed	0.029694522
231	0xbc6b404a	-0.014358589
232	0xbda1751f	-0.07883667
233	0xbdd686c4	-0.10474923
234	0xbd1fd1e7	-0.039018538
235	0x3dab0916	0.083513424
236	0xbe18e6b3	-0.14931755
237	0x3dba4519	0.090952106
238	0x3d7074bb	0.058705073
239	0xbe1cc50c	-0.15309542
240	0xbe110185	-0.14160736
241	0xbd71882f	-0.058967765
242	0xbd31cf85	-0.043410797
243	0xbc48955b	-0.01224264
244	0x3d96b92e	0.07359539
245	0x3e050761	0.12991096
246	0xbd7f6c38	-0.062359065
247	0xbd7983f5	-0.06091686
248	0xbcecc1e8	-0.028901055
249	0x3d04fae6	0.032465838
250	0x3dc78e3a	0.097439244
251	0xbd7a2918	-0.061074346
252	0x3da90e3b	0.08254667
253	0x3d0f616a	0.03500501
254	0xbe30c545	-0.17262752
255	0xbde6cd1f	-0.112695925

mlp.0.bias f4 [64]
0	0x3d39c3b8	0.045352668
1	0x3da3e4d7	0.08002632
2	0x3d878c4c	0.066185564
3	0xbd8a41e2	-0.067508474
4	0xbcaeb831	-0.021328064
5	0x3cec2602	0.028826717
6	0xbd0d6f03	-0.034529697
7	0x3da9699f	0.08272099
8	0x3c9860ac	0.018600784
9	0xbdef3136	-0.11679308
10	0x3cdf8ce5	0.027288863
11	0xbcf284d4	-0.029604353
12	0xbdcf9eaa	-0.10137685
13	0x3ce9693a	0.028492559
14	0x3c9a5535	0.018839458
15	0x3c98c414	0.018648185
16	0x3d8ba372	0.06818284
17	0xbdbb37dd	-0.091415145
18	0xbdec64a7	-0.115426354
19	0x3d2b5c2f	0.04183596
20	0xbd7e132c	-0.062030002
21	0xbd935c10	-0.07195294
22	0x3ca6a0e0	0.020340383
23	0x3dab045e	0.08350442
24	0xbb94a502	-0.004536272
25	0xbbf275be	-0.00739929
26	0xbdc66ea4	-0.09689072
27	0xbdcf766d	-0.1013001
28	0x3d182e9e	0.037153833
29	0xbd172d68	-0.036908537
30	0xbd9bc6ff	-0.07606315
31	0xbd7eea67	-0.062235262
32	0x3da59dfa	0.08086772
33	0xbe1292b1	-0.14313771
34	0xbdfabc8c	-0.12242994
35	0x3d376c44	0.044780985
36	0xbda16298	-0.078801334
37	0x3d811bdc	0.06304142
38	0xbd755789	-0.059897933
39	0xbcfec7e1	-0.031101169
40	0xbcee3b13	-0.029080903
41	0x3dbcd8af	0.092210166
42	0xbd5f4e8b	-0.054518264
43	0xbbce2244	-0.006290706
44	0x3d0d4313	0.034487795
45	0x3dd33588	0.10312945
46	0x3c974cdc	0.018469267
47	0x3dbd2253	0.092350625
48	0x3d3412a9	0.04396311
49	0xbd84396b	-0.06456264
50	0x3ddaceb4	0.10683957
51	0xbd0c2c34	-0.034221843
52	0xbe06b5a5	-0.1315523
53	0xbc67e308	-0.01415325
54	0x3cfd7755	0.030940691
55	0xbc95364b	-0.018214365
56	0xbd681084	-0.056656376
57	0xbdfcc9b0	-0.12343156
58	0x3c6400b8	0.013916187
59	0xbc8cb62b	-0.017176708
60	0xbd27828f	-0.040895995
61	0xbe076a28	-0.13224089
62	0xbdc2d799	-0.09513778
63	0x3dc15d01	0.09441567

mlp.2.weight f4 [64, 64]
0	0xbde77afa	-0.11302753
1	0x3c981dfd	0.018568987
2	0xbdf562d7	-0.11981743
3	0x3d9ccce9	0.07656271
4	0x3d422c8a	0.047405757
5	0xbdde5808	-0.108566344
6	0xbdda8744	-0.10670331
7	0x3d2855c0	0.041097403
8	0xbe016ed7	-0.12639938
9	0xbe019f88	-0.12658513
10	0x3b97dfb4	0.004634822
11	0xbd7824dd	-0.06058203
12	0xbc83a87e	-0.016071554
13	0xbe03c4bb	-0.12868015
14	0xbe097b22	-0.13425878
15	0x3d0539c0	0.032525778
16	0xbc532257	-0.012886605
17	0x3ce46418	0.02787976
18	0x3cc08b3f	0.023503898
19	0x3c7af546	0.015317267
20	0xbe005d05	-0.12535484
21	0x3d31b1ac	0.04338233
22	0x3d823e9d	0.06359599
23	0x3dadbd5b	0.08483382
24	0xbcd29a64	-0.025708385
25	0x3d0c69ea	0.034280695
26	0x3d70eaa9	0.05881754
27	0x3dd92227	0.10602217
28	0x3d8b3cff	0.067987435
29	0xbd94cfe5	-0.07266215
30	0xbb9f4f32	-0.0048617357
31	0x3d929a66	0.071583554
32	0x3db99407	0.09061437
33	0x3d767b62	0.06017626
34	0x3dd3916e	0.10330473
35	0xbbaf108e	-0.0053425496
36	0xbbdac9c9	-0.0066768867
37	0x3d24f762	0.040274985
38	0xbdf8e4cc	-0.121530145
39	0xbd48df0f	-0.04904085
40	0x3d29eeda	0.041487552
41	0xbcd72fd9	-0.026267933
42	0x3d2d015d	0.04223763
43	0xbd9b576f	-0.07585036
44	0xbc4217cd	-0.011846495
45	0xbc326b43	-0.010889831
46	0xbcf11958	-0.02943103
47	0xbd897ebe	-0.06713627
48	0xbc013d17	-0.0078881
49	0x3b26560c	0.0025380878
50	0x3d4fd150	0.050736725
51	0xbd1073b6	-0.0352666
52	0xbdce12cf	-0.10062181
53	0xbe011b8d	-0.12608166
54	0x3cc910e2	0.024544183
55	0x3d65509c	0.05598508
56	0xbd9b27bd	-0.07575939
57	0x3d29196d	0.041284014
58	0x3d37dafa	0.044886567
59	0xbda96645	-0.082714595
60	0xbc239d69	-0.00998626
61	0xbda6ac27	-0.08138304
62	0x3d17d0ab	0.037064236
63	0x3d7c8770	0.0616526
64	0xbd3d6069	-0.046234522
65	0xbc6b64c7	-0.014367289
66	0xbc6205de	-0.013795344
67	0x3e3d1b6f	0.18467496
68	0x3cd22d2b	0.025656303
69	0x3d3b13eb	0.045673292
70	0x3e719c8b	0.23594873
71	0x3e075660	0.13216543
72	0x3ee1c299	0.4409378
73	0x3e3ccbc9	0.18437113
74	0x3da17d5f	0.07885241
75	0x3d79dd88	0.061002284
76	0x3e8da7d9	0.2766712
77	0x3dacbf64	0.08434942
78	0x3ed39db9	0.4133127
79	0x3da17ad1	0.078847535
80	0x3dfecf01	0.124418266
81	0x3e86c6c3	0.26323518
82	0x3e4139b2	0.18869665
83	0x3e43685d	0.1908278
84	0x3d476e9f	0.04868948
85	0x3da1d12c	0.079012245
86	0x3e03b575	0.12862189
87	0x3d965839	0.07341046
88	0x3e66390e	0.22482702
89	0x3e01d935	0.12680514
90	0x3ea004fe	0.3125381
91	0xbd7357c7	-0.059409883
92	0x3d4e66a6	0.050390862
93	0xbdf1498c	-0.11781606
94	0x3e014a30	0.12625957
95	0x3ecdd529	0.4020169
96	0x3e083134	0.1330002
97	0xbe2771ab	-0.16351955
98	0x3ef1d843	0.47235307
99	0x3e0dbe1a	0.13842049
100	0x3e5820fe	0.21106336
101	0x3ec16bc2	0.37777525
102	0xbd9642c1	-0.07336951
103	0xbb0bb2c1	-0.0021316262
104	0xbe9b5dec	-0.30345094
105	0x3e4d786c	0.20065469
106	0x3ed8c83b	0.42340264
107	0x3e8c26a1	0.27373222
108	0x3ee2f30a	0.4432605
109	0xbc6fcbea	-0.014636019
110	0x3e9f69ac	0.3113531
111	0x3e1aeb63	0.15128855
112	0xbe8cdafa	-0.27510816
113	0xbecf1ac1	-0.404501
114	0x3d86a1df	0.06573843
115	0x3ebe2aea	0.37142116
116	0x3e76bed3	0.24096231
117	0x3ed1f2e2	0.41005617
118	0x3e3f4e6e	0.18682262
119	0x3e1d5bf5	0.1536711
120	0x3e3a2c44	0.18180948
121	0x3e5dc5b6	0.21657452
122	0x3d88e60a	0.066845015
123	0xbce9f557	-0.02855937
124	0x3e4fef46	0.2030612
125	0xbf2a0aa1	-0.6642247
126	0x3d8b89e7	0.06813412
127	0xbdccd312	-0.10001196
128	0xbd89ee9a	-0.06734963
129	0xbc6149f3	-0.013750541
130	0xbbe9a719	-0.0071305153
131	0x3df410fa	0.119173005
132	0xbd2113a3	-0.039325368
133	0xbdde0419	-0.10840625
134	0xbd6b066d	-0.057379175
135	0x3c165449	0.009175369
136	0x3dc66d1d	0.096887805
137	0xbb8b698d	-0.004254526
138	0xbc3b8b8c	-0.011446845
139	0x3d33cccc	0.04389648
140	0x3d9070b5	0.07052747
141	0xbabbcd40	-0.0014328137
142	0x3b9dd86c	0.0048170593
143	0xbdf9b57b	-0.12192818
144	0xbdbc317e	-0.091891274
145	0x3d90e5de	0.07075094
146	0xbcf1b643	-0.029505854
147	0xbd81b09a	-0.06332512
148	0x3d57cafa	0.052683808
149	0x3ded5bb4	0.115897566
150	0x3b71c2e8	0.0036889855
151	0x3d9bf1f7	0.076145105
152	0x3de9940d	0.114051916
153	0xbd6f2895	-0.05838831
154	0xbd9cb7bf	-0.07652234
155	0x3df32787	0.118727736
156	0xbdd7b624	-0.105327874
157	0xbce2bfe4	-0.027679391
158	0xbdf2c5f1	-0.118541606
159	0xbd5276b4	-0.051382735
160	0xbd999bec	-0.07500443
161	0xbc27fef9	-0.010253661
162	0xbc91b817	-0.017787976
163	0xbe0a4172	-0.13501528
164	0xbd652b58	-0.05594954
165	0xbdd50b76	-0.104025766
166	0xbe047c41	-0.12938024
167	0x3c8bc762	0.017062847
168	0x3decf46f	0.115700595
169	0x3daef015	0.08541886
170	0x3d354d87	0.04426339
171	0x3cf8d1e8	0.030373529
172	0xbdc5b6a9	-0.0965398
173	0x3b9346e9	0.004494537
174	0x3d2d4bb3	0.04230852
175	0x3d453a99	0.048151586
176	0x3d639833	0.05556507
177	0xbd97437e	-0.0738592
178	0x3d04f043	0.032455694
179	0x3d94d88e	0.07267867
180	0x3d8f7951	0.07005561
181	0xbd5b1082	-0.05348254
182	0x3d767d44	0.060178056
183	0x3db69fc0	0.08917189
184	0xbdb1b29a	-0.08676644
185	0xbdaa5917	-0.08317774
186	0xbdd57141	-0.10421992
187	0xbc6f464e	-0.014604164
188	0xbd417986	-0.047235034
189	0xbdb77709	-0.08958251
190	0x3dc9ca19	0.09853
191	0x3dd8c3f6	0.105842516
192	0x3db743c1	0.0894847
193	0x3ddc3275	0.107518114
194	0xbca5a02a	-0.020217974
195	0x3f0aa236	0.54153764
196	0x3e6418e6	0.22275123
197	0x3e235e97	0.15954052
198	0xbcb64c2f	-0.022253124
199	0x3ddba4c4	0.10724786
200	0xbd4c7aa6	-0.049921654
201	0xbd101542	-0.035176523
202	0x3dd2f492	0.10300554
203	0xbe86c61a	-0.26323014
204	0xbdf6ee04	-0.12057117
205	0xbe74892f	-0.23880456
206	0xbdbf2c21	-0.09334589
207	0x3aac06cc	0.0013124584
208	0x3d25862b	0.040411156
209	0xbe6329ff	-0.22183989
210	0xbce605b3	-0.02807889
211	0xbc91422d	-0.01773175
212	0xbec55765	-0.3854324
213	0xbd2070e4	-0.03917016
214	0xbd087183	-0.03331138
215	0xbe5f7a00	-0.21823883
216	0xbe2b126a	-0.16706243
217	0xbdf7531c	-0.12076399
218	0x3d70beee	0.058775835
219	0x3c9b90c0	0.01898992
220	0xbca9b45c	-0.020715885
221	0xbd93620f	-0.071964376
222	0x3e197c58	0.1498884
223	0xbd853578	-0.06504339
224	0xbbfcb142	-0.0077115605
225	0xbeb67042	-0.3563252
226	0x3ee08604	0.43852246
227	0xbe562a98	-0.20914686
228	0xbe3d3226	-0.18476161
229	0x3ec03af6	0.37544984
230	0xbd6b10c4	-0.057389036
231	0x3e082bca	0.13297954
232	0xbf0bb525	-0.5457328
233	0xbe748418	-0.23878515
234	0xbbfb8a80	-0.0076764226
235	0x3d94998d	0.0725585
236	0xbe856426	-0.2605297
237	0xbe2805b8	-0.16408432
238	0xbd912921	-0.07087923
239	0xbdeaee61	-0.114712484
240	0xbe03c7aa	-0.12869135
241	0xbe14dea7	-0.1453806
242	0x3e4059e2	0.18784288
243	0x3efe2a44	0.4964162
244	0xbdb7b535	-0.089701094
245	0xbe5e40c9	-0.21704401
246	0xbe9b2a35	-0.3030564
247	0xbe2f2eaa	-0.17107645
248	0xbe196e0d	-0.14983387
249	0xbe57b297	-0.2106422
250	0x3db1138c	0.086463064
251	0x3e1c3c56	0.15257391
252	0x3e6f832a	0.23389879
253	0xbf0bb54c	-0.5457351
254	0xbe88dd5b	-0.2673138
255	0x3d88d2da	0.06680842

mlp.2.bias f4 [64]
0	0x3a8a5566	0.0010554015
1	0x3e179501	0.14802934
2	0xbc0cb674	-0.008588422
3	0xbddac093	-0.10681262
4	0x3e35f39c	0.17768711
5	0x3d09e9c5	0.033670206
6	0xbd9743a7	-0.073859505
7	0xbd23dfee	-0.040008478
8	0x3dac435f	0.084112875
9	0xbde96c8e	-0.11397658
10	0xbcc15b13	-0.023602998
11	0xbd686647	-0.056738164
12	0x3dedae63	0.11605527
13	0x3e510c6d	0.20414896
14	0x3e43c9fb	0.19120018
15	0xb94da296	-0.00019610891
16	0x3deae501	0.1146946
17	0x3e4d5fd0	0.20056081
18	0x3d23c243	0.039980184
19	0x3d5583a7	0.052127507
20	0x3d40d150	0.047074616
21	0x3b9e09f9	0.004822966
22	0x3db93af8	0.090444505
23	0xbe59b859	-0.2126173
24	0x3d64fd25	0.05590548
25	0xbcb27731	-0.02178535
26	0x3ddfb3b6	0.10922949
27	0x3c81a9ad	0.015827978
28	0x3be529ff	0.0069935317
29	0xbd94c7bf	-0.07264661
30	0xbdd47583	-0.10373976
31	0xbaac7700	-0.0013158023
32	0xbdc3a050	-0.095520616
33	0xbdcc7373	-0.09982958
34	0x3d420513	0.04736812
35	0xbd33e4b1	-0.04391927
36	0x3bb28108	0.0054475106
37	0xbc6df479	-0.014523619
38	0xbc8f16d4	-0.01746694
39	0xbd554ef2	-0.05207724
40	0xbd588d14	-0.052868918
41	0xbdc54ae7	-0.09633427
42	0xbde6094c	-0.11232242
43	0x3de65f79	0.11248679
44	0xbd8ff959	-0.07029981
45	0x3df17f86	0.11791901
46	0x3e29b064	0.16571194
47	0xbe55dfaa	-0.20886102
48	0x3c25ee60	0.010127634
49	0x3ce2fd56	0.02770869
50	0x3e2846cf	0.16433261
51	0x3ceab19d	0.028649146
52	0xbc842141	-0.016129138
53	0xbe0af42a	-0.13569704
54	0x3c736c91	0.014857427
55	0x3db4fdc3	0.08837464
56	0xbc476713	-0.012170571
57	0xbd847178	-0.06466955
58	0xbe0da799	-0.13833465
59	0xbd623960	-0.0552305
60	0x3db61ec6	0.08892588
61	0x3cc89774	0.024486281
62	0x3d918a18	0.071064174
63	0xbdf26582	-0.11835767

mlp.4.weight f4 [1, 64]
0	0xbd4f1d54	-0.05056508
1	0x3e59520e	0.21222708
2	0xbcf870f4	-0.030327298
3	0xbeed73d0	-0.4637742
4	0x3e96ca32	0.29451138
5	0x3e6acc4e	0.22929499
6	0xbdda125b	-0.10648032
7	0x3e9a62b0	0.30153418
8	0xbd8830e6	-0.06649952
9	0xbdce1f90	-0.10064614
10	0x3ed90ca5	0.4239246
11	0xbe7afc48	-0.245103
12	0xbeb5d111	-0.35511068
13	0x3e4cbaf0	0.19993186
14	0x3e839dfd	0.25706473
15	0xbbe1b551	-0.0068880697
16	0x3e7107c6	0.23538122
17	0x3e839de0	0.25706387
18	0x3e76c414	0.24098235
19	0x3e83dae3	0.25752935
20	0xbd911cb7	-0.07085555
21	0x3eb716f4	0.357597
22	0x3e861968	0.26191258
23	0xbf12e3d7	-0.57378906
24	0xbca0431f	-0.019563256
25	0xbc9d3c77	-0.019193871
26	0x3e62309f	0.2208886
27	0x3e9c5b4d	0.30538407
28	0xbe8e3612	-0.27775627
29	0xbd80371c	-0.06260511
30	0xbb672112	-0.0035267514
31	0x3dfa6652	0.12226547
32	0xbd3bc4ab	-0.045841854
33	0xbdcdcfe6	-0.10049419
34	0xbd35b99f	-0.044366475
35	0xbd2a62c5	-0.0415981
36	0x3e6b7c66	0.22996673
37	0x3f13eb48	0.57780886
38	0xbf03df4e	-0.5151261
39	0xbc97592c	-0.018475138
40	0xbbbe80af	-0.00581368
41	0xbdcf1da4	-0.101130754
42	0xbd64202c	-0.055694744
43	0x3e86b46c	0.26309526
44	0x3f02058e	0.50789726
45	0x3ee0c0d2	0.4389711
46	0x3e9e6019	0.30932692
47	0xbe8f3766	-0.27971953
48	0xbd26bbd4	-0.04070647
49	0xbd18b776	-0.037284337
50	0x3e8117e4	0.2521354
51	0x3e5c37da	0.2150568
52	0xbe9fc02c	-0.31201303
53	0xbd066c7a	-0.032818295
54	0xbdb4c279	-0.08826155
55	0x3e701652	0.23446015
56	0x3ec56b7e	0.38558573
57	0xbb5daacd	-0.003382373
58	0xbeb39b65	-0.35079494
59	0xbda07be5	-0.07836131
60	0xbcf6d969	-0.030132966
61	0xbea6dca2	-0.32590204
62	0xbd07a398	-0.033115
63	0xbd38e3b0	-0.045139015
