forecasting/midroll/dnn_model/model_0_ofwc2022.ckpt (torch, 42527 bytes, 5 tensors)

mlp.0.weight f4 [64, 90]
00000000: bf34 4abc e269 05bd ad92 0a3e 07c0 5a3d
00000010: b9f9 483d 822a 06bb 79f9 223e 7c3b 9f3d
00000020: 95e6 953c 5601 b93d e9da 47bc c53d bbbd
00000030: d959 973c cf7e 3fbc 00b1 09bd 0b4c d03c
00000040: 0c76 9dbd 4597 b7bd e350 8bbc 7905 9cbd
00000050: 41d8 823d 8c22 fcbc 8313 823d e876 51bc
00000060: 676a 7abc 6cdd 493d 2285 403c 2b6c 763d
00000070: e49c 27bd f251 743d d29f fc3d 3cd7 2d3d
00000080: e3b6 973d 4144 93bc 87db 90bd c8cb a53d
00000090: 9499 323d 7e1e a5bd 05f0 bdbd e6ad 94bc
000000a0: 9a50 cc3d 57e2 b23d ba8a 213d 1bc4 0bbd
000000b0: 81b5 21bd f6f3 93bc 4d2c 613c ce30 123d
000000c0: c52c fb3b 55dd d73d db8b a93d f4fa 90bc
000000d0: 7cfd a6ba 61ad d83d 0dda a5bd 2617 083d
000000e0: 2fd6 4abd 5765 e73d 2997 b83d 3522 adbd
000000f0: 7415 803a 396d 81bd 5787 b5ba 5926 493d
00000100: f62e 893d e4a3 dd3d d0c3 853c 9499 7bbd
00000110: 6a44 26bd 18fd 943d 639a c43c 0dd6 0bbd
00000120: 5e47 b6bc ae1b 51bd f468 7fbd 0669 8dbc
00000130: 8890 3fbd d76a 29bd 3ade f5bc 1e94 90bd
00000140: 5a0c 543d 752f cd3d d9c1 783d 5a5f 3ebd
00000150: a5cf 40bc d1b0 7dbc 344d d1bb 3b5e 43bd
00000160: 52a4 c3bd 4424 203c ac44 3ebd 0fa4 643d
00000170: b98c 9abc 495c 83bd cb45 fe3b 3980 b7bd
00000180: 26c7 c3bc 1fa7 573d 31af 0abe ebbc c6bd
00000190: 93f5 253d 058e 48bc 16ea 2c3d d1cc 183c
000001a0: 7424 f6bd ec46 2abe 14ca 95bb 6b0d 39bc
000001b0: 4237 41bd 7473 52bc 9de8 d83c 2680 c6bd
000001c0: 193c 9cbd bcc8 88bc 9e2f 5cbe 72e4 c0bd
000001d0: 0117 ab3d 641d 25be 2703 0ebe 8185 a83c
000001e0: 15a9 3abd 6355 553d a22e f3bd 6b2c 3dbd
000001f0: bd6c d2bd 1266 c53d 3b14 92bd 0a10 ddbc
00000200: f719 f83d 7b40 0c3d 4d62 313d b79a a6bd
00000210: 6e70 20bd 6804 0ebe 1778 0ebe 7836 fdbc
00000220: 36ea 0a3e b808 5ebd a390 343e 4d45 043d
00000230: 1f88 b83b 8250 063e ca4f 98bc ce77 ffbc
00000240: 4b35 623e ae55 1bbe 934c 02be 97f1 09be
00000250: c8bb 16be 9084 2e3e 7940 403d 465e c73c
00000260: 6afc a0bd fab6 76bd 824b eebd 7ac1 1abd
00000270: 8bca 05be 4448 63bc 70e4 a3bd 6c0f cf3d
00000280: f815 0bbd 3271 193e 42a7 043e 028b dbbc
00000290: 2803 ad3d 2b4a d63d 3148 3d3e 32b6 06be
000002a0: a099 a63d 5449 183e f369 ac3c 9591 83bd
000002b0: 0923 303d 7f66 f8bd 54ab 243d 66ea ac3d
000002c0: 84ef 0dbe 008b d9bd 8d6c 50bd 6965 42bd
000002d0: 8804 78bd d5e0 973d bc42 d93c cd62 3c3d
000002e0: da4d c73d 7f51 5b3d 7542 4b3e 0fd4 a83d
000002f0: 19f5 1c3e 90eb 35bd 77b3 b9bc 8806 a23c
00000300: 021d 7e3d 34b0 a2bd d114 a1bb b31c f3bc
00000310: c803 0fbd f339 dfbd e461 cc3b 45e8 dfbd
00000320: ff33 9c3d 8094 b93c 865d 4f3d 28e6 243c
00000330: 1de5 95bd b288 a23d b5b8 c7bc 78b7 863d
00000340: b541 b13a 93d8 6e3d b7bb a33d c540 9f3c
00000350: c77b a03d b401 c5bc fbc0 70bc 331e f9bc
00000360: b8fe 0cbd ef35 383d efdb 003d db0a 1ebd
00000370: 31e1 08be b29f 1ebd e913 843c 3a7d 82bd
00000380: f625 febd 92d7 c03d 9873 b4ba 4354 8f3d
00000390: c2bd bc3c ef97 edbd 6eb6 c0bd 563a 713d
000003a0: b616 41bb ae99 3a3d 3831 36bd dbf7 133d
000003b0: 63a0 103e 4af6 4a3d 120f 6a3d 5d1e 043d
000003c0: 2452 293d fc98 bc3d a1e2 eabd 9b54 f1bd
000003d0: 5f2f a2bd 3e92 d73c ce9c be3d 9a7d 423d
000003e0: 7e80 9bbd 9cb5 bbbd 5640 cc3c 7990 78bd
000003f0: f4d2 08bd 9c53 d9bd 3202 dd3c 1c93 c53b
-0.012341677 -0.03257168 0.13532515 0.053405788 0.04906628 -0.0020472114 0.15915479 0.077750176
0.018298427 0.09033458 -0.012198188 -0.09142641 0.01847546 -0.011687948 -0.033616066 0.025426885
-0.07688531 -0.08964399 -0.017006343 -0.07618231 0.063889034 -0.030778192 0.06351378 -0.012784697
-0.015284157 0.04928343 0.011750491 0.06016175 -0.040921107 0.05964846 0.12335171 0.04244159
0.0740793 -0.017976882 -0.070731215 0.08095509 0.043603495 -0.080624565 -0.09274296 -0.018149327
0.09976311 0.08734577 0.03943894 -0.034122568 -0.039479736 -0.018060666 0.013743472 0.035691075
0.007665249 0.105402626 0.082786284 -0.017697789 -0.0012740339 0.105799444 -0.080982305 0.0332252
-0.049520668 0.11298626 0.090132065 -0.0845379 0.0009772019 -0.06319661 -0.0013849539 0.049108837
0.0669841 0.10822275 0.016328722 -0.06142576 -0.04059259 0.07274836 0.023999399 -0.03413968
-0.022250827 -0.051051788 -0.06235595 -0.017261993 -0.046768695 -0.041361656 -0.030013192 -0.07059501
0.051769592 0.10018817 0.060731743 -0.046477653 -0.011768256 -0.015484051 -0.006387377 -0.047697287
-0.09552826 0.009774271 -0.04645221 0.05582052 -0.01886593 -0.06414086 0.007759785 -0.089600034
-0.023898672 0.052649613 -0.13543393 -0.09704002 0.0405174 -0.012240891 0.04221543 0.009326176
-0.12018672 -0.16628617 -0.0045712087 -0.011294703 -0.04717184 -0.012844909 0.026478106 -0.09692411
-0.0762865 -0.01669728 -0.2150254 -0.094185725 0.08353997 -0.16124493 -0.1386839 0.020571472
-0.045571405 0.052083384 -0.11874129 -0.04618494 -0.102746464 0.09638609 -0.07132765 -0.026985187
0.121143274 0.03424118 0.043306638 -0.08134978 -0.03916972 -0.13868868 -0.13912998 -0.030909762
0.13565907 -0.054207534 0.176333 0.032292653 0.0056314613 0.13116649 -0.018592734 -0.031185057
0.22090642 -0.15169403 -0.12724523 -0.13471065 -0.1472007 0.17042756 0.046936486 0.024336945
-0.07860644 -0.060233094 -0.11635496 -0.03778217 -0.13065545 -0.01387221 -0.08002555 0.10110363
-0.033956498 0.14984587 0.12954429 -0.026799683 0.08447868 0.10463365 0.1848457 -0.1315544
0.081347704 0.14871722 0.021046614 -0.06424252 0.043002162 -0.121289246 0.040202454 0.084431455
-0.13860899 -0.10622215 -0.050884772 -0.047459994 -0.060551196 0.0741593 0.02652108 0.04599266
0.09731646 0.053544518 0.1984957 0.08243572 0.15327872 -0.044414103 -0.022668583 0.019778505
0.062039383 -0.07943764 -0.0049158116 -0.02967677 -0.034915715 -0.10899725 0.0062372554 -0.10932974
0.07627105 0.022653818 0.0506263 0.010064639 -0.073190905 0.07936229 -0.024380067 0.06577963
0.001352361 0.05831201 0.07994788 0.019440064 0.07836109 -0.024048664 -0.014694448 -0.030409908
-0.034422606 0.04497331 0.031459745 -0.03858457 -0.13367154 -0.038726516 0.016122775 -0.06371541
-0.12409584 0.09416117 -0.001376736 0.069984935 0.023039702 -0.11601245 -0.09409796 0.058893524
-0.0029463 0.045556717 -0.044480532 0.036125045 0.14123683 0.049551286 0.05714328 0.03225552
0.0413381 0.09208867 -0.11469007 -0.11783715 -0.079191916 0.02631485 0.09307252 0.047483064
-0.07592867 -0.091654986 0.024933022 -0.060684655 -0.033404306 -0.1061165 0.026978586 0.0060294997

mlp.0.bias f4 [64]
00000000: c342 30bd 8ec7 9e3d ad85 d7bd b9da cabd
00000010: 0f6d 8bbc c532 94bd 23ff 2a3c 498e 7ebb
00000020: 3fb9 93bd dd29 dabd c3a2 a1bc f78d 6a3b
00000030: c5bc 50bd b298 a8bd 3c85 60bd 962f e33d
00000040: 2d51 99bd d07d 363d 9c96 7fbc b1e6 e9bb
00000050: e7c5 5e3d 471a 303d e1cf f2bb 06c3 193c
00000060: e128 273b 87fd 88bd f0af 363d acb0 c4bc
00000070: 4cc3 9bbd 52f4 423d bc8a 34bb 8634 cebd
00000080: 0c9a c03d ec0d e6bc 9288 663d 114b 71bb
00000090: 1f97 4f3d 60be 833c dc1f d53d 6afb 58bc
000000a0: a8e6 c8bc 3a8b b0bb 1999 ea3c 2e14 eabb
000000b0: 4db3 8c3d d2d8 aabc 45d2 5b3d 29ba 303c
000000c0: 7926 0fbc c5c6 8b3d 6d57 39bd 9ddc 8f3d
000000d0: b778 0e3b 12b5 053c cb5a 5bbd 2415 763c
000000e0: 6c33 e73c 445e 89bd 26c9 683d 57df 1d3d
000000f0: 54b4 1cbc 7343 06be 566b 2cbd ec57 b33d
-0.04303242 0.07752906 -0.105235435 -0.09904999 -0.017019777 -0.07236246 0.010436806 -0.0038842133
-0.07213067 -0.10652516 -0.019730931 0.0035790184 -0.050961275 -0.08232249 -0.054814562 0.11093061
-0.07486186 0.044553578 -0.015599873 -0.0071380963 0.054387953 0.04299381 -0.007410035 0.009384876
0.0025506543 -0.066889815 0.04460138 -0.024010025 -0.07605609 0.047596283 -0.0027548512 -0.10068612
0.09404382 -0.02808281 0.056282587 -0.0036818425 0.05068123 0.016081989 0.10406467 -0.0132435355
-0.024524048 -0.005387691 0.028637456 -0.007143519 0.068701364 -0.020855341 0.053667326 0.010786572
-0.0087372 0.06825022 -0.04524939 0.070245005 0.0021739432 0.008160846 -0.053553384 0.015019689
0.028222762 -0.06707433 0.056832455 0.03854307 -0.009564478 -0.13111667 -0.04209455 0.08757004

mlp.2.weight f4 [64, 64]
00000000: 228b 2cbe 55cf cdbd 55c0 463d 5a6e f23d
00000010: f68b 083e a254 06bd 7a71 c8bc 96e0 7cbe
00000020: 61b5 90bd 97bb be3b 7646 6c3d f197 10be
00000030: e5e1 bbbd bd64 0bbe 61b4 a03d 0781 c2bb
00000040: 8d3e 8bbd b0cc 3fbe ca96 813c 2be8 bb3d
00000050: 2baa 53be a53e 2abe 3920 11be 729f cebd
00000060: fa75 a0bd dc3b 70be fd51 a63d eef8 b4be
00000070: cbaa bc3d 9147 9bbd 0c33 ab3c 72e3 fd3d
00000080: 75cb 063d 6154 f03d f858 b9bd 2c6b b83b
00000090: c426 ec3d 95ee 8ebd 9bd8 0fbe b8ab b3bc
000000a0: bb93 81bc c11f cf39 ff69 a3bd 2138 31bd
000000b0: 400b 20be 66b1 acbd 4108 a4bb a6bc 3c3d
000000c0: 3c5d 3d3c 3c9f 0bbd 49c9 a63d b0ce cd3c
000000d0: 164b 483d 32be 893d 0456 8fbd adb2 1d3e
000000e0: 4eff 70bd e756 97bd 10c3 9f3d e4c0 1b3c
000000f0: c061 97bc d906 12be e2d7 213e 8445 0d3d
00000100: 60d3 fe3c cd32 193d fe9c 023e 8bbe b4bd
00000110: 68fe aabd 9f1e 93ba 604a 9bbd 313a 97bd
00000120: ceab 2cbd b33c 813d c748 87ba dc8a eabd
00000130: 8bec d1bd d68f f2bc 230e 36bc 109e 593d
00000140: 832e eabd 52e8 4e3d 30a1 f53d 51e2 2a3d
00000150: 0a5d 06bd 7879 ce3b bf50 ac3d 791e 56bb
00000160: ead4 10bc 9b14 983d e980 06be ecf5 7bbd
00000170: d234 bdbd 889f 963d addb b33d 99df 9cbd
00000180: 3c67 923d d03d 90bd e8e2 09bd 44f9 e93b
00000190: 8888 debd badc 71bd 4c2a b73d bc61 d9bc
000001a0: 3a3b ab3d ceb2 40bd b15d 853c 9a97 a9bc
000001b0: 9c15 f7bc 774c 02be f6be d33d 1ac6 0dbe
000001c0: d615 85bd 9db7 8a3d 94ac ee3c c7aa 47bd
000001d0: 781d fcbd e6a4 95bc 00c6 cc3b d06b 4dbd
000001e0: c719 1a3d 9774 24bd bd3e 73bd 0f41 9bbd
000001f0: 39d9 aa3d 15ef 05be c142 64bc 7cc2 8ebd
00000200: 9453 2ebd 1456 0ebd 6173 c03d 20d1 8cbd
00000210: 3a61 28be 327d 79be 3d37 05bd c16b 8abd
00000220: e741 a63d a0d3 2dbe e42f 5bbd c4d7 e7ba
00000230: 1f89 24be 2d9d 2abd 4e9c 193e 949a b03c
00000240: 0563 873d 55dd 87be bcc8 dfbd 3e9d 6ebd
00000250: 4c8c 9e3e 30ce a03d a335 953d 921d e8bd
00000260: eade e1bc 2b74 db3d fec0 16be b2ae 0b3e
00000270: 4262 1bbd b930 b53d 5137 b9bc f089 2ebd
00000280: e67a 03bd 5121 44be 1a2b d5bc e660 babd
00000290: b42e bebd f0ce de3d 256d 503d a0b9 b73d
000002a0: aed3 aebd fb3a 61bc f69b cfbd 58c1 6ebe
000002b0: c3ad 55bd e0fd c23c d6e1 843d 42dc fa3d
000002c0: dbd5 9bbd c8db a33d 3d6c 25bd 457b 67bd
000002d0: 3d65 b93d a39e 473d 3030 553d 2083 1dbd
000002e0: a2ca 9fbd 5148 0abe 3523 3dbe 3472 95bd
000002f0: c5d6 e3bc 563c cebb a63a bdbd 70dc f1bd
00000300: e2ba 35bc f1d8 98bd b083 1ebe 3dae 253e
00000310: bd6d f63d 1a23 cebd f3a1 a43c 2d4a 20be
00000320: 7b15 65be 7600 07bd 0746 59bd 7b5c febc
00000330: d3f8 543d 56fe 99bc 771b 01be 8ae7 353e
00000340: 6b9b 273d 854a 84bd ed21 943d 841f 0dbd
00000350: 68a3 e73d ca73 203d d150 193e 2fd8 e3bd
00000360: 0ae3 3e3e cc6f 8e3d f3f3 6dbd 98a5 223e
00000370: 6334 b7bc 45ab 0fbe aac6 bfbd aaf0 bfbd
00000380: b5e6 083d e221 593d ba40 5d3d 51e8 05be
00000390: 6180 d83d 81fc 0bbe c811 b5bd b09e 863d
000003a0: f36d 343e f756 d6bd c34b 5cbd 5f1b 80be
000003b0: 6c41 bdbd dc9e b33d 8fd6 0c3e d950 00be
000003c0: 2aab 493c fc27 823d d94c 83bc f454 103e
000003d0: 07de 89bd a84d 533d 2972 023e 364a 70be
000003e0: 417d a13d 0ff8 4ebc 1ca9 a83d 7738 8abe
000003f0: 8bbb ccbb 5027 313d 1cd2 aabb eaa0 52bd
-0.1684995 -0.10049311 0.048523266 0.11837454 0.13334641 -0.032795556 -0.024468172 -0.24695048
-0.07065845 0.0058207023 0.057684384 -0.14120461 -0.09173945 -0.13612647 0.078469045 -0.0059357914
-0.0679904 -0.18730426 0.015818972 0.09175142 -0.20670383 -0.1662546 -0.14172448 -0.100890055
-0.07835002 -0.23460335 0.08121107 -0.35346168 0.09212264 -0.075820096 0.020898364 0.123968974
0.032908875 0.11734844 -0.090501726 0.0056280103 0.115308315 -0.069791 -0.14047472 -0.021932468
-0.015817514 0.00039505775 -0.079792015 -0.04326642 -0.15629292 -0.084322736 -0.0050058668 0.046078347
0.011557873 -0.034087405 0.08143861 0.02512297 0.048899733 0.0672573 -0.06998828 0.1540019
-0.058837228 -0.07389622 0.07800877 0.009506438 -0.018479228 -0.14260425 0.15805009 0.034490123
0.03110665 0.037401963 0.127552 -0.08825406 -0.083493054 -0.0011224336 -0.07582545 -0.07384146
-0.042156033 0.063104056 -0.0010321372 -0.114522666 -0.10250195 -0.029609602 -0.011111769 0.053129256
-0.11434653 0.050514527 0.11993635 0.04171974 -0.032803573 0.0063011013 0.084138386 -0.0032671972
-0.008839825 0.07425805 -0.13135113 -0.061513826 -0.0923859 0.07354647 0.08782134 -0.07659835
0.07148597 -0.0704304 -0.03366366 0.0071403105 -0.10865885 -0.059048392 0.08943614 -0.026535861
0.08360906 -0.04704552 0.016280027 -0.020702172 -0.030161671 -0.12724482 0.10339157 -0.13845101
-0.064983055 0.06773303 0.029135026 -0.04874685 -0.12310308 -0.018267106 0.0062491894 -0.050151646
0.03762224 -0.04015025 -0.059386004 -0.07580768 0.08342213 -0.13079484 -0.013931931 -0.06970689
-0.042560175 -0.03475006 0.09397007 -0.06875825 -0.16443339 -0.24364164 -0.032523382 -0.06758834
0.081180386 -0.1697526 -0.05351247 -0.0017688205 -0.16067933 -0.0416538 0.15001032 0.021558084
0.06610683 -0.2653605 -0.10926959 -0.058255427 0.30966413 0.07851827 0.07285621 -0.11333765
-0.027572114 0.10715517 -0.14722058 0.1364086 -0.037935503 0.08847184 -0.022609385 -0.042612016
-0.032099627 -0.19153334 -0.026021529 -0.09100513 -0.09286252 0.10879314 0.05088534 0.08970952
-0.085364684 -0.013746972 -0.10137169 -0.23315942 -0.052167665 0.023802698 0.06488387 0.12249042
-0.07609149 0.08000904 -0.040386427 -0.056514043 0.09052513 0.048735272 0.05204791 -0.03845513
-0.07802321 -0.13504149 -0.18470462 -0.07297173 -0.027812371 -0.0062938137 -0.09239702 -0.11809623
-0.01109192 -0.07463253 -0.15479922 0.16179748 0.1203265 -0.10065289 0.020096755 -0.15653296
-0.22371475 -0.032959424 -0.0530453 -0.031049957 0.05199511 -0.018798035 -0.12608133 0.17764106
0.040919703 -0.06459526 0.07233033 -0.034453884 0.11310464 0.039172925 0.14972235 -0.11125218
0.18641296 0.06954917 -0.058093976 0.15883482 -0.022363847 -0.14030178 -0.09364064 -0.09372075
0.033423144 0.05301083 0.054016806 -0.13076903 0.10571361 -0.13670541 -0.08841282 0.06573236
0.17620067 -0.10465806 -0.05378319 -0.25020882 -0.09240994 0.087705344 0.13753723 -0.12530841
0.012308875 0.06355283 -0.016027855 0.14094907 -0.067318015 0.05158773 0.12738861 -0.23465809
0.078852184 -0.012632384 0.0823538 -0.26996204 -0.006247943 0.043250382 -0.0052130353 -0.05142299

mlp.2.bias f4 [64]
00000000: 39bb 133d 48b7 0bbe 879a 42bc 5b1c c1bc
00000010: 0af7 6d3d 335f bcbc 09b0 8abd 6053 d83c
00000020: f7f5 a53d 2a3c f63d 6ebb a1bd 0945 823d
00000030: 1286 203e 22d0 86bd 7cbb 19be 5c95 cdbd
00000040: f96d 0cbe 73c3 f9bc 89c4 27bd b2fb 013d
00000050: 0a73 ecbd d86b 0cbe 794e 4d3d 248e ef3d
00000060: 7cc7 52bc 77b9 f93c f7c9 dbbd 1762 d2bd
00000070: 798e 04be ae15 bcbd ed07 0cbe b026 e7bd
00000080: b333 aa3d 832c 643d ec52 0a3d f824 8abd
00000090: 74f3 d5bd f39d 3ebd fdaa 543c d134 bb3c
000000a0: 81ae b6bd ee51 6fbc 982b b6bc 139f 1b3d
000000b0: 8041 88bc fc41 993d 3e92 02bd daa9 ccba
000000c0: 43e1 f53d 5b53 003e aa15 c5bc c681 9b3d
000000d0: 556b 9d3d b9e1 913d d313 a0bd 1d82 043e
000000e0: 19bb 04bd b23d d93d 104a 05bd e3e3 2f3e
000000f0: 5a57 ed3a 82d0 cabd c737 003d 239e fbbd
0.03606722 -0.13644135 -0.0118776625 -0.023573091 0.058096923 -0.022994613 -0.06771857 0.026406944
0.08103555 0.12023194 -0.078970775 0.06360824 0.15676144 -0.06582667 -0.15012926 -0.10038254
-0.13713826 -0.030488705 -0.040958915 0.031734176 -0.115453795 -0.13713014 0.050123665 0.11697033
-0.012864944 0.030483944 -0.10731881 -0.102726154 -0.12944974 -0.091838226 -0.13674898 -0.11286676
0.08310642 0.055706512 0.033770487 -0.067453325 -0.104468256 -0.04653735 0.01298022 0.022852333
-0.08920003 -0.014606936 -0.022237584 0.037993502 -0.016632795 0.07483289 -0.03187775 -0.0015614585
0.12005856 0.12531798 -0.024058182 0.07593112 0.076864876 0.07123131 -0.07816281 0.1294026
-0.032404993 0.106074706 -0.032541335 0.17176776 0.0018107698 -0.09903051 0.031303193 -0.122860216

mlp.4.weight f4 [1, 64]
00000000: 2f77 02be 1649 f2bb 682c 7abd c240 903d
00000010: 2d6c bbbd ddc1 5fbe f1b4 203b 03af 47bd
00000020: f0bd 5e3d 9f01 2e3d 276e 85bd 35d5 bebd
00000030: a2d6 0d3d bd50 313d 4689 75bc 9b09 e7bd
00000040: 1bc3 903d 6718 153d 38c4 1b3d c4ec 95bd
00000050: ff14 78bd 9948 c0bd 30f0 10be 7b8e 353d
00000060: 05ad b2bd 792a 77bd 07e6 7dbd 03ba b9bd
00000070: 48b3 c1bb 8e2e 83bc f95f 24bc 19af fb3c
00000080: b230 c4bc 37fe 02be b0a1 003d 0d94 cdbd
00000090: 495b 29bd da7b 94bd f15c aa3d 91b6 c0bd
000000a0: 36d2 a7bd 2ed1 103e 81bc dd3c 3d32 9fbd
000000b0: c94f 5ebd d6f4 26bd d455 ff3c 3e90 873d
000000c0: 93c8 863d 30c4 973d bc62 a0bb 8a56 b1bc
000000d0: fb62 84bd e940 cfbd c622 eebd 429b 183e
000000e0: 95a2 473c 5d9c e33d a60f 87bd d143 d03d
000000f0: eb38 dfbc 9687 0d3e 1fd3 ca3d ea73 84bc
-0.12740777 -0.0073939664 -0.061077505 0.070436016 -0.09151492 -0.21851297 0.0024521912 -0.04875089
0.054380357 0.042482015 -0.065151505 -0.0931801 0.034628518 0.04328989 -0.014986342 -0.11281129
0.070684634 0.036400225 0.038028926 -0.0732055 -0.0605669 -0.09388847 -0.14154124 0.044325333
-0.08724407 -0.06034324 -0.06198695 -0.09068682 -0.0059112646 -0.01601341 -0.010032647 0.030723142
-0.023949001 -0.12792288 0.031404197 -0.10038004 -0.041346822 -0.07250185 0.083185084 -0.09409822
-0.081943914 0.14142296 0.027067425 -0.07773254 -0.054275308 -0.040760837 0.031168856 0.06619309
0.06581225 0.07410467 -0.0048945826 -0.02164771 -0.064641915 -0.101198025 -0.11627726 0.14902976
0.012184759 0.11113808 -0.065947816 0.10169185 -0.02724882 0.13821253 0.099035494 -0.016168553
