forecasting/midroll/dnn_model/model_1_ofwc2022.ckpt (torch, 42527 bytes, 5 tensors)

mlp.0.weight f4 [64, 90]
000000 d4 02 11 3e b4 4a e1 3d 36 8f 1e 3e d5 fb 39 3e
       0.14161235 0.110005766 0.15484318 0.18162473
000010 c2 6c a3 3d 30 d9 07 3e 89 91 1d be b7 0c 18 be
       0.07979728 0.13266444 -0.15387549 -0.148486
000020 b2 4b 3e 3e bc 73 cd 3c 0c 81 5f bc b4 c6 47 be
       0.18583563 0.0250796 -0.013641607 -0.19509393
000030 32 86 99 3c b0 b1 a6 3d 92 d7 3b 3d 76 79 08 3e
       0.018740747 0.0813936 0.04585988 0.13327584
000040 ba 56 aa 3c 0c 9d fa 3d cf b3 14 3d 62 85 98 3d
       0.020793308 0.122369856 0.03630429 0.07447316
000050 4c 82 ef 3d 58 c9 e5 3d 50 5c 16 3d 5a fe 57 3d
       0.11694774 0.11220044 0.03670913 0.052732803
000060 40 13 80 be 37 e4 b2 be 9c fe 44 be 4d 66 d9 3e
       -0.25014687 -0.3493974 -0.19237751 0.42460862
000070 c2 b8 05 3e c3 c6 e3 3b cc bb 17 3d 27 15 2a 3e
       0.13058761 0.0069511845 0.03704433 0.16609631
000080 e8 46 05 be e0 0b 1e bc 10 4a 39 3d 2d 7b 71 3d
       -0.1301533 -0.009646386 0.045236647 0.05895536
000090 17 d2 1b be cc d9 a6 bd 55 67 d1 bc 7e bb 0e bd
       -0.15216862 -0.0814701 -0.025561968 -0.034846775
0000a0 6a 9a bd 3d 35 1b da bd 5a d5 d7 bd 67 2d 6d 3e
       0.09257968 -0.106497206 -0.105387405 0.23161851
0000b0 98 c3 b3 3d a8 40 5d 3e 6f c1 00 bd 84 74 17 3e
       0.08777541 0.21606696 -0.031434473 0.14790541
0000c0 e6 35 39 3a 1c 39 fd 3c 1d 51 49 3c 88 ba b7 3d
       0.00070652214 0.030911021 0.012287405 0.08971125
0000d0 ee de 9e bb d6 cf 0a bd 98 64 76 bd 55 ea 91 bd
       -0.0048483526 -0.033889614 -0.060154527 -0.071247734
0000e0 55 e3 aa b9 8e e6 f8 3c dd b0 89 bd 23 2c e4 3d
       -0.00032594302 0.030383375 -0.06723187 0.11141231
0000f0 cb cb a9 3c 4c c1 ec bc 6e 0d c6 bd 95 95 a3 3e
       0.020727059 -0.028900765 -0.0967053 0.3195006
000100 82 23 59 bc cd c5 85 3d 91 01 4f 3d 36 a6 cf 3d
       -0.013253095 0.06531868 0.050538603 0.10139124
000110 ee 43 89 3e 8e ac 24 bd 47 54 06 3e 97 85 bf 3d
       0.2680964 -0.040203623 0.13118087 0.09351652
000120 a3 19 3c bd 49 45 c8 bc bf bd 08 bd 20 f3 c4 bd
       -0.045922887 -0.0244471 -0.03338408 -0.09616685
000130 4a 84 92 bc 6d e5 98 3d ac 1f 5c bd ba a4 ae 3d
       -0.017885346 0.074656345 -0.053741142 0.08527513
000140 e3 e9 da 3b fb f9 cc 39 a4 4f 1a bd 94 52 81 3d
       0.0066807135 0.00039096162 -0.037673607 0.06314579
000150 cd 55 9c bd f5 0b 13 bd fd 1e 03 be 08 cd b6 3d
       -0.07633553 -0.035900075 -0.1280479 0.08925825
000160 ff c8 7b bd eb 7e 73 bd 2d d2 5a 3d 1e ff 95 3d
       -0.06147098 -0.05944721 0.053423095 0.0732405
000170 07 f2 7b 3d de ba 12 3b 45 1c 08 3d 2b 15 c0 3c
       0.061510112 0.0022389214 0.033230085 0.023447594
000180 13 c2 35 bd ea 15 af bd 7f cd df bc 85 a9 a4 bd
       -0.044374537 -0.08549102 -0.027319668 -0.08040146
000190 70 17 44 be 6a 16 f0 bd 33 fb 6c 3d 72 2f 02 be
       -0.19149566 -0.11723025 0.05785675 -0.12713411
0001a0 ba bb 22 bd 49 2f 7f bd 59 75 f9 bd bd 21 d3 3d
       -0.03972981 -0.062300954 -0.121805854 0.103091694
0001b0 a2 43 7d bd 4c f1 ef 3d a4 ff 85 bd a5 d5 e9 3d
       -0.061832078 0.117159456 -0.065429 0.114177026
0001c0 87 a3 b4 3c 6b ee be 3d 39 4e 28 3e 12 5c 81 3e
       0.022050632 0.09322818 0.1643609 0.25265557
0001d0 24 d7 47 3e bf 04 b6 bd 65 43 49 be cb 1e 02 bb
       0.19515663 -0.08887624 -0.19654615 -0.001985478
0001e0 4e e2 2d be c8 fe 8a be eb 1e b7 3d 98 79 0d bd
       -0.1698086 -0.27147508 0.08941444 -0.03453979
0001f0 c8 8e f4 bd f4 91 3f bd 07 1e 4f 3e 38 30 ce 3d
       -0.11941296 -0.04677005 0.20226298 0.10067791
000200 cf f1 88 be a0 a0 e0 3c 7c 8c 0e be 7d 88 b5 bd
       -0.26746985 0.027420342 -0.13920778 -0.08863924
000210 3b b3 19 3e 14 db 9c be 86 0d cc bd ff 3c 4f be
       0.15009777 -0.30635893 -0.09963517 -0.20238112
000220 99 9b 8d 3d 1d 89 55 be 8b 6f 34 bd c2 52 7c be
       0.069144435 -0.20853086 -0.04405169 -0.24640945
000230 6e 34 72 bd 45 f0 1f be 6f 74 f9 bd ff 98 36 3e
       -0.059132032 -0.15619 -0.12180411 0.17831801
000240 b3 51 c6 3c c8 0c b1 be ca 8a a6 be e6 80 15 3e
       0.02420888 -0.34580064 -0.32527763 0.14599952
000250 b0 f9 72 be ee 38 3e b9 fe 87 90 bd 76 fb b3 be
       -0.2372806 -0.0001814102 -0.070571885 -0.35152787
000260 bd 87 e8 3d d5 e4 43 be bc 23 64 bd 58 a2 fc be
       0.11354015 -0.19130261 -0.05569814 -0.49342608
000270 64 96 d4 be ac fa 86 3d df 4d f9 bd 06 28 d7 3d
       -0.4152099 0.065907806 -0.12173056 0.10505681
000280 27 46 32 be c5 46 e1 3d 19 5c 07 be 27 bf 1d 3c
       -0.17409573 0.10999826 -0.13218726 0.009628094
000290 6d 58 06 bd a1 27 8e bc ee 45 6a bc 25 d8 b8 3c
       -0.032799173 -0.01735288 -0.014298899 0.022564003
0002a0 dd 21 40 3c fa ce 30 be 12 df 12 bd 4b 8c ea 3d
       0.011726824 -0.17266455 -0.035857268 0.1145254
0002b0 d0 af 3c 3d cd d4 ea 3d 9c 05 a4 bc e8 a3 07 be
       0.046066105 0.1146637 -0.020022206 -0.13246119
0002c0 2c 8f 06 be 46 43 ae 3d 3b e9 a7 bd fd 20 bd 3d
       -0.13140553 0.08508925 -0.08198782 0.09234808
0002d0 62 1f 94 bd a9 0f 9c bd 58 f4 04 3d fd 8d ab 3d
       -0.07232548 -0.076201744 0.032459587 0.083766915
0002e0 c3 c7 eb 3d 19 93 c0 bc 97 ae f5 bb 4e ba b0 bd
       0.11512711 -0.023507642 -0.0074976194 -0.08629285
0002f0 ae 8a 08 3e 2e 12 96 3d 77 59 59 bd c6 70 b3 bd
       0.13334152 0.07327686 -0.053063836 -0.08761744
000300 ac 85 61 bd e6 dd 7e bd 84 b4 c5 bd a4 ea 6f 3d
       -0.05505912 -0.062223338 -0.09653571 0.05857338
000310 69 f1 5a bc 3c ce dd 3d d3 a8 2f 3e cb 2a 44 be
       -0.013363221 0.10830352 0.17154245 -0.19156949
000320 5a ab 5b bc 94 1f 02 3b 4f 7c 13 3e 6b 88 85 3d
       -0.013407553 0.0019855248 0.14402889 0.0652016
000330 0e 1e 70 bd 4c 27 78 3d 98 52 6c 3d 4f 97 ee 3d
       -0.058622412 0.06058435 0.057695955 0.116499536
000340 09 37 c3 3d d2 af be bd 14 84 a9 bd 93 38 6b 3d
       0.095319815 -0.09310879 -0.08277145 0.057427
000350 bd f5 09 bd 2c 8f 9a bd 0f 3e 5d 3c 32 bc a4 bb
       -0.03368162 -0.07546839 0.013503565 -0.0050273174
000360 79 5a b3 bd ac ca 2f bd 97 6b a0 bc a6 e9 b2 bc
       -0.08757491 -0.042917892 -0.019582553 -0.021839928
000370 ba 42 18 3c 5b fe aa bd a0 3b 3c bb 8d 8a aa bd
       0.009293253 -0.08349296 -0.0028722063 -0.08327208
000380 ed 76 ae bd ac b3 0c 3d 9b c4 8b 3d 2d 8a e4 bc
       -0.08518777 0.034351036 0.06824609 -0.027897919
000390 8f 80 37 bd 41 2b d3 3d 7b d4 83 bc 00 21 f7 3b
       -0.044800337 0.103109844 -0.01609253 0.0075417757
0003a0 12 16 d4 3d c5 c9 7a 3d 9c 7f a3 bd 7c 60 85 bd
       0.10355772 0.06122758 -0.07983324 -0.065125436
0003b0 72 e0 22 be 4c 26 b0 3c aa 0b 19 be 09 c5 0d 3e
       -0.15905932 0.021502636 -0.14945856 0.13844694
0003c0 de 7e 6a bd 3d bd 14 be 4d ea 2a bd 3b a7 54 3c
       -0.057249896 -0.14525314 -0.041727353 0.012979324
0003d0 b1 4c 92 3c f5 52 bc 3c 68 22 90 38 38 22 89 3d
       0.017858835 0.022988776 6.872864e-05 0.0669598
0003e0 b3 bf 03 3e e3 e2 ba bd 19 11 48 3c 6e 0a 02 3d
       0.12866096 -0.091253065 0.012211108 0.031748228
0003f0 41 1c 0e 3d 29 85 14 3b 4b e0 7e 3d 7a a5 24 be
       0.034694914 0.0022662377 0.06222562 -0.1607875

mlp.0.bias f4 [64]
000000 ca 45 f7 3c 66 e4 ee bc c0 d3 ff bc 67 e7 ad 3d
       0.030184645 -0.029161643 -0.0312289 0.08491402
000010 58 07 e4 3d 17 1e 2e 3d 18 30 97 bd 4d 54 84 3d
       0.11134213 0.042509165 -0.0738222 0.064613916
000020 c1 be a5 bc 06 7a d5 3d 11 17 5e 3d 0c ca f6 3d
       -0.02023256 0.10423665 0.054221217 0.12050256
000030 df 4c 6c bd a8 bf 4d bd 9f 56 c3 bd 17 27 2a bd
       -0.057690497 -0.050231606 -0.09538006 -0.041541185
000040 b0 8e ec bd 3a fa b5 bb d7 68 9f bd cc ff 18 3b
       -0.11550653 -0.005553511 -0.077836685 0.0023345826
000050 82 8c 8b bd 28 4b f7 b9 57 40 ae bd 50 d8 70 3d
       -0.06813909 -0.00047167507 -0.085083656 0.05880004
000060 ea 4b 21 bd 06 63 1a 3d 66 95 43 3d ba 50 14 bd
       -0.039379038 0.037692092 0.0477499 -0.0362098
000070 b1 76 b1 3c 80 5d 4e 3d 7d 69 4d 3c e3 6d 27 3d
       0.021663042 0.050382137 0.012537357 0.04087628
000080 0a 70 97 bd 68 dc 2a 3d 1b 8b 56 3d cd d4 a0 3d
       -0.07394417 0.041714102 0.052378755 0.078530885
000090 1a 58 d6 3a f3 6a cc bd 66 43 22 3d d5 87 96 3d
       0.0016353161 -0.099813364 0.039615057 0.07350127
0000a0 82 31 d4 3d 3c 01 57 3c 6d 7c cb 3c b3 70 be 3d
       0.10361005 0.013122853 0.024839604 0.092988394
0000b0 1a 5a 7e 3d a5 f1 67 3d e7 56 7b bd 88 c4 c2 3c
       0.062097646 0.056626935 -0.061362173 0.023775354
0000c0 53 4a 68 3d 93 b9 92 bd 94 4b d6 3d c8 51 f4 3d
       0.056711506 -0.07164302 0.10463634 0.11929661
0000d0 11 30 73 bc cd 90 94 bc ef c0 d4 3d 6e ab 68 bd
       -0.014843003 -0.018135453 0.10388362 -0.056804113
0000e0 ba 4e 2e bd 6d 76 c4 bd 3c 0d 3c 3c 3e af af 3d
       -0.04255555 -0.095929004 0.011477765 0.08578347
0000f0 38 8a 2f 3d d0 b4 ba bd 2a 43 19 bd 26 fe ba 3d
       0.042856425 -0.091165185 -0.03741757 0.09130506

mlp.2.weight f4 [64, 64]
000000 76 18 47 bd 6b d8 52 be c7 23 0f 3e 08 78 50 3e
       -0.048607312 -0.2059037 0.13978492 0.20358288
000010 ee bd 93 3d 2b 53 2f bd ee 32 cb 3d b2 b3 6d 3c
       0.072139606 -0.042803925 0.099218234 0.014508175
000020 38 24 8b 3d 11 2f a4 3d dd f6 14 3e 7c ce 7a 3c
       0.067940176 0.0801679 0.14547296 0.015308019
000030 85 67 83 3e fd aa a6 3d 7d 8d 96 3e 2b ba 79 3e
       0.25664917 0.08138082 0.29404822 0.24387424
000040 6e 3a bc 3c c7 4b 52 3e 88 58 d6 bd 7d 7c 8b 3e
       0.02297708 0.2053672 -0.10466105 0.27243415
000050 14 ee de 3d f9 2b 8a 3e 5f 9c c0 3d cd 81 da bd
       0.108852535 0.26986673 0.094048254 -0.10669289
000060 4d 18 19 be 2e fe 09 3e b4 ac e0 3d 55 0f 96 3e
       -0.14950676 0.13475868 0.109704405 0.29308572
000070 eb 79 11 bd d2 80 6a 3c 98 ff 05 be a0 e1 da 3d
       -0.03551666 0.01431294 -0.13085783 0.10687566
000080 f9 3d 3c 3d 4d 14 9c 3e 0b 67 0b 3c a5 a5 4e be
       0.04595754 0.30484238 0.008508454 -0.20180376
000090 d0 e1 50 bd 8f 26 4a 3e 69 a4 76 ba c5 52 81 3d
       -0.0509966 0.19741271 -0.00094086543 0.06314615
0000a0 3d fe 97 bd b4 19 4b bd 28 2a 88 3d 30 dc c3 3d
       -0.07421539 -0.04958506 0.06648666 0.09563482
0000b0 1f d8 0e 3e bb 82 b0 bc 5a 7d 91 3e 38 e9 f7 3d
       0.13949631 -0.021546712 0.28415948 0.1210503
0000c0 88 5e 18 be 72 2b bd bd 1a d6 2a bd c1 73 1e 3e
       -0.14879811 -0.09236802 -0.04170809 0.15473844
0000d0 b7 b3 ba bb 47 8d 28 3e cf f5 42 3e 12 c4 01 3e
       -0.005697693 0.16460143 0.19039081 0.12672451
0000e0 1d 40 82 3e 24 4b 5e 3d 70 42 a5 3e c3 67 3d be
       0.2543954 0.05427088 0.3227725 -0.18496613
0000f0 6e 53 c1 3e b6 0c 24 3e b2 4c 39 3e 34 1b 4d 3c
       0.37758964 0.16020474 0.18095663 0.012518693
000100 ce 75 66 3d 2f bc 88 bb 1e 7c 0e 3e ae e4 32 3e
       0.05626469 -0.004172824 0.13914534 0.17470047
000110 9a 6b 02 3e d4 41 b0 3d 09 2f 97 bd d8 07 f8 3d
       0.12736359 0.08606306 -0.07382018 0.12110871
000120 ca 1f 7b bd 8b 9f 60 bd e7 53 01 3e cd 3b 5b 3c
       -0.061309613 -0.054839652 0.12629662 0.013380957
000130 c2 3a 4d 3e 79 44 e2 3d 66 bb 63 3e 8c 03 32 3e
       0.20041946 0.110482164 0.22239456 0.17384166
000140 ee bc 2c 3e 2a c9 d6 3d 88 3d 04 3e e7 68 8e 3e
       0.16868946 0.10487588 0.12914097 0.2781441
000150 bc 8c 78 3e d6 16 3c 3e 3a f5 19 bd f1 ca d3 3d
       0.24272436 0.18368086 -0.037587382 0.103414424
000160 9b d1 13 be b3 53 3e 3d aa 1f 6b 3e ea 73 4e 3e
       -0.14435427 0.04646654 0.22961298 0.20161405
000170 b5 bc 2c 3d 8e 3c ef 3d 16 b8 ab bd 45 f2 85 3d
       0.042172153 0.11681472 -0.08384721 0.0654035
000180 ea b5 49 3e 4b 71 f6 3d 70 de 6a 3d 17 1e 09 be
       0.19698301 0.12033328 0.05734104 -0.13390385
000190 a7 d3 42 3e b8 9b 1e 3e 56 df be 3c d2 20 14 3e
       0.19026051 0.1548909 0.023299854 0.14465645
0001a0 55 a2 d0 3d 32 56 da 3d 0b fb 40 3d 2e 54 0c 3e
       0.101872124 0.10660972 0.047114413 0.13703987
0001b0 21 7f 83 bd 69 a5 58 bc 1a 8a 8d 3e d8 a2 c6 bc
       -0.06420732 -0.013223031 0.27644426 -0.024247572
0001c0 b1 7c c1 bd bd c6 c1 bb 29 2a 02 3e 04 6c e4 3d
       -0.09447611 -0.005913584 0.12711395 0.11153415
0001d0 bb da 31 bc ec 8f 6b 3e ef cf 97 3e 58 99 13 3e
       -0.010855372 0.2300412 0.29650828 0.14413965
0001e0 71 56 57 3d 17 70 e3 bd d4 cf 10 3e a0 2c ca bd
       0.05257267 -0.11105364 0.1414178 -0.09871793
0001f0 8f 0f 33 3e d1 7d 09 3e 39 8b 6d 3e 5c ac e8 3d
       0.17486404 0.13426901 0.2319764 0.11361
000200 bf e7 ac bd 3e 1a 6b bd 00 12 d8 3d 6b 72 08 3e
       -0.084426396 -0.057398073 0.10550308 0.13324897
000210 35 a2 f4 3c 80 3c 2d bd 4b 1f 1d 3e a6 f9 a9 bd
       0.029862503 -0.042294025 0.15343969 -0.0829957
000220 8e 05 1a bd 60 90 27 3e ab d2 2c 3e c6 d9 03 bd
       -0.037602954 0.16363668 0.16877238 -0.032190107
000230 c4 fb fb 3d 13 7e f6 3d 68 3a f4 3d 1b 92 a7 3d
       0.1230388 0.120357655 0.119252026 0.08182164
000240 f5 b2 b5 bd cd 36 86 bd 50 17 dc 3d 44 e1 d0 be
       -0.08872024 -0.06553421 0.10746634 -0.40796864
000250 f1 90 ad bd 79 48 e4 bc c9 89 ec 3d 93 d4 44 3e
       -0.08474911 -0.027866589 0.11549718 0.19221716
000260 00 a3 2d 3e 9e ad 80 3d a3 26 e7 bd 3a d8 ca be
       0.16956711 0.06283115 -0.11286666 -0.39618093
000270 c5 07 4e be af 87 af 3d ba 68 46 3e 1e 0d 3a 3d
       -0.20120151 0.085708015 0.19375888 0.045422666
000280 b2 9c 6b be 0b 53 bc bd 07 73 11 3d 7f 07 12 be
       -0.23008993 -0.09195527 0.03551009 -0.14260672
000290 7f 09 6b bc f2 50 df be bd 8b 91 bd f3 5c 37 bc
       -0.014345526 -0.43616444 -0.07106731 -0.011191594
0002a0 bd 60 bf 3d 8d 20 7e 3d a6 d2 13 3d 9b 35 3b bd
       0.09344623 0.06204276 0.036089562 -0.04570542
0002b0 6d b5 a8 bd 19 f2 86 3d 04 af 0e 3d f6 7c cc 3d
       -0.08237729 0.06589145 0.034834877 0.09984772
0002c0 01 2e 69 3e 1b ab e3 3d b7 35 ce bb e8 6f 51 bd
       0.22771455 0.1111662 -0.0062930244 -0.051132113
0002d0 8b fc ff 3d 8b 5c 86 3d e5 93 8a 3c ae e7 17 3e
       0.124993406 0.0656062 0.016916225 0.14834473
0002e0 76 c8 0a 3e b9 6c 07 3c 3d 1c b4 be 98 36 35 3e
       0.13553032 0.008265668 -0.35177794 0.17696607
0002f0 cf 34 ac bd 59 cc 4d be 40 6b 5e be b0 0c 0b 3e
       -0.0840851 -0.20097484 -0.217206 0.13579059
000300 fa ce 8b bc 37 5d ab bb 94 54 3d bd 97 5a c8 bd
       -0.017066468 -0.005229618 -0.046223238 -0.09782904
000310 31 dc 49 bd dc 8d 34 3c 8b 03 02 be 1e a8 58 3d
       -0.049282257 0.01102015 -0.12696664 0.052894704
000320 02 24 af 3d f2 83 0a be 24 89 1c be 96 35 82 3d
       0.0855179 -0.13526896 -0.1528669 0.06357877
000330 91 83 d3 3d 19 42 93 3d 29 0b d8 3d 63 e8 93 bc
       0.10327829 0.071903415 0.10549004 -0.018055147
000340 22 41 8b 3d 96 61 cd bd 5f d5 8a bd a4 7c 97 ba
       0.067995325 -0.10028379 -0.067789786 -0.0011557532
000350 10 da 27 bd 9f e1 7d bd 1e 3e 47 bd 2e 75 4b bd
       -0.040979445 -0.061982747 -0.048643224 -0.049672298
000360 a3 02 97 3d dd 03 0b be e5 1c 35 bd b3 78 9c bd
       0.0737355 -0.13575692 -0.04421701 -0.07640209
000370 38 f8 e8 3c 4f 4f 02 be fb a6 a3 3d c8 28 f0 bd
       0.028438672 -0.12725566 0.07990833 -0.117265284
000380 02 24 ed 3c a1 61 c0 3c db e5 e1 3c 15 ba 90 bb
       0.028947834 0.023484053 0.027575424 -0.004416714
000390 81 36 a9 3c bf 91 cf bd 76 3a ee 3d 0b 9b 23 3d
       0.020655872 -0.10135221 0.11632244 0.039942782
0003a0 07 e2 73 bd 04 f2 02 be 39 93 20 be 89 d4 c9 bd
       -0.05954173 -0.12787634 -0.15681161 -0.09854991
0003b0 0b 6b 86 3d af 61 bc bc b0 36 80 3d 9b 56 75 bd
       0.065633856 -0.022995798 0.06260431 -0.059897047
0003c0 b5 c8 05 3b a2 d4 d6 3d d1 e2 9f bd dd 1d 41 bd
       0.002041382 0.10489775 -0.07806934 -0.04714762
0003d0 65 94 11 be 25 91 e5 bc 88 6d 71 3d ac f2 a4 3d
       -0.14216764 -0.028023312 0.058942348 0.080540985
0003e0 81 7a f3 bd 5a 9a c9 bd 6b 50 52 3d a5 ce 75 bd
       -0.118886 -0.09843893 0.051346224 -0.060011525
0003f0 7b 2a 9f 3b 61 5c 99 3d e6 cc 4f bd 49 b9 d1 3b
       0.004857359 0.07488323 -0.050732516 0.0064002615

mlp.2.bias f4 [64]
000000 d0 f1 d5 3d 15 c9 fe 3d 42 4d 2b be 61 2a a8 3c
       0.10446513 0.12440697 -0.1672869 0.02052802
000010 b5 aa 3a bd fa 68 07 bc 7b 63 b5 3d 6b 70 dc bd
       -0.045572955 -0.008264774 0.08856865 -0.107636295
000020 47 7f b1 3c 21 b1 f2 bd 87 bd bb ba 3f 8f 53 3e
       0.021667136 -0.11850191 -0.0014323451 0.20660113
000030 26 be 09 be d4 1c 10 be 99 ed 94 3d ce 81 74 3d
       -0.13451442 -0.14073497 0.07271881 0.059694104
000040 0e d9 58 3b be 9e 73 3d 35 9f c5 bc fd 7f 87 3d
       0.003308836 0.05947756 -0.024123767 0.06616209
000050 0b 24 f4 bd 71 2e cf 3d 3e 01 31 3e 04 1e 13 3e
       -0.11920937 0.1011628 0.1728563 0.14366919
000060 22 da 0e be 94 21 28 3e 1f 10 b6 3d 01 78 26 3d
       -0.13950399 0.16419059 0.088897936 0.04064179
000070 6b 26 e5 bd b2 97 db 3c 7c cb bc 3d 41 be b1 3d
       -0.11188968 0.026805732 0.09218499 0.08678866
000080 10 7b 97 3d ce cc 6a bd 37 87 34 be d9 b4 61 bc
       0.07396519 -0.057324223 -0.17629705 -0.013776028
000090 be 91 2b 3e b2 28 6b bd dd c7 d6 3d e4 76 cd bd
       0.16754815 -0.057411857 0.1048734 -0.10032442
0000a0 40 4b 0e 3e a9 98 30 3e 3f 02 c1 bd 2b c4 bb 3d
       0.13895893 0.17245735 -0.094242565 0.091682754
0000b0 cd 7e c1 3c 19 91 90 3d 2f 1f ca 3d e0 f1 38 bd
       0.023620034 0.07058925 0.09869229 -0.045152545
0000c0 43 b3 d3 bb f8 5e bf bc 22 20 d2 bd 3f 67 f2 bd
       -0.0064605786 -0.023360714 -0.10260035 -0.11836099
0000d0 f0 b2 c3 bd 36 23 df bd 4c 99 00 bc 00 9e ac bc
       -0.09555614 -0.10895388 -0.007849049 -0.021071434
0000e0 b1 6b d3 3d 1e 92 b6 3d df 68 ea bd 0f b1 e3 3c
       0.10323275 0.089145884 -0.11445784 0.027794389
0000f0 e2 61 8b bc 27 cc 15 bd bc 01 4a 3d 76 ad c7 3d
       -0.017014448 -0.036571648 0.04931806 0.09749882

mlp.4.weight f4 [1, 64]
000000 56 d7 71 3e ac 71 4e 3e 48 e9 96 be 46 18 3b bd
       0.236173 0.2016055 -0.29474854 -0.045677446
000010 d2 cb 90 3e 74 5f 14 3e 8d f0 58 3e 8c 32 cc 3c
       0.28280503 0.14489537 0.21185513 0.024926446
000020 bc 02 0b be c5 de c7 bd 8e 0c 00 bd e2 65 17 3e
       -0.13575262 -0.09759287 -0.031261973 0.14784959
000030 18 5d a9 3e ac 54 73 3e 2c b2 41 3e 8a 8c 11 3e
       0.33078837 0.23762769 0.18915623 0.14213768
000040 11 75 19 3e 91 45 34 3e c4 3b 27 be b4 86 bc bd
       0.14986064 0.17604662 -0.16331393 -0.0920538
000050 00 19 87 3e 13 f4 64 bc 67 76 6a 3e 23 1d f0 3d
       0.2638626 -0.013974207 0.2289673 0.117243074
000060 6e 33 85 3e 09 7f 4b 3e 09 a8 4d 3e 8f d0 67 3e
       0.260158 0.19872679 0.20083632 0.22638153
000070 d8 6d a9 bd 20 4c bb bd 4e 0b 25 3e fa 79 ea be
       -0.08272904 -0.09145379 0.16117594 -0.45796186
000080 53 59 3b 3e 33 e6 83 be f6 fc 7b 3e b2 33 1c 3e
       0.18295793 -0.25761566 0.24608216 0.15254095
000090 ed 2b 26 3e 36 74 ce 3e dd f2 2a 3e c1 26 a2 bd
       0.16227694 0.40323037 0.16694207 -0.07917548
0000a0 39 5c 19 3e 0e 82 c4 3d ec 1e 48 bd 5a 90 61 bd
       0.14976586 0.095951185 -0.048857614 -0.055069305
0000b0 d3 d3 a1 3e ba c8 8f 3e 76 88 5e 3e 8b 80 2b bd
       0.31606922 0.2808283 0.21731743 -0.041870635
0000c0 da c3 3b 3e 95 e8 39 3e 50 1f 14 bd f1 93 b9 bd
       0.1833643 0.18155129 -0.036162674 -0.09061421
0000d0 3f 5d 0c bb f0 69 30 3d 3f 4a 3f 3e 08 3d 96 3e
       -0.0021417884 0.04306978 0.18680666 0.29343438
0000e0 e1 61 1a 3e 67 4c 13 3a aa 9d 89 be af 3e 26 3e
       0.150764 0.000561899 -0.268781 0.1623485
0000f0 18 f1 c6 bd 9c 18 a7 3e 8a 5c 58 bd 77 d2 1b bd
       -0.09713954 0.32635963 -0.052822627 -0.03804251
