forecasting/midroll/dnn_model/model_0_and_2.ckpt (torch, 42759 bytes, 6 tensors)

mlp.0.weight f4 [64, 90]
000000 d3 02 8c bd 7f 89 02 bd 12 57 1b bc ae 99 3a bd
       -0.06836476 -0.031869408 -0.009481208 -0.045556717
000010 34 af c8 bc 3f ac 6b bd 80 a5 85 bd 75 3c c4 3d
       -0.024497606 -0.057537314 -0.06525707 0.09581844
000020 ef 82 51 3d 2f d7 09 3e 05 91 8f bc c4 a1 af 3d
       0.05115026 0.13460992 -0.017525205 0.08575776
000030 b0 f3 d0 3c b7 7d c2 3d 83 b4 1f be 8b 4e 26 3d
       0.025506824 0.094966345 -0.15596204 0.04060225
000040 ff e6 38 3e 21 2f 89 bd 64 0b 01 3e 05 d4 08 be
       0.18056868 -0.06698442 0.12602001 -0.13362129
000050 73 53 84 bd f2 08 fb bd 0a 73 ec bd d8 47 bf bc
       -0.06461229 -0.122575656 -0.115453795 -0.023349687
000060 2d 41 d7 3c bf f9 9c 3c a1 4b b4 bb 5e 6a 98 3d
       0.026276195 0.019162057 -0.0055021797 0.07442163
000070 2c 78 22 3c 8e b4 b5 bd f7 cf b2 bc b9 20 1f be
       0.0099163465 -0.08872329 -0.021827681 -0.15539826
000080 83 27 24 bd 55 23 44 3d d1 03 5e 3d 6e 7e d2 3c
       -0.040076744 0.047885258 0.05420286 0.025695052
000090 d6 4b 23 3e 90 8b 42 bd 60 f1 1b 3d 95 b5 0c bd
       0.15946898 -0.04749638 0.03807199 -0.034352858
0000a0 ea 40 5a 3c 9e 00 77 bc 33 73 4f 3d ae 14 ac bc
       0.013321141 -0.015075831 0.050646972 -0.021005955
0000b0 65 f8 f5 bd fb 6a 62 3d 94 6d 08 bd 8e b5 ce bd
       -0.12010268 0.055277806 -0.033307627 -0.100932226
0000c0 6e dc 29 be f3 3e 58 3d 30 b6 f8 3c e3 10 03 3e
       -0.16587994 0.052794408 0.030360311 0.1279941
0000d0 50 fa 30 3d 6c f7 91 bd 3e 49 8d 3d b1 18 d4 bc
       0.043207467 -0.0712727 0.068987355 -0.02589068
0000e0 a8 b0 b1 3d 95 ef 56 3d 13 e5 5a be cd 66 a9 3c
       0.08676273 0.052474577 -0.21376447 0.020678902
0000f0 47 a8 70 bd 1a 0f a4 bd df 31 96 bd e2 30 d4 bd
       -0.05875423 -0.08010693 -0.07333731 -0.10360886
000100 c8 6d f5 bd 3b 4a 5a bc 35 f1 0a 3d 0e 38 4d 3d
       -0.1198383 -0.013323362 0.03392144 0.050102286
000110 b8 ca 14 be cf 47 80 bd 71 53 d1 bc 4d a6 f5 bc
       -0.14530456 -0.062636964 -0.025552483 -0.029986525
000120 30 c5 da bd 07 9b a7 bd 55 c5 95 bd a8 60 a6 ba
       -0.10682142 -0.08183866 -0.07313029 -0.0012693601
000130 bd 40 46 be 54 25 0b be e3 93 1c be d6 26 27 bd
       -0.19360633 -0.13588458 -0.1529079 -0.04080852
000140 b6 28 7e 3d 0a 67 ff 3d 56 e5 08 bd 1f 61 74 3d
       0.062050544 0.12470825 -0.033421837 0.059662934
000150 5e d7 c0 bd ef 2c d2 3d 57 4d 37 3e f4 79 76 3d
       -0.09416078 0.10262477 0.17900597 0.060174897
000160 d1 13 9f 3d 5e 59 97 bd 3b 8d d4 bd f2 37 11 bb
       0.077674516 -0.07390092 -0.103785 -0.002215859
000170 51 f2 94 be a8 3e 05 be 50 3f 09 bd 30 4e 07 bd
       -0.29091123 -0.13012183 -0.033507645 -0.03303355
000180 40 fe 09 3f bd 6d 03 bf cc 1e 7e 3e a8 e2 23 3d
       0.5390358 -0.5133932 0.24816436 0.040011078
000190 06 1d ff 3d 7b 62 8d bd 75 10 8e 3e 36 3c 18 be
       0.12456708 -0.06903549 0.2774693 -0.14866719
0001a0 2f ac 96 3d 50 79 72 be 3a fa e2 bd ce d8 2f bd
       0.0735706 -0.2367909 -0.11082883 -0.04293137
0001b0 7a d5 7c 3f 7a d0 23 bd 54 90 41 3f e1 7e 7e be
       0.9876324 -0.03999374 0.7561085 -0.24853088
0001c0 ff e1 5a bb d3 6d 19 3e dc de 23 be ba 0e af be
       -0.0033398864 0.14983301 -0.16002983 -0.34190923
0001d0 dd 9d 50 3e e8 d0 ce 3e ad 41 f5 be 45 e4 b1 be
       0.2037272 0.40393758 -0.4790167 -0.34744468
0001e0 4e 0f ae be 58 af 5c be 39 1e 57 3e 1a 4c e3 3e
       -0.33996052 -0.21551263 0.21007623 0.44393998
0001f0 6e c6 52 be 9f 6f fe bd c0 b4 19 be 69 64 68 be
       -0.20583507 -0.12423634 -0.15010357 -0.22694553
000200 86 bc 0d be b8 8a dd 3d b0 23 67 bd 39 99 b7 3e
       -0.13841447 0.10817474 -0.05643052 0.35859087
000210 d7 05 67 be 74 1e 18 bc 75 9b 8b be f7 93 4e be
       -0.22560821 -0.009284604 -0.27267042 -0.20173632
000220 73 7d d0 3d 28 16 8d be b2 65 00 bc 0a 39 62 3e
       0.101801775 -0.27555966 -0.007836746 0.22092071
000230 7b 21 48 be ae 0e 01 bc 7c cc 42 be 6c 89 bf be
       -0.19544022 -0.007877035 -0.19023317 -0.37409532
000240 08 50 38 3e 09 3a b9 be 58 75 f8 3e 09 b0 08 3f
       0.1799928 -0.3617709 0.48527026 0.5339361
000250 e2 39 de 3e 51 c7 98 be 01 ea c2 3d 51 12 99 3e
       0.43403536 -0.29839566 0.09517289 0.29896787
000260 3d 3a 28 3f 18 42 05 3e 1d 6a 9c 3e 9e cb e4 be
       0.65713865 0.13013494 0.30549708 -0.44686598
000270 f0 d2 f9 3d 53 4c d7 bd e5 f2 00 bf 03 03 a2 bd
       0.12198436 -0.105126046 -0.5037063 -0.07910731
000280 ff bb 82 be 8a 7b 82 bc 55 7a 47 bd 84 4b d9 bd
       -0.25534055 -0.015928049 -0.04870065 -0.106101066
000290 d1 da 5a bc 7f 30 47 3e f6 d3 41 3e 0b 4c 26 3e
       -0.013357834 0.19452094 0.18928513 0.16239946
0002a0 87 ec ac bd 87 fc 83 3e 94 8b 5e be 06 32 ef 3d
       -0.084435515 0.257786 -0.21732932 0.11679463
0002b0 30 71 8c 3d cc 95 96 3e fe ea 11 bc d9 92 11 3d
       0.06857526 0.2941116 -0.008906124 0.035540435
0002c0 1f 23 b4 3e 61 1b 64 be 66 c4 06 3e d5 8d c5 be
       0.35183045 -0.22276069 0.13160858 -0.38584772
0002d0 15 5f dc 3d ef 09 2c be 34 0c 48 bc 87 8f 2a 3d
       0.10760323 -0.16800664 -0.012209941 0.041640785
0002e0 0b 59 16 be 15 fa d4 3d 80 7f 2e bd 4b 53 b8 3e
       -0.14682405 0.10399262 -0.042602062 0.36001047
0002f0 39 6b be 3e 58 9c 5d 3f 7d f7 b3 3d d9 f3 5a 3f
       0.3719118 0.86566687 0.08787439 0.8552833
000300 01 fd b0 be a0 cd c6 3e 05 dd 16 3e 7b 00 34 3f
       -0.34568027 0.38828754 0.1473275 0.70313233
000310 e8 fd ff 3d c3 c8 ad bd 7a 97 e5 3c 77 d1 16 3e
       0.12499601 -0.08485558 0.028026331 0.14728342
000320 91 72 4e 3e 5f 9d 35 3d 99 81 26 3e d4 ec 64 3e
       0.20160891 0.044339534 0.16260375 0.22355968
000330 1d dd 3f 3e 26 6a 60 3e f3 31 3b be be 11 56 be
       0.18736692 0.21915492 -0.18280773 -0.20905206
000340 ec b0 6d 3f a5 fa 47 3f 22 02 15 bf da f6 db bd
       0.92848086 0.7811683 -0.5820638 -0.107404426
000350 fe d9 92 3e f0 0c 2f 3f ff fd 5a be 8e 8f b2 bd
       0.2868194 0.68379116 -0.21385954 -0.08718787
000360 05 97 78 3c 17 0a 32 be 58 86 01 be 5c bf 30 be
       0.015172725 -0.17386661 -0.12648904 -0.17260498
000370 02 9a 99 bc 98 bd 4b bb 6d 5c 60 3e 6c 8a 2d 3e
       -0.018750194 -0.0031088348 0.21910258 0.16947335
000380 71 01 ba 3d 0c c2 db 3d 00 30 dc bd 17 1e 5a 3e
       0.09082306 0.10730371 -0.10751343 0.21300541
000390 38 d9 19 3e 02 c5 72 be b3 87 11 3f 4b df 54 3e
       0.15024269 -0.23707965 0.56847686 0.20788305
0003a0 fc 1a 98 be 8c 73 0a 3f d0 da 21 3d ef 31 65 3e
       -0.29708087 0.5408256 0.039515316 0.2238233
0003b0 a8 b4 0f 3e f3 6d 80 be 6c 96 bf 3e dd 8b 36 be
       0.14033759 -0.25083885 0.3741945 -0.17826791
0003c0 c2 6d 17 3d 8d 0d e2 3e 18 b0 cd 3e d4 26 65 3e
       0.036969908 0.44150963 0.4017341 0.22378093
0003d0 14 68 80 3e a0 72 d0 bd ec f1 60 be 2c 76 22 be
       0.25079405 -0.10178113 -0.21967286 -0.15865391
0003e0 24 8e f5 3d 0d 4f 4e 3c 76 92 75 3e cb 47 9a be
       0.11990002 0.012592089 0.23981652 -0.301329
0003f0 05 a9 83 3e 37 c2 62 be 02 6d 30 be f8 e0 59 3e
       0.2571489 -0.221444 -0.17229083 0.21277225

mlp.0.bias f4 [64]
000000 04 74 13 bc ab a3 8a bd c5 a2 a1 3d 39 43 25 be
       -0.008999828 -0.067694984 0.07892374 -0.16138925
000010 90 f3 05 3d 01 d1 2f bd 33 97 17 bd a9 a7 44 3d
       0.032702982 -0.04292393 -0.03700943 0.048011456
000020 26 3c 5b be 45 34 05 be 9e a3 07 be b8 9a a6 bd
       -0.21409664 -0.1300822 -0.13246009 -0.08134979
000030 9b 08 87 bd f9 13 fd bb ca 15 03 bb 0f 95 0f be
       -0.06593438 -0.007723328 -0.0020002 -0.14021705
000040 5a 0f 28 be 8c 54 64 bd ab 35 9d bd c2 3b be bd
       -0.16412106 -0.055744693 -0.07676252 -0.09288742
000050 61 47 0c be 30 97 34 be 03 8d a7 bd c0 cd d3 3c
       -0.13699104 -0.17635798 -0.08181193 0.025854945
000060 54 82 f7 bd fb 0d b5 bd c4 4b 6e bd 5f d9 14 be
       -0.12085405 -0.08840557 -0.058177724 -0.14536045
000070 5d f4 1f be 2e 3d ae bd ae 2a 59 3c fe 66 0d be
       -0.15620561 -0.08507763 0.013254805 -0.1380882
000080 ce e4 f9 bd 2e 10 21 be de 07 54 3c 90 85 c3 bd
       -0.12201844 -0.15728828 0.012941329 -0.095469594
000090 e9 62 ca bd 7b ad 09 be 2e 2b f3 bc e7 2d 16 bc
       -0.09882147 -0.13445084 -0.029683676 -0.009166217
0000a0 c6 45 43 be 41 98 8f 3b ad fe 4f bc 37 ab 11 be
       -0.19069585 0.0043821638 -0.012694997 -0.1422547
0000b0 9c 99 b3 bc 3e 50 18 be b1 d4 d5 bd 75 2a 6c 3b
       -0.021923833 -0.1487436 -0.10440958 0.0036036049
0000c0 d8 47 59 bd 90 dc 44 3d ac 27 4e be f6 d5 28 bd
       -0.05304703 0.048061907 -0.20132321 -0.041219674
0000d0 96 62 0c be c3 75 14 be eb 89 24 be 00 d4 34 bd
       -0.13709483 -0.14498048 -0.16068237 -0.04414749
0000e0 13 44 c3 bd 25 1a 5a 3c df 96 65 bd ee a7 aa 3b
       -0.095344685 0.013311897 -0.056052085 0.005208007
0000f0 eb a9 65 bc 09 b1 db bd f9 2d 31 bc 1c 44 21 be
       -0.014017562 -0.10727126 -0.010814183 -0.15748638

mlp.2.weight f4 [64, 64]
000000 48 a5 2b 3d f3 65 12 3d 60 b9 7a 3d 26 d2 e3 3d
       0.04190567 0.035741758 0.061211944 0.11124067
000010 dd 4a 35 be 10 1f 2a be 60 11 03 bb 13 41 25 bd
       -0.1770434 -0.16613412 -0.001999937 -0.040345263
000020 22 a0 bb 3c 8c 1e 19 3b 28 6c dd 3d d2 e8 c7 bd
       0.022903506 0.0023364155 0.10811645 -0.09761204
000030 84 6e 47 bd 92 85 29 3d 10 fe 77 bd 58 2e db 3c
       -0.04868938 0.04138715 -0.060545027 0.026755497
000040 a9 c2 67 be be 18 9d 3b a8 12 2d bd bc 6f eb bd
       -0.2263285 0.0047942093 -0.04225412 -0.11495921
000050 c2 27 bc be bb 08 a4 bd d3 6c 13 be 09 d1 30 be
       -0.36749083 -0.08009478 -0.14396982 -0.1726724
000060 56 b2 df 3d d4 7e ef bd 49 c2 d1 bd 9c d3 c7 bd
       0.10922687 -0.116941124 -0.10242135 -0.09757158
000070 b1 ae 36 be 78 63 5d bd 15 d3 09 be 3d 6c 2b 3d
       -0.17840077 -0.05404994 -0.13459428 0.04185127
000080 3f fd 36 be b2 6b e4 bd 97 38 5b be eb 04 c5 bb
       -0.17870043 -0.11153354 -0.21408306 -0.006012549
000090 a0 2d 08 3c dd 68 63 be bc 02 c2 3d 4a c3 ea bd
       0.008311659 -0.22207971 0.09473178 -0.1146303
0000a0 fb 29 10 be 98 22 90 bd 4b 46 a9 bd 9d ee 35 be
       -0.14078514 -0.07037848 -0.082653604 -0.17766805
0000b0 29 a9 f6 bb 46 ac ec bd cd 50 05 3d b0 ff 2e be
       -0.0075274897 -0.11556296 0.03254776 -0.17089725
0000c0 c0 20 08 3c e7 dd d9 bd cd 0f 32 be 06 a6 9b bd
       0.008308589 -0.10638028 -0.1738884 -0.07600026
0000d0 f6 45 f1 bd 1e a9 c8 3a af 6e 5f be 26 ab 78 3d
       -0.11780922 0.001530919 -0.21819566 0.060710095
0000e0 28 b3 33 3d 7c 33 da bc d1 f7 de bd 00 6e 63 3c
       0.04387203 -0.026635878 -0.10887111 0.0138812065
0000f0 29 27 1f be cc 27 e6 bd f5 2c 2f bd 99 b6 73 bd
       -0.15542282 -0.112380594 -0.042767484 -0.05950031
000100 b3 e6 48 bd 12 7f b8 bd 84 89 7b bd 2a 50 c9 bb
       -0.049048137 -0.09008612 -0.061410442 -0.0061435895
000110 e9 e4 29 bb de 8a 49 bd 01 e1 56 bd 6e 3a a2 be
       -0.0025923795 -0.0492047 -0.052460674 -0.31685203
000120 bb f8 3a 3e 94 78 10 be 92 b2 89 3d 00 c4 34 3e
       0.18258946 -0.14108497 0.06723513 0.17652893
000130 ae c2 ad bd 6d b0 cf 3d 31 90 79 bb be ed 5b bb
       -0.08484398 0.101410724 -0.003808033 -0.0033558453
000140 82 cc a5 ba 01 5b e4 bc 62 c8 b4 3d e8 4c 18 3e
       -0.0012649449 -0.027875425 0.088272825 0.14873087
000150 d6 d0 ef 3c bf 3e b1 bd 66 85 af be 0d b5 60 3d
       0.029274385 -0.08654546 -0.34281462 0.054860163
000160 9d c0 bf 3b 2a de fc bc 3d 21 ef 3d 8f 03 25 be
       0.0058518187 -0.030867655 0.116762616 -0.16114639
000170 c7 a4 a5 3d dd 8b 07 3e a8 44 a5 3d 3e f6 17 3e
       0.080880694 0.13236947 0.08069736 0.14840028
000180 8e fc 04 3c 01 91 95 bd 29 b5 35 bd 9b 76 5e 3c
       0.008116854 -0.07303048 -0.04436222 0.013578082
000190 4d 49 c6 bc 68 a1 1d be c3 58 99 3b de 2e 9a 3d
       -0.024204874 -0.15393603 0.0046797707 0.075284705
0001a0 e1 89 10 3b 7d 19 52 bc c8 4a c1 bc ff d0 7b bb
       0.0022054838 -0.01282346 -0.023595229 -0.0038424132
0001b0 93 b3 01 3e 93 d6 d4 3d af d2 be 3b 16 9a 7d 3c
       0.12666158 0.10392489 0.0058234553 0.0154786315
0001c0 9e 1c e9 bd f3 03 d5 3d 68 13 20 bd 0b 7b ee bc
       -0.113824114 0.10401144 -0.039081007 -0.029111406
0001d0 88 b2 29 3d a8 9f 9c 3d ff 89 bc be da e2 c8 3c
       0.041430026 0.076476395 -0.36824033 0.024522234
0001e0 0e 08 54 3d 32 9c 81 3c ba 37 55 bd 83 52 98 bd
       0.051765494 0.01582155 -0.052055098 -0.07437613
0001f0 e1 ef b3 bc 84 80 72 3d ec d1 6e 3d 3b a6 0b bd
       -0.02196497 0.059204593 0.058305666 -0.034094077
000200 ef dd b2 bc ab 3e 5e 3d 83 bc c9 3d d4 fe 0d be
       -0.021834342 0.054258984 0.09850409 -0.1386674
000210 87 be e7 bd e5 36 78 3d 70 8b e1 bb 5c f3 42 bd
       -0.11315637 0.060599227 -0.0068830773 -0.047595367
000220 d3 8f df bd ff 33 cd be 2f e0 15 be 2e 8d fa bd
       -0.10916104 -0.40078732 -0.146363 -0.12233959
000230 a3 98 93 3d fd 4a 94 bd 0f c9 25 be 50 54 ce 3c
       0.072068475 -0.072408654 -0.16189979 0.025186688
000240 2d 16 a2 be a5 78 46 3d fb 8e 17 be 74 8f 24 b9
       -0.31657544 0.0484549 -0.14800636 -0.00015693699
000250 25 44 74 3c f0 9b b6 bc 38 68 c9 3d 23 96 d5 bd
       0.014908825 -0.022291154 0.09834331 -0.10429027
000260 46 4c 8d 3d df 33 fe bc 5b ec 07 be d0 e3 23 3c
       0.06899314 -0.031030593 -0.13273756 0.010003045
000270 44 8a 84 3b d5 8b c0 bd b4 84 5e be 60 74 a6 bd
       0.004044803 -0.09401671 -0.2173031 -0.081276655
000280 6b d7 d2 bd 50 f1 55 3c bd 2e f3 bc dd 3d 78 bd
       -0.10294994 0.013058022 -0.029685372 -0.060605872
000290 99 95 b7 bb 51 5f 78 bd 0a 13 16 be d5 78 0e be
       -0.00560255 -0.060637776 -0.146557 -0.13913281
0002a0 ac c3 ef bd 24 5d 64 bd db 38 a2 bc 6d 46 5c bd
       -0.11707243 -0.05575289 -0.019802501 -0.0537781
0002b0 bb 7d e4 bd 5c 90 2b be 57 7b 4a bc 44 67 58 be
       -0.11156794 -0.16754287 -0.012358508 -0.21133143
0002c0 38 fc 04 be 38 82 e7 bd 65 6b 87 3c ab a8 4a bd
       -0.12986839 -0.11304134 0.016530702 -0.04947726
0002d0 e0 11 34 be f0 f5 32 be d1 aa 07 bd 30 27 b5 bd
       -0.17584944 -0.1747663 -0.033121888 -0.08845365
0002e0 03 13 93 bc 0a 79 01 3d e5 d0 c6 bd a7 ee 9a 3d
       -0.017953401 0.031609572 -0.09707812 0.075650506
0002f0 7c c8 ad bd 66 1b 02 bc 54 12 68 3d d8 bb 3a be
       -0.08485505 -0.007941103 0.056658104 -0.18235719
000300 30 cd 0a be d5 a1 35 be cf bd 80 be 19 3a a6 bd
       -0.13554835 -0.17737515 -0.25144812 -0.0811655
000310 44 ca 2d 3d b0 20 de bd 21 2d df bd d7 b6 98 bd
       0.042429224 -0.108460784 -0.108972795 -0.07456749
000320 76 54 8d be bc 05 80 be d3 75 02 be a0 a7 78 3d
       -0.276035 -0.25004375 -0.12740259 0.060706735
000330 4a c2 4d be cc 73 94 bd 73 4b 93 bd b6 c5 77 3d
       -0.20093647 -0.07248649 -0.07192125 0.060491286
000340 66 e2 cf be ab d6 63 3d 73 13 0e be 7f 83 19 be
       -0.40602416 0.055624645 -0.13874607 -0.14991568
000350 e7 b8 9a be a6 87 a2 bd c5 31 3c be d1 9d 42 be
       -0.30219194 -0.07936029 -0.1837836 -0.19005515
000360 d0 f6 97 bd 39 c3 88 3d 4d 9a 8a 3c 00 b3 af ba
       -0.074201226 0.06677861 0.01691928 -0.0013404787
000370 be 5e 6e bc 67 f7 f0 bd 1b 0f 32 be d1 7d 8a bd
       -0.0145489555 -0.11765938 -0.17388575 -0.06762279
000380 49 bc 32 3d d0 3f 59 bc 1a c8 a6 be 61 ba 4f bd
       0.043636594 -0.013259843 -0.3257454 -0.050714854
000390 e9 5f 70 3d 9d c1 a0 bd 96 01 37 be 5c e8 95 bc
       0.058685217 -0.07849429 -0.17871699 -0.018299274
0003a0 f5 04 3f be 8b 00 8c bc c0 f5 2b be 73 66 c6 bd
       -0.18654235 -0.017090103 -0.16792965 -0.096875094
0003b0 a7 85 69 bd f8 4f 0e bd 6b a7 0d 3d fc 23 05 be
       -0.057012226 -0.034744233 0.03458349 -0.13002008
0003c0 fe ba 4d bc fd eb f1 bd ec 80 a5 bd 02 cc a5 be
       -0.012556789 -0.11812589 -0.080812305 -0.32382208
0003d0 70 7c df bd 64 f9 5e be 02 6d 9b be 21 73 2f 3d
       -0.109124064 -0.21774822 -0.30356604 0.042834405
0003e0 ec 0b 08 be d1 f5 02 be 52 20 79 3d 9c 06 b0 bd
       -0.13285798 -0.12789084 0.06082184 -0.08595011
0003f0 32 f6 d8 bd 0d 8e 64 3d 68 07 14 bd 1e e9 3c bd
       -0.10593833 0.055799533 -0.036139876 -0.046120755

mlp.2.bias f4 [64]
000000 5a e2 c0 be 9c 28 4b 3e ec 6c f3 bd 45 29 08 bd
       -0.37672693 0.1983971 -0.118860096 -0.033242483
000010 9a a0 5b 3d 03 0e 77 3c fd fe bb 3d 3e 2e 16 be
       0.05361996 0.015079024 0.091794945 -0.14666077
000020 5b e7 4c 3e bb 37 6a 3e f9 1a fd 3d e7 c8 14 bd
       0.2001013 0.22872822 0.1235866 -0.036324408
000030 8e 8d d8 bd cd 58 08 bd 9e db f7 bd f0 ff 5c 3e
       -0.105738744 -0.033287812 -0.121024355 0.21582007
000040 dc c7 f4 bd 13 c8 92 be f7 33 79 be 2e 1c a9 3d
       -0.11952183 -0.2866827 -0.2433623 0.08257328
000050 a1 5f 22 be 67 9a b3 be 2e ac ae bb 9a 06 7f 3d
       -0.15856792 -0.35078737 -0.005330584 0.062262155
000060 7d 9c f9 bd 8b dc 8e bd be f2 03 be 3a 59 d5 bd
       -0.12188051 -0.06975659 -0.12885568 -0.10417409
000070 c3 b8 0c bd 39 30 76 be 50 79 8f be dd 26 2a bc
       -0.03435589 -0.24041833 -0.28022242 -0.010385242
000080 0d b6 39 3e df 4d 81 3e 73 3d 9c bd f4 12 3c bd
       0.18135853 0.25254723 -0.07628908 -0.045916513
000090 de 9b 6a bd eb b0 08 3e 29 0d 12 be 46 26 9d be
       -0.057277553 0.13348739 -0.14262833 -0.30693263
0000a0 87 61 7a bc 49 4f 4e be 66 77 2f 3e 0b 92 fe bd
       -0.015282041 -0.20147432 0.1713539 -0.12430199
0000b0 39 85 aa bb a5 c1 ad 3e 97 45 92 3d 5b 72 1a bd
       -0.0052038697 0.33936802 0.071421795 -0.037706714
0000c0 32 3a b1 bd 38 94 a2 ba 62 92 4f bc 40 2c 8a 3e
       -0.08653678 -0.0012403792 -0.012669178 0.26986885
0000d0 a9 3e 23 bd 53 16 98 be a3 e1 df 3d 58 98 4e be
       -0.03985468 -0.29704532 0.10931709 -0.20175302
0000e0 39 9a 33 be 9f ad ee bd c5 f4 06 3e e2 64 8b bd
       -0.175393 -0.11654209 0.1317931 -0.06806351
0000f0 4e 07 7e bc 06 29 b3 be a7 70 91 bd 96 fd bd bd
       -0.015504671 -0.34992236 -0.07101565 -0.09276883

mlp.4.weight f4 [2, 64]
000000 08 ea d0 bd cc 6d ab bd 58 47 b2 3a 2e 2a 85 3d
       -0.10200888 -0.083705515 0.0013601584 0.06502186
000010 58 81 f5 3c 31 c8 7e bd c2 16 97 3d 9c a2 cd bc
       0.029968902 -0.062202636 0.073773876 -0.025101952
000020 cb 2e 75 bd a2 d1 0b bd c2 90 3a bc e7 80 d6 3d
       -0.05985908 -0.03413547 -0.011387052 0.10473805
000030 71 6f 3f bd e5 38 3a 3d b2 26 03 3e 62 74 25 3e
       -0.04673714 0.045464415 0.1280773 0.16157678
000040 c2 bb 39 be 2c 14 27 3e 78 7f f6 3d b1 5f 4f bc
       -0.1813803 0.16316289 0.120360315 -0.012657092
000050 d3 36 96 bd 95 c0 c1 3c 17 fb 5e bb da 45 81 bd
       -0.07334676 0.0236514 -0.0034024173 -0.06312151
000060 53 ce 3e 3d 14 23 49 3d 3c e2 e8 bd d9 44 b6 3d
       0.046583485 0.04910572 -0.11371276 0.088998504
000070 95 ce be 3d 21 6e 08 3d 0e 5d 81 bd aa 5c a1 bd
       0.09316746 0.033308152 -0.06316577 -0.078790024
000080 38 a6 34 bd cc d4 62 bd 0b 96 ab 3d 43 a6 aa 3c
       -0.04410383 -0.05537872 0.08378228 0.020831233
000090 af d1 51 3c e9 43 3f bd 2a c2 a9 3c be c0 82 3c
       0.01280634 -0.046695624 0.020722467 0.015961047
0000a0 f5 04 31 bd 5a 62 19 bd 02 6e 3c bd bb 7d 14 3d
       -0.043217618 -0.03744731 -0.04600335 0.03625272
0000b0 4e 96 ff 3c 3a 80 26 bd 70 98 9e 3d 62 30 4f 3c
       0.0311996 -0.04064963 0.07743919 0.012645813
0000c0 ec d5 5a bd 98 78 47 bc a1 41 c1 bb aa e7 9c 3d
       -0.053426668 -0.012174748 -0.005897716 0.07661374
0000d0 90 ee 7e 3a 76 d1 cf bd 1e db 9a bc a9 81 d9 3d
       0.00097248796 -0.101473734 -0.018903311 0.10620434
0000e0 b5 3c 7e 3e af 7d d8 3c 81 0c 87 3d 1f 81 24 3d
       0.24827845 0.026427118 0.06594182 0.040162202
0000f0 34 ec 1a be 26 86 cd 3d ec c2 74 3d f8 85 4a bd
       -0.15129167 0.100353524 0.059756204 -0.04944417
000100 48 73 89 bb fe 31 fe 3d a0 ea 35 3c 69 09 35 3c
       -0.004194651 0.12411879 0.011103302 0.011049607
000110 fc d2 fc b9 cb 15 08 3d d2 9e a1 3d 90 a3 86 3d
       -0.0004822238 0.03322391 0.07891621 0.06574166
000120 81 33 d7 3d 0f 6b 03 3e ef 47 d2 3c a3 fb a9 3c
       0.105078705 0.12833808 0.025669066 0.020749873
000130 3a 94 6c bd 83 88 2c 3d 9b 07 81 3a c2 62 5a 3e
       -0.057758547 0.042122375 0.0009844186 0.21326736
000140 0d 5d 9b be c0 49 a5 3d de a0 55 3d 2e e1 45 3d
       -0.3034443 0.08070707 0.052155368 0.04831045
000150 48 14 0f bc 61 1e c7 3d 4e e2 26 3d 88 da ba 3c
       -0.008732863 0.09722591 0.040743165 0.022809282
000160 25 11 44 3c 02 5a cd bc 2f 9c 2d be d2 20 08 3a
       0.011966978 -0.025067333 -0.1695411 0.0005192879
000170 4b 00 82 bb 5c ab 82 bd ed 7f 50 bd cb f8 2c 3d
       -0.00396732 -0.063803405 -0.05090325 0.042229455
000180 3c 18 a6 3d 8e 1b 17 3e fc 21 ac 3d 35 4b 42 bc
       0.08110091 0.14756605 0.084049195 -0.011858751
000190 e8 a5 87 3d 21 b6 a5 3c a3 99 1e 3d 03 4f 4c 3e
       0.06623441 0.020228447 0.03872074 0.19952016
0001a0 fc a0 2b bc 87 06 89 be 4e 22 d1 3d aa 01 cd bc
       -0.010475393 -0.26762792 0.10211621 -0.025025208
0001b0 bc 53 c5 3b d9 c3 3f be 74 ae c4 bd f3 84 11 bc
       0.006021945 -0.18727054 -0.09603587 -0.008881795
0001c0 e7 80 48 bb 88 f3 57 bd 5b 22 9d 3d af d4 0d 3e
       -0.003059441 -0.052722484 0.076725684 0.13850664
0001d0 14 96 18 bb 7c 9a 59 3d 93 00 07 be 0b 45 74 bc
       -0.0023282813 0.053125843 -0.13183813 -0.014909039
0001e0 2b f0 9a bd 5a b9 b2 bb 1d 6f 9b 3d 94 c8 a8 bc
       -0.0756534 -0.0054542245 0.075895526 -0.020603456
0001f0 d1 80 f1 bd e3 99 d4 bc bf c9 b4 bc ce 6b f2 bb
       -0.11792148 -0.025952285 -0.022068856 -0.007398105

mlp.4.bias f4 [2]
000000 ef 61 e1 3d 5a b7 62 3e
       0.110050075 0.22140256
