forecasting/midroll/dnn_model/model.ckpt (torch, 42823 bytes, 6 tensors)

mlp.0.weight f4 [64, 90]
-0.1765873 -0.123789825 -0.0053011277 0.0615806 0.061602134 0.051970497 -0.29562557 0.15055902
-0.20425156 -0.20482558 -0.010384589 0.02754821 -0.2064937 -0.011644453 -0.035625223 -0.17963777
0.14765635 0.00011176651 0.050623484 -0.17024086 -0.16893241 0.04235618 0.14725614 0.05932858
-0.0040188506 0.07766313 -0.08859078 -0.16051997 -0.044939827 0.093967915 0.062771104 0.09186989
0.23791465 -0.3050852 -0.07652183 0.04357912 0.14435749 -0.0003650777 0.31761104 -0.18097356
-0.027938781 0.16372418 -0.12958737 -0.12335712 0.15863885 0.17718995 0.025675645 -0.034056876
-0.12956274 0.29732993 0.006774755 -0.26143277 -0.0005545656 -0.121409975 0.07562911 -0.09376328
0.1200514 0.076233536 -0.124587685 0.0535684 0.09413715 0.037130702 0.096132025 0.01806201
-0.083843224 -0.04475833 0.06240058 0.14259137 -0.07923482 -0.06268456 0.048931524 0.13432391
-0.012377091 0.14966655 0.04531918 0.017350078 0.06217669 0.20028229 -0.17949924 -0.2392771
-0.16202165 0.05711657 0.06910371 0.09732276 -0.08023646 -0.19536944 -0.14999065 0.0063215257
-0.22585352 0.22349267 -0.32635725 -0.09113366 0.06225734 0.29136544 0.1659284 0.44227338
-0.11975872 0.036733884 -0.10149219 0.053811714 -0.05416735 0.03944785 0.18354484 0.38542682
0.07725724 -0.28536427 -0.42937145 -0.29006344 0.04649037 -0.13111931 0.029372806 -0.13217156
-0.0036983935 -0.08722465 0.09718764 -0.30026272 0.2733561 -0.17283076 -0.17013994 -0.03717662
-0.061146956 -0.05925519 0.14026268 -0.3408728 0.07866232 -0.032849282 0.35055047 -0.08413663
0.06514203 -0.09385041 -0.08663161 -0.13318458 -0.07171303 0.09570803 0.06369508 -0.20191707
-0.0968022 0.1540197 -0.23515466 0.1590628 0.08959775 -0.15068166 0.23719394 0.160234
0.19155851 -0.1156546 -0.18013881 0.14496826 -0.028175471 -0.040332016 -0.14944737 0.15179294
-0.01590028 -0.19226573 0.013933341 0.092615575 -0.010331487 0.15162528 -0.23374632 0.3240157
-0.019282825 -0.06784746 0.056245342 0.085530356 -0.024235006 0.0016522771 0.031053023 0.03819813
0.0925301 -0.14223777 0.07970993 -0.17610443 -0.07809588 0.10825181 -0.057000894 0.04318625
0.13075411 -0.070432246 -0.19628698 0.1806729 0.41226178 0.08854879 -0.003779203 -0.30178183
-0.062434077 -0.3558952 -0.21743502 0.051085424 -0.13166185 0.07396262 -0.061822876 0.1691855
0.04925349 -0.14903906 0.16692814 0.2931604 -0.04062236 0.21545675 0.024890145 -0.013115156
0.031086043 -0.14132257 0.16612113 -0.0296715 0.032441307 -0.38151136 0.5450255 -0.30170852
-0.2521997 -0.40271366 0.024102034 0.12950552 0.015875664 0.046736073 -0.08073603 0.05910029
-0.05746677 -0.102120936 -0.31938535 -0.042203613 0.006789847 -0.18976054 -0.0410565 -0.122889146
-0.025837412 0.1012849 0.061498724 0.032193825 0.17436808 -0.18332754 -0.13050562 0.2339075
-0.25213942 -0.19080436 0.027332583 0.05840205 0.019280791 -0.12133036 0.09918741 -0.0314942
-0.12292494 0.0822205 0.15098892 0.032621887 -0.025678508 0.14156146 -0.012497201 0.11137789
-0.1158178 0.0829456 -0.013835875 0.110247836 0.10976645 0.010014645 -0.054441396 -0.14563261
00000000: 4dd3 34be 8585 fdbd 15b5 adbb f03b 7c3d
00000010: 8552 7c3d 04df 543d 3c5c 97be 252c 1a3e
00000020: 5227 51be ccbd 51be 2024 2abc c9ac e13c
00000030: 1673 53be 60c8 3ebc c1eb 11bd f7f2 37be
00000040: 3a33 173e 3064 ea38 925a 4f3d 9f53 2ebe
00000050: 9efc 2cbe ac7d 2d3d 50ca 163e 8602 733d
00000060: 90b0 83bb d90d 9f3d 156f b5bd 595f 24be
00000070: d312 38bd 4072 c03d 238e 803d 4826 bc3d
00000080: e69f 733e 2134 9cbe 7ab7 9cbd 0580 323d
00000090: 73d2 133e e667 bfb9 ea9d a23e 2251 39be
000000a0: dfdf e4bc 50a7 273e 8db2 04be a8a2 fcbd
000000b0: 3972 223e 4871 353e bb55 d23c 397f 0bbd
000000c0: 18ac 04be a13b 983e c4fe dd3b 84da 85be
000000d0: 4460 11ba cba5 f8bd 6fe3 9a3d f606 c0bd
000000e0: 82dd f53d 5420 9c3d d427 ffbd 8a6a 5b3d
000000f0: faca c03d 5d16 183d dee0 c43d c8f6 933c
00000100: ffb5 abbd 8354 37bd c097 7f3d 7903 123e
00000110: de45 a2bd c360 80bd 6c6c 483d 358c 093e
00000120: 48c9 4abc 3042 193e 9ba0 393d c021 8e3c
00000130: fcac 7e3d cd16 4d3e a6ce 37be 0e05 75be
00000140: 01e9 25be 11f3 693d 3f86 8d3d 2851 c73d
00000150: 0353 a4bd ed0e 48be 2697 19be cd24 cf3b
00000160: 2546 67be 43db 643e 4c18 a7be 49a4 babd
00000170: 8d01 7f3d da2d 953e 22e9 293e a871 e23e
00000180: 0f44 f5bd 4576 163d 23db cfbd ac69 5c3d
00000190: 95de 5dbd 1294 213d 2ef3 3b3e aa56 c53e
000001a0: 0b39 9e3d 441b 92be 93d6 dbbe 3283 94be
000001b0: b06c 3e3d 2444 06be 3d9f f03c fb57 07be
000001c0: bf60 72bb d6a2 b2bd 500a c73d 09bc 99be
000001d0: 55f5 8b3e 8cfa 30be 2a39 2ebe 8346 18bd
000001e0: 3b75 7abd 92b5 72bd 05a1 0f3e e186 aebe
000001f0: b619 a13d f88c 06bd 5a7b b33e d34f acbd
00000200: 2f69 853d a534 c0bd ea6b b1bd 8a61 08be
00000210: 48de 92bd 9202 c43d 9172 823d 59c3 4ebe
00000220: 3b40 c6bd 57b7 1d3e 62cc 70be 5ce1 223e
00000230: 067f b73d 4b4c 1abe f8e2 723e 6214 243e
00000240: ea27 443e 52dc ecbd 4f76 38be 8f72 143e
00000250: 3fd0 e6bc 2f33 25bd bb08 19be 9c6f 1b3e
00000260: 4e41 82bc 4fe1 44be ab48 643c 3cad bd3d
00000270: 6645 29bc a843 1b3e 325b 6fbe 63e5 a53e
00000280: 04f7 9dbc 9cf3 8abd 8461 663d 8a2a af3d
00000290: 7e88 c6bc 3891 d83a e962 fe3c a475 1c3d
000002a0: 6c80 bd3d c7a6 11be f63e a33d b854 34be
000002b0: bcf0 9fbd 20b3 dd3d c579 69bd 11e4 303d
000002c0: 68e4 053e c83e 90bd 74ff 48be 5102 393e
000002d0: fa13 d33e 1159 b53d 81ac 77bb 2683 9abe
000002e0: e0ba 7fbd e537 b6be 49a7 5ebe f33e 513d
000002f0: 5dd2 06be b779 973d fc39 7dbd f73e 2d3e
00000300: 07be 493d b29d 18be 36ef 2a3e 1f19 963e
00000310: a263 26bd b2a0 5c3e 6be6 cb3c f4e0 56bc
00000320: 28a8 fe3c ddb6 10be a81b 2a3e a511 f3bc
00000330: 2de1 043d 7555 c3be cb86 0b3f 8a79 9abe
00000340: 5220 81be 7c30 cebe a171 c53c 189d 043e
00000350: ae0d 823c 536e 3f3d ef58 a5bd 2513 723d
00000360: 4762 6bbd c824 d1bd 7a86 a3be b2dd 2cbd
00000370: 5d7d de3b 9650 42be dc2a 28bd 4ead fbbd
00000380: fba8 d3bc 756e cf3d 16e6 7b3d acdd 033d
00000390: 8c8d 323e 37ba 3bbe 44a3 05be 7385 6f3e
000003a0: 6b18 81be 3862 43be 95e8 df3c fd36 6f3d
000003b0: c0f2 9d3c 0d7c f8bd c522 cb3d 1000 01bd
000003c0: 12c0 fbbd 3963 a83d d79c 1a3e 879e 053d
000003d0: bc5b d2bc 7df5 103e 0fc1 4cbc 171a e43d
000003e0: e231 edbd 62df a93d deaf 62bc 9ec9 e13d
000003f0: 3ccd e03d 7714 243c f1fd 5ebd b720 15be

mlp.0.bias f4 [64]
0.18225421 -0.013060998 -0.049584948 -0.0029534334 0.025743555 0.011265184 -0.014902469 -0.07012856
-0.019607943 0.15053806 -0.06308731 -0.082198635 -0.07309665 0.009217335 0.037870415 -0.060595132
-0.026443489 -0.034272157 -0.07224134 0.18023363 0.013700435 0.05506838 -0.01374056 -0.05387656
0.03630124 -0.17111564 0.032513987 -0.15444124 0.007259511 0.039149996 -0.011497248 -0.05092826
0.017689936 -0.15460451 -0.074063174 0.27442503 0.044291623 0.053433258 -0.007821204 -0.06792914
-0.13550542 0.100177154 0.083189785 0.10849996 0.05828561 0.07398369 0.061935127 0.0042165765
0.12916937 0.0021182555 0.0813212 0.026878398 -0.09555103 -0.016713701 -0.11964831 0.014146485
-0.07686281 0.11432842 -0.14288005 -0.10309625 -0.14975855 -0.08357083 -0.02500089 0.054408226
00000000: d9a0 3a3e ccfd 55bc 9619 4bbd 648e 41bb
00000010: 26e4 d23c 9b91 383c 7c29 74bc 909f 8fbd
00000020: d6a0 a0bc a626 1a3e eb33 81bd c257 a8bd
00000030: b2b3 95bd 4e04 173c 021e 1b3d 9a32 78bd
00000040: 04a0 d8bc f660 0cbd 45f3 93bd 2a8f 383e
00000050: ca77 603c 628f 613d 1620 61bc abad 5cbd
00000060: 9cb0 143d f038 2fbe 632d 053d d825 1ebe
00000070: 31e1 ed3b bf5b 203d f45e 3cbc 279a 50bd
00000080: 7cea 903c a550 1ebe 6fae 97bd 7081 8c3e
00000090: 226b 353d d5dc 5a3d 8224 00bc 6f1e 8bbd
000000a0: efc1 0abe ae29 cd3d 685f aa3d 3a35 de3d
000000b0: e4bc 6e3d c384 973d b0af 7d3d 352b 8a3b
000000c0: fa44 043e 6ed2 0a3b bb8b a63d 1630 dc3c
000000d0: 42b0 c3bd 2ceb 88bc 2c0a f5bd a9c6 673c
000000e0: 406a 9dbd 0525 ea3d 264f 12be 2024 d3bd
000000f0: 4e5a 19be 2f27 abbd abce ccbc 29db 5e3d

mlp.2.weight f4 [64, 64]
0.1633741 -0.05905045 0.19989245 -0.12220668 0.14544451 0.02617466 -0.03925616 0.017505156
-0.0035113862 0.04821123 0.14147258 -0.04643899 0.071455024 -0.08623136 0.14825164 0.041038893
-0.065509036 0.0568863 0.060268134 0.010583093 0.1626486 0.18005691 -0.08112465 -0.15764253
0.118036866 0.15315811 -0.07608736 0.10804062 -0.015825802 -0.018711556 0.3396811 0.014303454
0.063003294 -0.018742392 0.14856151 0.13536765 -0.009433039 0.15091789 0.16283238 0.049903058
0.09635766 0.18067932 0.17708656 0.15669991 0.15518297 0.17375594 0.093371354 0.03968881
-0.020449635 0.03517593 -0.086814255 0.28605452 0.14843708 0.0032388947 -0.00973362 0.18835552
-0.055671018 0.2164324 -0.0010561473 -0.10314377 -0.0054095844 0.2707715 0.10680793 0.09664617
0.17712235 0.33126515 0.0037095635 0.15963909 0.13509372 0.09835213 0.09735984 0.19312944
-0.0026264682 -0.023232143 -0.04650929 0.054406323 0.027590757 0.050709337 -0.0731586 0.013308058
0.078575596 0.023397762 0.17735998 0.097914964 0.05765442 0.12931421 0.16477533 -0.021153972
0.23004355 0.17220475 0.057260867 -0.14791748 0.08170158 0.00780793 0.01085794 -0.15902048
0.15344699 -0.16528766 0.13473915 0.19155513 -0.033085223 0.09689865 0.088805534 0.01018651
-0.079106145 0.13636616 0.2167377 0.14246528 0.2552857 0.121260874 0.100670695 0.050311606
0.19229755 0.024115488 -0.3433634 -0.016688325 -0.007885224 -0.01866219 -0.044830736 -0.06676173
0.07112915 0.08104779 -0.13519432 0.057636674 -0.17238928 0.007960153 -0.19282022 0.029066496
-0.061892584 -0.021407843 -0.03652412 0.10200603 -0.09246892 0.009036094 -0.029700214 0.08027719
0.10220438 -0.010104198 0.0483571 -0.008479208 0.01515913 0.044566035 -0.14338951 -0.010309742
-0.024209708 0.060292423 -0.058080643 -0.10376625 0.0873647 -0.1482372 -0.118707284 -0.10394283
-0.17643994 -0.06780195 -0.08897849 -0.04585193 0.034202173 0.09224604 0.029174587 0.05439861
-0.047850847 -0.07004045 -0.038620815 -0.09266104 0.12172432 -0.09892159 -0.026313562 0.07172586
0.07350199 -0.10795403 -0.19155844 -0.15818056 -0.020980805 -0.094756044 -0.08621294 0.037655413
-0.0988511 -0.070408195 0.027927011 -0.01394217 -0.0025381 -0.01436545 -0.0014630407 -0.18623121
-0.017888531 -0.13134089 0.11547072 0.00802955 0.017796531 0.09173483 0.0064088083 0.038813613
-0.1359929 -0.0599522 0.0642021 -0.07606509 0.0327456 -0.02877134 -0.07918729 -0.04281597
0.10150221 -0.11394127 0.10024585 0.00580588 -0.049010944 -0.068335384 -0.1020178 -0.10822295
0.08806564 0.052219927 -0.017792553 -0.08736826 0.025538951 -0.072493136 -0.063858345 -0.086738124
0.011038433 0.06962821 -0.059553914 -0.10222709 -0.07684749 0.052441932 0.07043324 0.063791975
0.016311307 0.045782164 -0.09702664 0.013662398 -0.0071291625 -0.122595035 0.05871973 0.01758203
-0.09109841 -0.1228686 0.06845054 -0.11772763 -0.03584157 -0.098909475 -0.13625811 0.11172442
-0.033002913 -0.022153229 0.14377552 -0.021276651 0.021789048 0.053700536 0.033943504 -0.014088081
-0.012844369 -0.15645398 0.08176358 -0.056757092 0.09227015 -0.0018619001 -0.081923366 0.028638104
00000000: 8a4b 273e e2de 71bd 9bb0 4c3e 7f47 fabd
00000010: 68ef 143e 3e6c d63c 11cb 20bd f966 8f3c
00000020: 491f 66bb 2479 453d 30de 103e cf36 3ebd
00000030: 0357 923d 119a b0bd 47cf 173e 6618 283d
00000040: 9a29 86bd 9c01 693d b8db 763d b664 2d3c
00000050: 5b8d 263e d760 383e ae24 a6bd 0b6d 21be
00000060: 50bd f13d 7bd5 1c3e b1d3 9bbd 6744 dd3d
00000070: 1da5 81bc fa48 99bc aeea ad3e 0959 6a3c
00000080: df07 813d a589 99bc 8220 183e d19d 0a3e
00000090: 098d 1abc 388a 1a3e 88bd 263e 2667 4c3d
000000a0: 2a57 c53d 0004 393e 2e56 353e f175 203e
000000b0: 49e8 1e3e 14ed 313e 7b39 bf3d bc90 223d
000000c0: fe85 a7bc a314 103d accb b1bd bd75 923e
000000d0: e4ff 173e a343 543b c379 1fbc 45e0 403e
000000e0: 4b07 64bd 74a0 5d3e 6c6e 8aba 0a3d d3bd
000000f0: e242 b1bb 90a2 8a3e 1ebe da3d 6dee c53d
00000100: 905f 353e 969b a93e 261c 733b 6e78 233e
00000110: 0256 0a3e d76c c93d 9964 c73d b9c3 453e
00000120: d320 2cbb 5651 bebc 8680 3ebd 2ad9 5e3d
00000130: 0306 e23c 98b4 4f3d 2dd4 95bd 0a0a 5a3c
00000140: 3eec a03d aaac bf3c db9d 353e a487 c83d
00000150: 0b27 6c3d f26a 043e ddba 283e 184b adbc
00000160: 8990 6b3e 7156 303e 5f8a 6a3d ae77 17be
00000170: 2853 a73d aad9 ff3b 80e5 313c 44d6 22be
00000180: 3521 1d3e 2b41 29be 0ff9 093e 0727 443e
00000190: 5f84 07bd cd72 c63d addf b53d 52e5 263c
000001a0: 6702 a2bd 92a3 0b3e 7df0 5d3e 6be2 113e
000001b0: cfb4 823e 9f57 f83d 702c ce3d 8b13 4e3d
000001c0: a6e9 443e d88d c53c 54cd afbe f4b5 88bc
000001d0: 0731 01bc 73e1 98bc 6fa0 37bd 60ba 88bd
000001e0: 29ac 913d 62fc a53d 6170 0abe 6f14 6c3d
000001f0: d186 30be 4d6b 023c aa72 45be dc1c ee3c
00000200: 1483 7dbd 805f afbc 519a 15bd 8ae8 d03d
00000210: 5860 bdbd 200c 143c dd4d f3bc 5e68 a43d
00000220: 8850 d13d 148c 25bc 1812 463d 60ec 0abc
00000230: 005e 783c e08a 363d b3d4 12be 31ea 28bc
00000240: 7053 c6bc 30f5 763d f8e5 6dbd 6683 d4bd
00000250: 44ec b23d 7ecb 17be ce1c f3bd fadf d4bd
00000260: acac 34be c0db 8abd 5b3a b6bd 3ccf 3bbd
00000270: 9417 0c3d 7eeb bc3d 8bff ee3c 14d1 5e3d
00000280: 40ff 43bd 5e71 8fbd dc30 1ebd 12c5 bdbd
00000290: 9a4a f93d 6797 cabd 8a8f d7bc 02e5 923d
000002a0: 3688 963d 0117 ddbd e527 44be 16fa 21be
000002b0: f0df abbc 750f c2bd 6990 b0bd 903c 1a3d
000002c0: 7272 cabd 2c32 90bd 30c7 e43c b36d 64bc
000002d0: 4056 26bb 105d 6bbc 80c3 bfba 65b3 3ebe
000002e0: f88a 92bc 3a7e 06be ea7b ec3d 608e 033c
000002f0: 08ca 913c 78df bb3d fb00 d23b 06fb 1e3d
00000300: b941 0bbe 7090 75bd 647c 833d 04c8 9bbd
00000310: 4020 063d e0b1 ebbc f22c a2bd cc5f 2fbd
00000320: 64e0 cf3d 0a5a e9bd b24d cd3d 403f be3b
00000330: b3bf 48bd 6cf3 8bbd b5ee d0bd fea3 ddbd
00000340: c25b b43d 90e4 553d b0c1 91bc 21ee b2bd
00000350: 1037 d13c 4877 94bd 2ac8 82bd c2a3 b1bd
00000360: 8bda 343c 3c99 8e3d ceee 73bd 705c d1bd
00000370: 3862 9dbd 5acd 563d 4d3f 903d 5ea5 823d
00000380: 4a9f 853c 1486 3b3d e7b5 c6bd 40d8 5f3c
00000390: c09b e9bb 1b13 fbbd 1984 703d 3008 903c
000003a0: ce91 babd 88a2 fbbd cc2f 8c3d 2f1b f1bd
000003b0: 9cce 12bd 0d91 cabd 3f87 0bbe c6cf e43d
000003c0: 102e 07bd b07a b5bc e439 133e 5f4c aebc
000003d0: f27e b23c 18f5 5b3d 5808 0b3d b2d1 66bc
000003e0: 3071 52bc 7935 20be aa73 a73d 207a 68bd
000003f0: 22f8 bc3d 000b f4ba 70c7 a7bd 759a ea3c

mlp.2.bias f4 [64]
0.16332372 0.17951423 -0.17173453 -0.106424816 0.060631175 -0.15476117 0.034627974 0.13545728
-0.011638917 -0.03512083 0.08712911 -0.10970089 -0.053278383 0.24171688 -0.07400854 0.058099154
-0.100017756 0.11143251 0.017348917 0.009818141 0.18560833 0.08792737 -0.16267763 -0.06406462
-0.03435141 -0.06378929 -0.14119637 -0.10842391 -0.08222541 -0.018781962 -0.12140622 -0.17456599
0.120426044 -0.08222593 -0.14708348 -0.09763602 0.37410757 -0.039615717 0.02092377 0.15191665
-0.1770237 -0.01934906 -0.075342976 -0.029515771 0.25632063 0.121467665 -0.14159125 0.06600184
0.0185702 0.04842775 -0.12469724 0.046851806 0.27983633 0.01005984 -0.03668178 -0.021922413
-0.15745664 0.18422046 -0.026098393 -0.012561202 -0.039256554 -0.075721644 0.12994944 -0.021563442
00000000: 553e 273e 94d2 373e 2ddb 2fbe 41f5 d9bd
00000010: 6558 783d b679 1ebe 10d6 0d3d 50b5 0a3e
00000020: 28b1 3ebc dcda 0fbd bf70 b23d dcaa e0bd
00000030: 6f3a 5abd a184 773e ca91 97bd 61f9 6d3d
00000040: 1cd6 ccbd ba36 e43d 511f 8e3c 45dc 203c
00000050: 1c10 3e3e 4413 b43d f794 26be 5034 83bd
00000060: 10b4 0cbd f6a3 82bd c895 10be 5b0d debd
00000070: cc65 a8bd a1dc 99bc d3a3 f8bd 6dc1 32be
00000080: eea1 f63d 1266 a8bd 0d9d 16be 65f5 c7bd
00000090: 078b bf3e 1744 22bd 5368 ab3c 0a90 1b3e
000000a0: b345 35be eb81 9ebc 6b4d 9abd 0fcb f1bc
000000b0: 753c 833e 0ac4 f83d 4cfd 10be f92b 873d
000000c0: 8820 983c 2d5c 463d 4461 ffbd aee7 3f3d
000000d0: b546 8f3e 07d2 243c a23f 16bd a296 b3bc
000000e0: 503c 21be 4aa4 3c3e 4ccc d5bc 80cd 4dbc
000000f0: 7bcb 20bd f313 9bbd 7711 053e d1a5 b0bc

mlp.4.weight f4 [4, 64]
0.08042173 -0.009689859 0.032479495 0.085053846 0.02692045 0.011214206 0.02525765 -0.01238912
0.011299351 -0.07332247 0.051093586 0.055387847 0.0808119 -0.010935597 0.11209755 0.07746236
-0.032611642 0.019612154 0.055559713 0.006227191 -0.03475346 0.007689139 -0.011475185 -0.012722847
0.06921209 0.04435849 -0.06975263 -0.050303925 0.040600516 -0.02109742 0.09044578 -0.039201405
0.0005671901 -0.033078764 -0.05473954 -0.004017374 0.0014380157 -0.019112624 0.08327534 0.08159954
0.00079888414 0.002996881 0.060776927 0.017668761 0.002928451 0.0061116265 -0.14178051 0.049817692
0.08698938 0.052172307 -0.038488425 -0.11690087 -0.0051495023 -0.011377923 0.11740769 0.006744243
-0.053375497 -0.037492067 0.16526066 -0.012779234 0.027069548 0.057037167 -0.012723551 -0.01158283
0.24319467 -0.12454848 0.0021425635 -0.044377737 0.47726265 0.13835476 0.32956082 1.1943474
1.5426986 1.6221075 1.7737589 0.04356247 1.0680871 0.1192207 -0.028781176 0.04387499
0.05498585 0.2970014 0.3159324 0.171465 0.4476504 1.5558972 0.40244737 0.021754595
0.1499777 0.01040212 0.069551915 0.17855516 -0.014612727 0.067539975 -0.02385665 0.15678394
0.23391457 0.17547461 0.08015234 -0.033951413 0.18919693 -0.0043208213 0.17575262 0.31693703
-0.020451965 1.083922 0.016088923 0.044921104 -0.20103465 0.002707831 -0.00753922 1.3270766
0.91652477 0.1435778 0.032093305 0.0829461 0.38741276 0.1910319 0.0017980273 0.19633582
-0.024928527 0.34814146 0.026099065 -0.37759584 0.053372487 0.17709266 0.16717707 0.019942524
0.07936791 0.018379096 0.027622486 -0.057742607 0.0718999 -0.020974996 0.08426167 0.04558579
-0.009345423 -0.23499645 -0.006759019 0.09001291 0.044413436 -0.030222727 -0.09981121 0.055617146
-0.07146305 0.06821896 0.019833762 0.03278321 -0.005631401 0.03129813 0.08786497 -0.012297923
0.046761397 0.03780386 0.12678856 0.015083675 0.009946222 0.026115082 -0.024824556 0.023221841
-0.00016109273 0.016067045 0.034400728 -0.032459132 0.005759665 -0.011124149 0.058533963 0.097926274
-0.20264193 -0.13705905 0.011583853 -0.033023596 0.011442993 0.009952784 -0.066288516 -0.039152477
-0.00895267 0.047821004 0.024008585 -0.100767665 0.0039386153 0.04964689 -0.03290506 0.06509115
-0.011525631 0.0060055996 -0.06341078 0.003154031 0.004043959 -0.013471585 0.06758907 0.008755629
1.3364674 1.4997783 -0.1026355 0.11509624 1.0551814 0.103171594 0.9198297 0.5799546
0.4236973 0.44244558 0.4267403 0.08454614 0.16412212 1.4011703 0.011725515 1.4094228
0.57548046 1.1068785 1.3560284 0.027152099 1.3647132 0.32409826 0.42033112 0.09542199
0.09902482 0.14868768 0.12713648 -0.04211881 -0.009738898 0.08892114 0.19446996 0.036870446
1.4421599 0.019551896 -0.049355734 0.048560515 1.4118165 0.016359491 0.109297 0.9649475
-0.0034726174 0.724349 0.123310916 0.123809725 1.649157 1.3208952 -0.0004730079 0.21402846
0.34805098 0.13780977 -0.013713315 1.2162446 1.2350703 0.027553344 0.03609541 0.10095677
0.06680375 0.97999835 0.0037350298 1.518154 0.106942974 0.053042326 1.3596907 0.06379759
00000000: 26b4 a43d 37c2 1ebc 3809 053d b630 ae3d
00000010: 4788 dc3c cabb 373c 22e9 ce3c bcfb 4abc
00000020: ea20 393c 172a 96bd 8247 513d 5ede 623d
00000030: b680 a53d 382b 33bc 6693 e53d 96a4 9e3d
00000040: c993 05bd aba9 a03c 9592 633d 770d cc3b
00000050: a559 0ebd 2cf5 fb3b 6a02 3cbc 7d73 50bc
00000060: 11bf 8d3d 3fb1 353d 78da 8ebd 7d0b 4ebd
00000070: ba4c 263d 7fd4 acbc a33b b93d a791 20bd
00000080: 7caf 143a 997d 07bd 9136 60bd 2da4 83bb
00000090: cd7b bc3a 1492 9cbc 438c aa3d a91d a73d
000000a0: 356c 513a 5267 443b 3af1 783d 14be 903c
000000b0: 41eb 3f3b 0a44 c83b e92e 11be a30d 4c3d
000000c0: 7d27 b23d a1b2 553d 0aa6 1dbd b969 efbd
000000d0: 28bd a8bb 786a 3abc 7173 f03d d0fe dc3b
000000e0: 44a0 5abd 4891 19bd 173a 293e fe5f 51bc
000000f0: f5c0 dd3c ce9f 693d 7176 50bc e9c5 3dbc
00000100: 0608 793e 4613 ffbd 406a 0c3b 6ec5 35bd
00000110: c55b f43e dfac 0d3e 32bc a83e 60e0 983f
00000120: 2677 c53f 38a1 cf3f 880a e33f 8f6e 323d
00000130: 14b7 883f fb29 f43d 80c6 ebbc 43b6 333d
00000140: d838 613d 9110 983e e4c1 a13e 8594 2f3e
00000150: 6f32 e53e a427 c73f 950d ce3e b136 b23c
00000160: c193 193e a76d 2a3c 3c71 8e3d 2ad7 363e
00000170: 386a 6fbc 6652 8a3d 056f c3bc f88b 203e
00000180: 4d87 6f3e 9eaf 333e e926 a43d a310 0bbd
00000190: d7bc 413e ad95 8dbb 7ff8 333e 9245 a23e
000001a0: e18a a7bc f5bd 8a3f ebcc 833c 31ff 373d
000001b0: 07dc 4dbe de75 313b 900b f7bb a5dd a93f
000001c0: 5ea1 6a3f 0f06 133e 4574 033d a5df a93d
000001d0: f75a c63e de9d 433e c9ab eb3a 420c 493e
000001e0: e936 ccbc 993f b23e b5cd d53c 3e54 c1be
000001f0: 1c9d 5a3d c757 353e 7730 2b3e 815e a33c
00000200: a58b a23d c28f 963c 8d48 e23c 8383 6cbd
00000210: 4140 933d c1d3 abbc 6291 ac3d 2ab8 3a3d
00000220: 8c1d 19bc e9a2 70be c37a ddbb b058 b83d
00000230: ddea 353d a795 f7bc d269 ccbd cece 633d
00000240: 385b 92bd 62b6 8b3d 6a7a a23c b047 063d
00000250: 9e87 b8bb 7832 003d 8df2 b33d 3a7d 49bc
00000260: e188 3f3d 38d8 1a3d dcd4 013e 8521 773c
00000270: 7bf5 223c 4cef d53c de5c cbbc bb3b be3c
00000280: 00eb 28b9 099f 833c c7e7 0c3d def3 04bd
00000290: 92bb bc3b 1042 36bc 4fc1 6f3d 928d c83d
000002a0: 5e81 4fbe 3559 0cbe 33ca 3d3c c043 07bd
000002b0: 647b 3b3c 0011 233c 46c2 87bd 595e 20bd
000002c0: 38ae 12bc f5df 433d a7ad c43c 475f cebd
000002d0: 800f 813b 8a5a 4b3d 75c7 06bd 824e 853d
000002e0: 00d6 3cbc 9fca c43b 83dd 81bd dcb3 4e3b
000002f0: 3083 843b ecb7 5cbc 236c 8a3d c573 0f3c
00000300: 5d11 ab3f bcf8 bf3f 9032 d2bd 94b7 eb3d
00000310: 2f10 873f a14b d33d f679 6b3f e877 143f
00000320: daee d83e 3a88 e23e b47d da3e 8726 ad3d
00000330: a10f 283e 8c59 b33f 601c 403c f767 b43f
00000340: b052 133f 32ae 8d3f 5792 ad3f 146e de3c
00000350: ecae ae3f 35f0 a53e a435 d73e 9b6c c33d
00000360: 86cd ca3d 9541 183e 1130 023e c684 2cbd
00000370: e68f 1fbc 491c b63d 2223 473e 7705 173d
00000380: b298 b83f 4c2b a03c 3d29 4abd 64e7 463d
00000390: 67b6 b43f 5704 863c 1bd7 df3d cd06 773f
000003a0: da94 63bb f06e 393f 6f8a fc3d f48f fd3d
000003b0: 9417 d33f 1813 a93f 0cfe f7b9 472a 5b3e
000003c0: bd33 b23e 011e 0d3e d0ad 60bc e7ad 9b3f
000003d0: c916 9e3f 8db7 e13c c8d8 133d 6cc2 ce3d
000003e0: 68d0 883d 2ce1 7a3f 67c7 743b df52 c23f
000003f0: eb04 db3d e942 593d 580a ae3f 50a8 823d

mlp.4.bias f4 [4]
0.08503178 0.29901046 0.12579884 1.038331
00000000: 2425 ae3d e617 993e 69d1 003e 08e8 843f
