forecasting/midroll/dnn_model/model_2_ofac2023.ckpt (torch, 42527 bytes, 5 tensors)

mlp.0.weight f4 [64, 90]
000000 76 bd b0 bc e8 7a d1 bd 21 8b 9d 3d 62 67 af bd
       -0.021574717 -0.10228521 0.07692552 -0.085646406
000010 81 1d 0c 3e 3e 2e b1 bc 1c 4a 90 bd ee d7 e9 ba
       0.1368313 -0.021628495 -0.07045385 -0.0017840841
000020 1e c0 1e be 1a ac 3d bd 57 5e bb bd 5f e3 27 3d
       -0.15502974 -0.046306707 -0.09148853 0.040988322
000030 c2 da 65 bd 3f 52 b6 bd 79 20 98 bb f3 31 37 bd
       -0.056116827 -0.08902406 -0.004642543 -0.04472537
000040 b4 a7 52 3c 82 47 26 bc fd c9 3c 3c 5c 3f 49 bb
       0.012857366 -0.010148885 0.011522767 -0.003070793
000050 bc 82 f1 3d 2c f2 45 bd 96 91 4f bd 84 d7 09 bd
       0.11792514 -0.048326656 -0.05067595 -0.033652797
000060 10 cf 5d bc cc dc 24 3d 5e a6 73 3d 27 33 90 3d
       -0.013538137 0.04024963 0.059484832 0.070410065
000070 aa 81 27 be 7f 00 1f 3e d1 80 42 bd 3f f3 a0 3d
       -0.16358057 0.15527533 -0.04748613 0.078588955
000080 cd ff ac bc 46 b6 aa bd ab cd 24 3d e8 64 2c 3d
       -0.021118069 -0.08335547 0.040235203 0.04208842
000090 d9 83 8c 3c 57 98 72 3d ba 3c 8a bd d5 f1 c0 bd
       0.017152714 0.059227314 -0.06749864 -0.09421126
0000a0 4b ae 43 bb f5 26 f3 bd d8 67 f0 3d 58 d4 0d bc
       -0.0029858525 -0.11872665 0.117385566 -0.008656584
0000b0 ae 32 e5 bd 06 91 96 bd 4e 3c 52 3c 6d 3d 20 bd
       -0.11191307 -0.0735188 0.012831761 -0.03912108
0000c0 af 17 1a be f0 c7 1d be 35 8c df 3c 17 a3 86 bd
       -0.15048097 -0.15408301 0.027288536 -0.06574076
0000d0 46 36 c2 bd 45 d5 dc bc 1f 41 2a be ce 2b 24 3e
       -0.09483008 -0.026957164 -0.16626404 0.16032335
0000e0 af a0 db bd db a9 81 3c b0 6d 77 bd 63 d9 59 bd
       -0.10724007 0.015828064 -0.06040734 -0.05318583
0000f0 09 96 2e bd d3 71 ca 3d 6a 8e 90 bc de 12 d9 bc
       -0.042623553 0.098849915 -0.017646033 -0.026498254
000100 0b c7 16 bc 25 94 ce bd 7c b1 38 be ab 08 97 3c
       -0.009202729 -0.1008685 -0.18036455 0.01843675
000110 d0 38 b2 3d 97 5b 43 3d 38 2c 80 3d c2 1e 3c 3d
       0.087022424 0.04769477 0.06258434 0.04592777
000120 20 14 a2 bc 15 9e c2 bc 37 49 3c bd 45 d0 bb bc
       -0.019784987 -0.02375702 -0.04596826 -0.02292646
000130 d7 3b 8f bd 9e 86 c1 bc 3b 18 33 3d 53 90 f0 3c
       -0.069938354 -0.02362376 0.04372428 0.029365694
000140 fe c6 1b 3e 04 70 78 bd 82 da 34 bd 84 07 17 3e
       0.15212628 -0.0606537 -0.044153698 0.1474896
000150 03 d5 2a 3e d7 b0 70 3d c6 4d 70 3d 76 c4 c9 bc
       0.1668282 0.058762398 0.05866792 -0.024629813
000160 d6 34 00 3c 8d b6 47 3d a6 36 09 bc 47 e7 a0 bd
       0.007825097 0.04875808 -0.008374846 -0.07856613
000170 a3 5a ae bd b3 9e d0 3d 9d 06 bd bd 95 3f c4 3c
       -0.08513381 0.101865195 -0.09229777 0.0239561
000180 77 ec c8 3b d0 ce f6 3c aa 89 d8 bd 95 d2 74 3d
       0.0061317044 0.030127913 -0.10573132 0.05977114
000190 66 84 44 bd 73 9e 62 bd ff a0 08 3e 66 16 69 3d
       -0.047977827 -0.05532689 0.13342665 0.056906126
0001a0 eb d0 7e bd 71 8e 03 be 52 f7 05 bd ad 91 b6 bd
       -0.06221096 -0.12847306 -0.032706566 -0.08914504
0001b0 a2 b6 cc 3c d8 ed a4 3b 64 95 d6 bd f7 f0 a9 bd
       0.02498943 0.005033236 -0.10477713 -0.082979135
0001c0 c1 fb 9c 3d 31 93 43 3d 4b 38 25 be e8 41 4c 3b
       0.07665206 0.047747795 -0.16134755 0.0031167213
0001d0 f1 67 dd 3d 79 b4 a8 3d cb 06 90 bd b0 b6 29 3c
       0.10810841 0.082375474 -0.07032546 0.0103584975
0001e0 95 2a af 3d bb a4 ff bd 59 06 cd 3b 16 a8 8a 3d
       0.08553044 -0.12482592 0.00625686 0.06770341
0001f0 93 29 b1 3d 38 d9 ae 3d ce f2 06 39 3e a3 2d ba
       0.08650508 0.08537525 0.00012869688 -0.0006623751
000200 bf 0a 06 bd 66 1b 3b 3c 47 f7 9e 3d a8 b7 1e bd
       -0.032725092 0.0114201065 0.07762008 -0.038749367
000210 2c dc af 3d b8 28 1a be 94 ca c0 bd b1 4e d1 3d
       0.08586916 -0.15054595 -0.09413639 0.10220087
000220 39 72 a1 bc 88 fe b1 bc 46 da ee bd 65 d0 eb bd
       -0.019707786 -0.021727815 -0.11662726 -0.115143575
000230 34 0a c1 3d c9 34 ca bc 74 86 b7 3c 3b 6e 35 bd
       0.09425774 -0.024683373 0.02240298 -0.044294577
000240 8a 94 88 3d c8 52 a4 bd 8f 5c 3c be f0 24 d9 3a
       0.066689566 -0.08023602 -0.18394683 0.0016566794
000250 6f 39 15 bd 65 27 07 3e ba 8e 30 bc 96 ce be 3c
       -0.036431726 0.13198622 -0.010776216 0.023291867
000260 7b 88 c8 bc ce ab f9 bd 23 80 ca 3d d8 e4 14 3e
       -0.024479141 -0.12190972 0.098877214 0.14540422
000270 28 f1 4a 3d e0 e6 0d be a0 64 a4 3d 8f 4f 04 3d
       0.04954639 -0.13857603 0.08027005 0.032302435
000280 2b e0 6a ba 89 04 43 bc c3 03 3b 3d c9 5f 5e bc
       -0.0008959795 -0.011902937 0.045657884 -0.013572642
000290 14 b4 bc 3c 05 65 83 3d 6a 45 1c bd 79 ad 32 bd
       0.023035087 0.06415752 -0.038152136 -0.043622468
0002a0 7b be b6 3d 32 a5 9c 3d 87 31 af 3d 6e fe b0 bd
       0.0892305 0.07648696 0.085543685 -0.086422786
0002b0 30 6a 5b bd 14 3a 01 3e 80 20 03 3e 31 f4 82 3d
       -0.053568065 0.12619811 0.12805367 0.06394232
0002c0 cb 87 8b bd c4 7a 8c bd 2c 1b 9b bc 70 d0 93 3d
       -0.0681301 -0.06859353 -0.018933855 0.07217491
0002d0 e1 a0 02 3d 5a d8 5f 3d d7 e1 d1 bd fb c8 5a bd
       0.031891707 0.05464969 -0.10248154 -0.053414326
0002e0 8b e6 ac 3d 84 3b a2 3d 11 a7 8b bd d2 03 c7 3d
       0.0844241 0.07921508 -0.06818975 0.097175255
0002f0 05 87 bb bd 55 78 ab bd 38 a5 a7 bd ed c2 e2 3c
       -0.09156612 -0.08372561 -0.0818581 0.027680838
000300 68 da 3c 3c c5 7f 49 3d e2 b5 0b 3d e8 66 4f 3d
       0.0115266815 0.049194116 0.034109004 0.05063525
000310 10 94 d8 3d 2b 94 80 bd 3a 31 fd bc af 2e 89 3c
       0.10575116 -0.06278261 -0.030907262 0.016745893
000320 fb 85 9f 3d 07 af a6 bd 2d 50 9f bd 1c b6 a5 3d
       0.077892266 -0.081388526 -0.07778964 0.08091375
000330 01 10 ce bd 82 c9 11 3c 0e 39 22 bd d8 e0 82 bd
       -0.10061646 0.008898141 -0.039605193 -0.06390542
000340 c4 c3 f5 bc fb 04 d3 bc 30 a4 b4 bc e5 ba 3d bd
       -0.030000575 -0.02575921 -0.022050947 -0.046320815
000350 ad 19 a8 bd e8 91 70 bb 2b 02 02 bd e1 7f 33 3a
       -0.08208022 -0.003670806 -0.03174035 0.00068473635
000360 77 38 a4 bd 81 3e c9 bd 68 00 f7 bc f1 07 ac bc
       -0.08018582 -0.09826375 -0.03015156 -0.02099988
000370 ec c5 a9 3d 12 95 96 bd cb 05 b8 3d 4a 49 b6 bd
       0.08289704 -0.07352652 0.0898548 -0.089006975
000380 4a 38 06 bc b1 a0 1e 3d a4 42 ee 3d 11 3f dd bd
       -0.008192131 0.038727466 0.116338044 -0.108030446
000390 44 cd 9c 3d 93 5f 7a bb b3 79 87 3d a4 d8 9a 3c
       0.07656339 -0.003820394 0.06615009 0.01890213
0003a0 2a a4 87 bd 75 cc 87 3d 57 5c e6 3d af 58 f6 bb
       -0.06623109 0.06630794 0.11248081 -0.007517896
0003b0 fb 17 79 bd 02 12 9e 3d a7 ba 42 bc 1f fc 17 bd
       -0.060813885 0.077182785 -0.011885322 -0.037105676
0003c0 77 5f 69 3b 28 08 a7 3c 2d d2 d4 bd fb c4 d0 bc
       0.003560988 0.020389631 -0.1039165 -0.025484553
0003d0 fd 8b 5b bc 9f 95 b1 bc ce cd aa 3d 0a bf 8b bd
       -0.013400075 -0.02167779 0.083400354 -0.06823547
0003e0 3d d5 93 3d 2b 7a 8c 3d 23 3b 73 3d 60 54 dc bd
       0.07218406 0.06859239 0.05938257 -0.10758281
0003f0 b4 11 35 3c 57 4e 98 3d a1 7d 06 3c b5 3a 7b 3d
       0.011051584 0.07436817 0.008208663 0.061335284

mlp.0.bias f4 [64]
000000 22 e9 4b bd e9 cc f3 3b cb 52 bd 3b 24 57 d2 3d
       -0.04978288 0.0074401987 0.005777692 0.10270527
000010 53 77 22 bc 6d c4 95 bd 34 8f 26 3d c6 21 b7 3c
       -0.009916144 -0.07312856 0.040663913 0.022354972
000020 35 c8 95 bd 58 1a 6c 3d 80 80 87 bd 4a 60 77 bd
       -0.07313577 0.05764231 -0.06616306 -0.060394563
000030 07 e1 62 3b 03 2f ab bc 09 81 c9 3c 49 39 ea bd
       0.003461899 -0.02089644 0.024597662 -0.114367075
000040 97 bd d9 bd fe 83 dc bb 9f 77 bc bd 63 d6 21 bd
       -0.106318645 -0.006729602 -0.092025034 -0.039511096
000050 7b 74 af 3d 6d 44 fe bd 70 e3 ce 3d e9 51 95 bb
       0.08567139 -0.12415395 0.10101974 -0.0045568836
000060 07 26 80 3d 6b 94 bc 3c 21 c2 c5 bd b1 47 56 3d
       0.06257253 0.02301999 -0.09656168 0.052314464
000070 c6 87 06 3c bd 57 16 3c da b9 d0 3c e0 68 98 bd
       0.008211082 0.009176192 0.025479246 -0.07441878
000080 f1 c6 4b bd cf bc 58 bc 62 f2 9e bc 3e e4 8b 3d
       -0.049750272 -0.013228609 -0.019402687 0.06830643
000090 49 86 64 3d c3 cb 84 3a 13 bd 7c 3d 9c 56 3e 3d
       0.055792127 0.0010131527 0.061703753 0.046469316
0000a0 e1 6e e0 bc 0a 6e 16 3d 8e 58 a5 3c 44 1a 8c 3d
       -0.027396621 0.036726035 0.020183828 0.06840947
0000b0 93 1d 8d 3d 67 80 15 bd 9b 49 87 3c bb c8 e8 bd
       0.068904065 -0.036499407 0.01651459 -0.11366411
0000c0 a2 e0 13 bc f9 b9 87 bd 95 09 a2 3d bc 5b 9b bd
       -0.009025725 -0.06627268 0.07911984 -0.07585856
0000d0 9b 4f 3d bd 99 93 c0 3c a6 4f 11 3d 57 7d c6 bb
       -0.046218496 0.02350788 0.03547635 -0.006057422
0000e0 06 6c 04 3d 81 a5 4c 3d 9d a9 75 3d 1e f9 97 bd
       0.03232958 0.049962524 0.05997621 -0.07420562
0000f0 f5 87 89 3d fd 15 b7 3d 72 12 ba 3b 6a 88 ff bc
       0.06715385 0.08939741 0.0056784684 -0.031192977

mlp.2.weight f4 [64, 64]
000000 32 41 b9 bd 12 57 e9 bd 90 96 2f bd b5 44 d0 bc
       -0.09045638 -0.113935605 -0.042868197 -0.025423387
000010 12 91 a3 3d d8 9a e5 bc 41 fe 9f bd d7 55 4d be
       0.07986654 -0.028027937 -0.07812167 -0.20052277
000020 99 1a 8f 3d 89 ce 38 be d1 3a ff bd 72 20 f7 3c
       0.06987495 -0.18047537 -0.1246239 0.030166838
000030 49 68 de bd ef 50 01 3e a4 ed 44 be 57 9b 52 3d
       -0.108597346 0.1262853 -0.19231278 0.051417675
000040 7b cf 22 be 8d 3d 26 be b6 30 f1 3c cc 93 c8 3d
       -0.1589946 -0.16234417 0.029442172 0.09793815
000050 31 15 e5 3d df b6 cc 3c 97 40 0a be c5 10 03 be
       0.111856826 0.024989543 -0.13501202 -0.12799366
000060 f5 0a c7 3d d2 e8 7f 3c 98 a3 5c be 6e 13 45 bd
       0.09718887 0.0156194735 -0.21546781 -0.048114233
000070 c1 a2 39 3d 90 a1 ba bb 57 8c 92 3d 47 96 70 3d
       0.04532123 -0.0056955293 0.07155674 0.058737066
000080 33 46 bb 3c 81 3b 24 be 22 5a 22 bd 5a 15 aa bd
       0.022860622 -0.16038324 -0.03963674 -0.08304854
000090 29 ea e7 3c 9b ac fa 3c 44 50 cb bd db 81 9f bd
       0.028309898 0.030599883 -0.09927419 -0.0778844
0000a0 ef db 6a bd 7f 6c 18 3c 6e e0 2f 3d fc 51 07 be
       -0.05733865 0.009303211 0.042938642 -0.13214868
0000b0 1a 2f f8 3d 7d 65 ba 3d 70 32 5a 3d 7c e6 a7 bd
       0.12118359 0.091013886 0.053270757 -0.08198258
0000c0 0f 09 02 3e 13 52 e1 bd b4 16 80 bb 92 6d 83 3e
       0.12698768 -0.110019825 -0.0039089564 0.25669533
0000d0 71 e2 87 3d 90 ed 4a 3d b1 85 5e 3d dc 44 2c be
       0.06634987 0.049542964 0.054326717 -0.16823143
0000e0 6a 4b 3d 3d 8a b2 ee bd d5 3f e8 3d c6 ed 69 bd
       0.0462145 -0.116551474 0.113403 -0.057111524
0000f0 db 99 15 3e 27 94 ea bd ff dd 08 3e 5a c5 08 3d
       0.14609472 -0.11454039 0.13365935 0.033391334
000100 13 5e fc 3d 72 78 81 3d 76 3a d0 bd 23 a2 9f bd
       0.12322631 0.06321801 -0.101674005 -0.07794597
000110 f3 4f 84 bd c9 97 0e 3d 1f 01 46 3d 05 57 5e 3d
       -0.064605616 0.034812722 0.048340913 0.054282207
000120 d4 1e 4b 3d d7 c9 b7 3d 87 97 21 3d ba fc df 3d
       0.049589947 0.08974045 0.03945115 0.10936876
000130 2c 73 ed 3d 6e 74 ae 3d 86 98 9a 3d 07 55 8b bd
       0.11594233 0.08518301 0.07548623 -0.06803327
000140 2b 7e 16 3d f1 e3 be bd 98 da b5 bd aa d8 4a 3d
       0.036741417 -0.0932082 -0.08879584 0.049523033
000150 75 a5 ed bc 81 2a 89 bd 1a a0 e5 3c 66 c0 c0 bd
       -0.02900956 -0.0669756 0.028030444 -0.09411697
000160 e7 8e 17 bc 22 3f 76 bd b7 eb 10 3e 23 37 ea 3d
       -0.009250379 -0.060118802 0.14152418 0.11436298
000170 3d 62 01 be 33 26 90 3d 32 8a 71 3d f1 ea 68 bd
       -0.12635131 0.07038536 0.058969684 -0.056864683
000180 9a fa 0e 3d 9b d1 07 3d 70 ce b8 3d 3e 07 38 bc
       0.03490696 0.03315888 0.0902375 -0.011232195
000190 44 a0 bf bd aa 87 19 3c d1 cf 9c 3c 04 ed 80 3d
       -0.0935674 0.009370724 0.019142063 0.06295207
0001a0 c6 f5 0b bd 5d 52 98 3d 45 7f 00 3d 69 e5 13 bd
       -0.034169935 0.074375845 0.031371374 -0.036107454
0001b0 8b 5e 08 bd a1 9a f0 3d 0a 3f 0d 3d 9e 17 bb bc
       -0.03329329 0.11748243 0.034483947 -0.02283841
0001c0 2f cf d0 bd 9b 01 95 3d 72 86 ce 3d 6b 1d d7 3d
       -0.10195767 0.07275697 0.10084237 0.10503658
0001d0 58 c8 96 3c a3 6e 71 3d 62 b0 c2 3d 26 51 f0 3d
       0.018406078 0.058943402 0.095062986 0.11734228
0001e0 c2 b2 90 3d ff ae 00 3d c8 30 ec 3c 89 33 0f be
       0.07065345 0.03141689 0.028831854 -0.13984503
0001f0 88 45 c2 3d ad 6c 9d 3d 0f 74 6c 3c 85 f5 27 3d
       0.09485918 0.07686744 0.014431967 0.04100563
000200 41 6c ae 3d db b4 f3 3d 9c 04 7d 3d 18 c0 59 bc
       0.085167415 0.1189973 0.061771974 -0.013290428
000210 98 11 8a 3d 31 f1 d6 3d 43 1a cf bd fa 32 27 bd
       0.06741637 0.10495222 -0.10112431 -0.0408201
000220 bb 87 1c 3d 0c dd 05 3e 3b 82 b9 3d 0d 28 58 bc
       0.03821538 0.13072604 0.090580426 -0.013193143
000230 17 36 d2 bc 53 e8 e8 3d e9 c5 fe 3d 7c c6 0c be
       -0.025660558 0.11372437 0.12440092 -0.13747591
000240 9a f1 2c bc 8b 97 1e be 7b e1 f4 3d 76 15 a1 3d
       -0.010555649 -0.15487497 0.119570695 0.078654215
000250 06 0d c2 be 08 24 ae 3d b4 d7 00 3e c8 e2 98 3d
       -0.3790056 0.08502966 0.12582284 0.0746513
000260 f2 cb 78 bd 0e 93 0b 3e 9d 07 9c 3d aa 19 21 ba
       -0.060741372 0.13630316 0.076186396 -0.0006145487
000270 1b 0a f8 3c e4 dd b0 3d 64 2b 1a bd 40 08 a3 bd
       0.030278256 0.08636072 -0.037639037 -0.07960558
000280 31 d0 04 be 0b 40 08 bd ad 14 f4 3c f8 c7 bf 3c
       -0.12970044 -0.0332642 0.029795015 0.023410782
000290 b0 9b 83 3d ce d2 1c 3d a4 71 b3 bd 67 2f 64 be
       0.064261794 0.038286977 -0.087619096 -0.22283708
0002a0 68 4e f2 3c 06 55 05 3d 4c 13 65 be dd 3a 8f bd
       0.029578403 0.032551788 -0.22370642 -0.06993649
0002b0 63 21 0a 3e 75 d1 6e be 6e a2 71 3d f2 49 9d bd
       0.13489299 -0.23322089 0.058992796 -0.076801196
0002c0 a1 de f6 3c f5 55 00 be ec d0 91 bc e5 87 b9 bd
       0.030135455 -0.1253279 -0.017799817 -0.09059123
0002d0 50 55 4e 3d f9 8e bb 3d 1a ca 62 be 0b e2 27 be
       0.05037433 0.09158129 -0.22147408 -0.16394822
0002e0 53 15 78 3d 9a d2 c6 3d d3 bc 90 bd 73 3e 27 be
       0.06056721 0.09708138 -0.07067265 -0.16332416
0002f0 3a bf 3b 3c 3b d0 62 3d f5 e4 b1 bb 1a e4 ca bc
       0.011459166 0.055374365 -0.005428905 -0.02476697
000300 25 47 08 be 5b ad 2b bd f2 c5 de bd 91 b3 7d bd
       -0.1330839 -0.04191337 -0.10877599 -0.061938826
000310 e6 e9 b1 3d 04 b8 59 3c 84 95 82 3d c6 bc c9 3b
       0.08687191 0.013288502 0.06376174 0.0061565368
000320 b6 4f 13 bd 29 10 95 3d 81 10 cd bd 22 36 76 bd
       -0.03596469 0.07278473 -0.100129135 -0.06011022
000330 3f 4c a4 3c 09 fa b0 3d 72 4a dd 3c 6f 6f 29 be
       0.020055888 0.086414404 0.027013037 -0.16546415
000340 31 65 46 bd 8b 16 cd bd 78 14 b0 bd 8a 64 43 be
       -0.048436347 -0.10014065 -0.08597654 -0.19081321
000350 26 81 32 3a 39 4d 47 bd 6b 94 6b be a6 37 47 bc
       0.0006809406 -0.04865763 -0.23005836 -0.012159264
000360 d0 86 b3 bd f2 bb 99 3d 61 99 2b be da 43 ac 3d
       -0.08765948 0.07506551 -0.16757728 0.08411379
000370 0e 86 96 3d 0f f3 95 bd 4a 95 6d bd b2 78 e3 bd
       0.07349788 -0.073217504 -0.0580037 -0.11107005
000380 9b e6 09 be 42 b5 2b 3d 59 cf 5e 3c 7c fc 82 3c
       -0.13466875 0.041920908 0.01359924 0.015989535
000390 b3 62 25 bd 2f 7d d6 3d 60 04 cf bc f5 6e 89 bd
       -0.04037733 0.104730956 -0.02527064 -0.067106165
0003a0 39 8a 78 bd a5 45 f6 3c f4 06 ba 3b d6 51 03 3d
       -0.060678694 0.030062506 0.0056770984 0.032060467
0003b0 22 ba db 3d 83 74 5d 3d 6c 2c 78 bd 4a 65 b7 bd
       0.107288614 0.054066192 -0.06058924 -0.08954866
0003c0 89 c2 df 3d 7c f0 7c 3d 9c 15 14 3e af 7b af bd
       0.109257765 0.06175278 0.14461368 -0.08568513
0003d0 e5 dc 80 3c ed cb d0 bc 0a 11 dd 3d 10 d7 02 3e
       0.01573033 -0.025487864 0.107942656 0.12777352
0003e0 53 17 80 bc 95 71 d7 bd 4d a1 ba 3d fd a2 73 bd
       -0.015636122 -0.10519711 0.09112797 -0.05948161
0003f0 df f0 0f be f4 44 c8 bd f3 4f 19 3e 97 88 9b 3d
       -0.14056729 -0.09778777 0.14971904 0.07594412

mlp.2.bias f4 [64]
000000 70 44 4b bd 36 3f 07 3e de 2c 6e bd d8 ff 84 3d
       -0.049625814 0.13207707 -0.058148257 0.06494111
000010 e3 41 39 bc a3 e2 c8 bd be 87 11 3d 9c e6 0a be
       -0.0113072125 -0.098088525 0.035529844 -0.13564533
000020 62 e5 86 3d 62 2e b8 3d 32 56 5c bd bf bb d2 3d
       0.0658672 0.08993222 -0.05379314 0.10289716
000030 fb ea 97 3d 3d 0a 3c bd d8 91 93 bd 3e ea 8c bd
       0.07417866 -0.0459082 -0.07205552 -0.06880616
000040 54 fd a6 3d 8a 80 89 bc 1e 06 8f bd 52 a9 85 bd
       0.08153787 -0.016784925 -0.06983589 -0.06526436
000050 cd 80 2c bd 57 31 43 3e fe 01 0e 3e e8 b6 0a be
       -0.04211502 0.1906179 0.13867947 -0.13546336
000060 3f f8 3a 3d a1 33 09 3e 4a e6 72 bd f2 43 49 bd
       0.045646902 0.13398601 -0.059301652 -0.049137063
000070 e2 1b ca bd 20 a1 e8 bd 23 5c 87 3d 8a 09 cf bc
       -0.098685995 -0.11358857 0.066093706 -0.025273103
000080 f1 dd 9e bd 31 1a be bd e7 3e 1c be 9b a0 0e 3e
       -0.07757176 -0.09282339 -0.1525837 0.13928454
000090 48 04 d7 bd 90 f1 0f 3d 46 81 35 3e f9 0b 42 3d
       -0.104988635 0.03514248 0.17725095 0.0473747
0000a0 5c a0 2b 3a 02 0f 64 bd 5e 80 10 3d b2 b4 8f bd
       0.0006547028 -0.055678375 0.03527867 -0.07016887
0000b0 7f 01 86 bd 33 a2 b2 3d d2 1d b3 3d f5 e0 3f bc
       -0.06543254 0.08722343 0.08745922 -0.011711349
0000c0 1f 1a e9 38 1a 54 ee 3d e7 6e 12 bd 22 f7 18 3e
       0.00011115171 0.11637135 -0.035750296 0.14938024
0000d0 7b e8 97 3d f9 50 ae 3d b0 4a 67 bd e5 86 1c 3d
       0.07417389 0.08511538 -0.056467712 0.038214583
0000e0 e0 e7 10 3d 32 7f c3 bd 9c 06 30 bc 74 cf ec 3c
       0.035377383 -0.09545745 -0.010743763 0.028907515
0000f0 ff 06 f2 bd 89 f3 8e 3d 56 b9 bc bd 10 b1 2d bc
       -0.11817741 0.069800444 -0.092150375 -0.010601297

mlp.4.weight f4 [1, 64]
000000 fd a6 3f be 2d 4d c8 3c 29 aa 74 3d 3a 46 d7 3c
       -0.18716045 0.024450863 0.05973259 0.026278604
000010 b1 62 59 3d ab 3b 29 be 74 b8 00 be 6a de 21 bd
       0.053072635 -0.16526668 -0.12570363 -0.03951875
000020 69 0c 98 bd ef 73 4c 3d f7 38 75 3d d7 e7 65 3d
       -0.07424242 0.04991525 0.05986878 0.056129303
000030 2c c6 10 bc 1e 20 ef 3c c1 2b ca bd 07 25 88 bd
       -0.00883631 0.02919012 -0.09871627 -0.066476874
000040 0f 17 c2 bd 0a 84 8d 3d df 1a 05 bd 46 ae 31 3c
       -0.09477054 0.0690995 -0.03249633 0.010844773
000050 dc 22 ce bd ba c1 a6 3d 26 4c cb 3d 97 ea 35 be
       -0.10065243 0.08142419 0.099266335 -0.1776527
000060 c5 86 bf 3c 91 a0 91 3d 27 82 c3 3d f1 d3 32 bd
       0.023379693 0.07110704 0.09546309 -0.043659154
000070 4b 05 f0 bd a2 4e f5 3c 9b 55 08 bd 77 1f cb 3c
       -0.117197596 0.029944722 -0.033284765 0.024795277
000080 b9 3d a6 3c 42 4f 34 bc 27 ee 14 bc 7c 7c a5 3b
       0.020293104 -0.011005225 -0.009089983 0.00505024
000090 09 77 9b bd 08 3f bf 3d 16 ff 75 3d 0d 40 b5 3d
       -0.075910635 0.09338194 0.060057722 0.08850107
0000a0 a8 00 03 3d b5 ce f5 3c 2a fe ae bd 68 db d1 bc
       0.031983048 0.030005792 -0.08544572 -0.025617316
0000b0 7d d4 4f bd 90 32 61 3d 7b ae a7 bc 1a 2d 15 3e
       -0.050739754 0.05497986 -0.020468941 0.14567986
0000c0 5f 1f 5a bd d2 be 11 3d e7 ad 4a 3b 6b 2d 2d 3d
       -0.053252574 0.03558237 0.0030926408 0.042279642
0000d0 06 9e 26 3e 4d 87 96 3d 6b 8c 6e 3d 66 8c aa 3c
       0.16271219 0.07350025 0.05823938 0.0208189
0000e0 e7 e9 9b 3d 3e 72 d0 bd d7 f2 05 3d 34 00 2f bd
       0.07612973 -0.1017804 0.032702293 -0.042724803
0000f0 a2 e9 01 3c ae 7c 90 3d cc 60 a8 bd be 17 aa 3d
       0.007929238 0.07055031 -0.082215875 0.0830531
