forecasting/midroll/dnn_model/model_1.ckpt (torch, 42071 bytes, 5 tensors)

mlp.0.weight f4 [64, 90]
000000 1d 70 d4 be ac 15 89 3e 28 e1 5e 3e 7f 6f 3a 3e
       -0.41491786 0.26774347 0.21765578 0.18206595
000010 d8 64 d1 3e b6 66 00 be ce a2 c7 be a5 3f ef 3d
       0.4089725 -0.12539181 -0.38991398 0.11682061
000020 28 87 64 bd c2 5d 8e bd 5b e3 43 be 94 94 75 bc
       -0.055792958 -0.06951477 -0.19129698 -0.014989037
000030 21 f7 66 3d d0 b7 c4 bc ea 0f 6d 3d 10 b5 94 bd
       0.056388024 -0.02401343 0.057876505 -0.072610974
000040 d2 15 e3 bc d8 18 44 bd f7 27 11 bd 14 f4 8a bc
       -0.027720366 -0.047875255 -0.035438504 -0.016962089
000050 c6 4d c6 3d 08 fe ee bc fe 13 e4 bd 13 81 3a bc
       0.09682803 -0.029173866 -0.11136626 -0.011383313
000060 2a db 17 be a6 b2 3d 3d ea 39 08 be 78 1e ba 3d
       -0.14829698 0.04631295 -0.13303342 0.09087843
000070 16 c0 11 3e 7e 0e fd bd da 4f 0a 3d e6 25 83 bd
       0.14233431 -0.1235628 0.03376756 -0.06403713
000080 3e 93 c5 bc a9 10 c5 bd e9 8b e0 3d 8b cc ce bd
       -0.024118062 -0.09622318 0.10964186 -0.10097607
000090 32 2b cc 3d b8 76 d6 3c 1c 23 74 be 09 de 71 bc
       0.09969176 0.026179656 -0.23841518 -0.01476241
0000a0 9f bf 70 3e b3 d2 03 be b3 8c ae bb 18 f6 00 3e
       0.23510598 -0.12873344 -0.0053268312 0.12593877
0000b0 08 45 1b 3b 2d 99 b2 bc ac 01 7a 3d 8b 6e 9b bd
       0.002369227 -0.021801556 0.06103675 -0.07589444
0000c0 39 25 08 3d 19 fa 59 bd 40 5f 36 3b bc d2 12 bd
       0.033238623 -0.053217027 0.002782777 -0.035845503
0000d0 6a 40 28 bd 2f 6d 34 bd bd 30 01 3d 41 88 73 3d
       -0.041077055 -0.044049438 0.03154062 0.059456114
0000e0 cf b0 ec 3c e1 1b a8 bd 28 d3 19 3c 56 6c bc bd
       0.028892903 -0.082084425 0.0093887225 -0.09200351
0000f0 0f de b5 bd c2 d1 06 bc b9 be 6b bd 1a 8e 2b be
       -0.08880245 -0.008228721 -0.057554934 -0.16753426
000100 1c 2d 7d be ac 1b 74 be 01 0b ee 3d fe f1 19 be
       -0.24724239 -0.23838681 0.116231926 -0.15033719
000110 f7 c6 15 bc 1e 50 6c bd 72 83 40 3b 38 45 8f bd
       -0.009141675 -0.057693593 0.0029375223 -0.06995624
000120 ae 54 24 be 6a e3 1e 3c 5b a1 26 bd 01 2f d3 3d
       -0.16047928 0.009697774 -0.040681224 0.103117
000130 51 65 98 3d 6c e6 13 3d 24 6a b5 3c fb 40 49 3d
       0.074411996 0.03610842 0.022145338 0.049134236
000140 5d 1d 2f bd ac e0 5e bd 23 f5 4f bd e8 37 db 3c
       -0.042752612 -0.054413483 -0.05077089 0.026760057
000150 dc 73 1f bd 30 e3 d4 bc dc 28 23 3d 84 92 03 3d
       -0.03892885 -0.025987238 0.03983389 0.03212215
000160 1c 84 a6 bd 5e 89 29 ba fa b1 ab bc 7e f3 04 bd
       -0.081306666 -0.00064673077 -0.02095889 -0.032458775
000170 12 ba 88 bb b2 f1 01 bd 43 a8 52 bd a1 b2 7b 3c
       -0.004172572 -0.03172464 -0.051429998 0.015362413
000180 3a a5 64 bd 0e 9a 5c 3d 00 dd 35 bc 90 b3 9f bd
       -0.055821635 0.053857855 -0.011100054 -0.07797921
000190 87 2d 6b 3c 2d 4a 90 3d bb 68 d2 3d cd 08 85 3d
       0.014354116 0.07045398 0.10273882 0.06495819
0001a0 ea cf 0f bd 5c 50 be 3d 7a 36 4a 3d 94 29 58 bc
       -0.03511039 0.09292671 0.04936836 -0.013193507
0001b0 7d 15 90 bd 53 65 9c bc dc 54 57 3d 7e 3e 9f 3d
       -0.070353486 -0.019091284 0.052571163 0.07775591
0001c0 58 1d 60 3d 95 42 82 bd 61 4b c7 3a 28 43 cc bd
       0.054715484 -0.06360356 0.001520496 -0.099737465
0001d0 b8 84 bb bb e9 aa 28 3d b5 b9 5c bd 53 a9 bf bd
       -0.0057226084 0.041178618 -0.05388804 -0.09358468
0001e0 75 9c 1c bd 0e 60 32 bd 50 b6 ab bd 11 46 e9 bd
       -0.038235147 -0.043548636 -0.08384383 -0.11390317
0001f0 5c 63 99 bd f9 46 5d 3c 00 52 c3 3d fd 33 2b bb
       -0.074896544 0.013505691 0.09537125 -0.0026123517
000200 9e 00 b9 3c eb b9 5f 3d 76 68 a8 3d 0e 01 ba 3d
       0.022583302 0.054620665 0.08223049 0.090822324
000210 6e 71 0d 3d 45 65 3f bd 5f ee 83 3d a5 fd d6 3d
       0.034532003 -0.046727438 0.0644195 0.104975976
000220 e4 29 e2 bb aa 9a ef 3d b0 ef 89 3c dd e2 ae 3c
       -0.0069019664 0.11699422 0.016837925 0.021348411
000230 dd aa cd 3d 19 cb dd bd cd cc eb bb c5 6e a7 3d
       0.10042355 -0.108297534 -0.007196045 0.081754245
000240 30 b3 f7 bc 89 2c 0b bd c6 7f c1 bd c7 4e 1b bc
       -0.03023681 -0.03397802 -0.09448199 -0.009479231
000250 35 aa 87 bd c6 b8 df bd 6e 0a dc bc a4 1f 38 3d
       -0.06624261 -0.109239146 -0.026860442 0.04495205
000260 6a a1 85 3d 56 c0 a2 bd aa 33 ce 3c b0 34 7a bd
       0.06524928 -0.079468414 0.02517112 -0.061085403
000270 49 89 14 3b 32 de 6f 3d 47 29 39 bd da 5c a6 3d
       0.0022664836 0.05856151 -0.04520538 0.08123179
000280 d7 ea 9d bd 51 6b 57 3d 38 16 d1 3d 2f ec 16 3d
       -0.07710808 0.05259258 0.10209316 0.036846336
000290 4f c2 46 3c ce b4 e7 3c a2 63 a5 3d 59 97 58 bd
       0.012131288 0.028284457 0.08075644 -0.05287871
0002a0 52 e5 4c 3d 30 24 48 3d ac 42 df bd 67 5f 16 bd
       0.050023384 0.048862636 -0.109013885 -0.036712077
0002b0 8d 76 29 bd 08 e7 bf 3d 84 b9 a4 3d 6e 76 6e bd
       -0.041372824 0.093702376 0.08043197 -0.058218412
0002c0 ec 5a a6 bd ae 29 1d bd 59 af fa bc 44 d2 ba 3d
       -0.08122811 -0.038369827 -0.03060119 0.09122136
0002d0 cc 05 ac be 8b d9 89 3e a5 d3 d3 3e f8 69 8b 3b
       -0.33598173 0.26923785 0.4137241 0.004254576
0002e0 d3 76 a2 3e d4 ae 4f be 30 92 b2 be f2 07 c3 3d
       0.3173128 -0.20281535 -0.34877157 0.09523
0002f0 9e 81 e2 bd 56 d2 44 3d 8f 81 f0 bd a1 fc 6d 3d
       -0.11059879 0.048052154 -0.11743461 0.058102254
000300 0b d6 7a bd 5f 8e 0d be f1 83 fb 3d 56 0c 7d bd
       -0.061239284 -0.13823842 0.12281025 -0.061779343
000310 a1 a7 b5 bd d1 54 9b 3b bd 08 91 bd 81 8e ef 3d
       -0.08869863 0.0047403355 -0.07081745 0.11697102
000320 3d 8d e6 3d a2 57 d2 bc 6e 83 1c bd 3b 50 d1 bb
       0.11257408 -0.025676552 -0.03821128 -0.006387738
000330 83 11 1d be 1f bd fc 3d 35 86 cb bd 83 8a 18 3e
       -0.15338711 0.123407595 -0.09937707 0.14896588
000340 11 d7 0f 3e 12 bf e0 bd c1 01 27 bc c1 cd 51 bb
       0.14046885 -0.10973944 -0.010193289 -0.0032013508
000350 92 84 55 bd 72 75 2a bd 16 86 34 bd 51 1c 0a bd
       -0.052128382 -0.04161591 -0.044073187 -0.03371841
000360 e0 73 51 3e 05 0a 0f 3d a1 0a 16 bd a1 88 bc 3d
       0.20454359 0.034921665 -0.03663123 0.092057474
000370 26 be 13 3e bf 61 1e 3c af 82 1e be 4c cf ae 3d
       0.14428005 0.009666859 -0.1547954 0.085356325
000380 3f cd 40 39 fc 63 f5 3c 8d 3e 12 bd 73 00 33 bd
       0.00018387007 0.029954903 -0.035704184 -0.0437016
000390 ad a2 6a bd 57 76 d5 bd d3 15 53 3c e4 8e 66 bd
       -0.057284046 -0.10422962 0.012883621 -0.056288615
0003a0 49 2d 2d bd 17 58 fc bd 85 b4 35 3e 39 04 d6 bd
       -0.042279515 -0.12321489 0.17744644 -0.10450024
0003b0 47 73 72 3c 04 df f0 3c a4 e1 23 bd 31 cc e6 3d
       0.014797992 0.029403217 -0.04001011 0.11269415
0003c0 45 43 fd bd 2c 31 2c 3e f8 11 7d be 85 59 0e bb
       -0.12366346 0.16815633 -0.24713886 -0.0021720838
0003d0 18 64 a4 be 87 c8 34 bd 3f d7 c5 3d b2 4c 5c be
       -0.32107615 -0.04413655 0.096601956 -0.21513632
0003e0 61 a4 3c bd ec 9c 4f bb bc 20 81 3c 36 96 66 3c
       -0.0460552 -0.0031679226 0.01576268 0.014073899
0003f0 df c9 b8 bc fc 3a 8a 3d 3f 64 81 3c 77 14 66 3e
       -0.022557197 0.067495316 0.015794871 0.22468744

mlp.0.bias f4 [64]
000000 7f 95 0c 3c 62 3a 3a 3d 7c 10 b3 3c 2f 26 61 bd
       0.0085805645 0.045465834 0.021858446 -0.054968055
000010 4c 2e 4b bd b7 44 a8 bc d2 1b dc 3b 75 d0 78 3d
       -0.0496047 -0.020540578 0.0067171836 0.060745675
000020 d8 75 95 3c c0 0f 37 bd 31 3b b9 3c b6 4a da 3d
       0.018244669 -0.044692755 0.022611232 0.10658781
000030 fe e0 62 bc a6 0d 01 3e bf 5f c6 bc 87 52 13 3d
       -0.013847588 0.12602863 -0.024215577 0.035967376
000040 26 0f 9e bd 6d 49 0e 3d ee 60 c7 bd ca b8 2a bc
       -0.07717733 0.034737993 -0.09735285 -0.010420034
000050 3a 9e 46 bc f0 dd a5 bd a1 d1 af 3c cb e1 62 bd
       -0.012122685 -0.08098972 0.021462264 -0.055391114
000060 04 74 80 3d 1d d5 72 3d 2e c6 4e 3d 81 6f e3 3d
       0.06272128 0.059285272 0.050481968 0.11105252
000070 70 8d 90 3d db 3d b4 3d 0f 3e 39 3d e6 12 81 bd
       0.07058227 0.088008605 0.0452252 -0.06302433
000080 06 53 17 bd 9f 67 8d 3d 76 f2 83 bd eb f9 d0 3d
       -0.03694441 0.0690453 -0.0644273 0.10203918
000090 6c f4 c7 bd 62 d7 f6 bc a2 9d 70 bd 97 f2 8d bc
       -0.09763417 -0.030132 -0.05874408 -0.01732759
0000a0 55 98 43 bc 8f 3c ca 3d c4 89 a8 3c ec a4 2b 3d
       -0.011938174 0.09874832 0.020573504 0.04190533
0000b0 dc 57 0a bc 33 99 44 bc 38 12 cc 3d 8c 0d 7c 3c
       -0.008443799 -0.011999416 0.099644125 0.015384089
0000c0 28 a8 c5 3c 5e b7 2a 3d 92 f3 02 3c 95 36 85 bd
       0.024128035 0.04167878 0.007992642 -0.06504551
0000d0 33 90 a1 bd 81 d4 b6 bd 1e ec b3 bd 7b 3e 82 3d
       -0.07888832 -0.08927251 -0.0878527 0.063595735
0000e0 72 eb 83 39 e3 78 51 bd 79 f8 e8 3c 1c ed 71 3d
       0.00025161688 -0.051140677 0.028438793 0.059064016
0000f0 3c 6a 8d bd 92 f4 d6 3d 64 7f 9d bd 2c a3 99 3d
       -0.06905028 0.10495867 -0.076903135 0.07501826

mlp.2.weight f4 [64, 64]
000000 7f 19 a9 3d 07 13 c3 bd 30 df 71 3e 02 36 a0 3e
       0.08256816 -0.095251136 0.23620296 0.31291205
000010 ff 30 43 3e 64 d9 3e 3d 2b bf 46 3e b2 3f ba bd
       0.1906166 0.04659404 0.19408862 -0.0909418
000020 4c f1 fa 3d 58 a4 8e 3e 6c 94 64 3d 69 a1 e0 3d
       0.12253055 0.2785976 0.05580561 0.109682865
000030 fe 6b b4 bc 4c 6d 5c bd 57 a6 b5 3e 22 14 d1 3e
       -0.022024151 -0.05381517 0.3547847 0.40835673
000040 94 43 c2 bc 06 ea bd 3b 35 f8 2d 3e 03 6d e3 3d
       -0.023713864 0.00579572 0.16989215 0.11104777
000050 16 80 d0 3e 36 90 a9 3e 67 a7 8c 3e 83 8b a0 bc
       0.40722722 0.33117837 0.27471468 -0.019597774
000060 bc 27 8e 3e b5 52 a4 3e 2f 7e d3 bd f8 20 23 3c
       0.2776469 0.3209435 -0.10326802 0.009956591
000070 28 96 8e bc 45 c9 17 3d bd a7 ad bd 69 fb e7 3d
       -0.017405584 0.03705718 -0.08479259 0.113272496
000080 64 ab 19 3b 3b 86 68 3e 1b ea 63 3b 83 5c 81 bc
       0.0023448104 0.22707455 0.003477699 -0.015791183
000090 e1 4e 86 3e 70 4c 56 3e 55 66 43 3e 1f e2 cf 3d
       0.26232055 0.20927596 0.19082005 0.10150551
0000a0 20 ac 48 3c f3 bf aa 3d 05 ee af bc 56 e0 01 3d
       0.012248069 0.08337393 -0.021475801 0.031708084
0000b0 35 be a7 3e 75 d0 88 3c 61 01 ee bd 67 39 f2 3d
       0.32762304 0.016700963 -0.11621357 0.11827355
0000c0 96 a2 9d bd 85 7c 91 bd a6 16 5a 3e ad c5 89 3d
       -0.076970264 -0.07103828 0.21297702 0.06727157
0000d0 8b c6 1c 3e 92 5d c9 3e c4 bf 99 bd 57 e8 4a 3c
       0.15310113 0.393292 -0.075072795 0.012384496
0000e0 3d d2 19 3e 2a cc 59 3e 39 f1 92 3d 15 d9 0c 3f
       0.15021606 0.21269289 0.07174916 0.5501874
0000f0 18 98 65 3b 55 3e ed 3d c4 97 05 3f 0a f4 2d 3c
       0.0035033282 0.115841545 0.521847 0.0106172655
000100 26 b4 42 3e 8f f1 97 3d dc 70 66 3e 87 7d dd 3d
       0.19014034 0.074191205 0.2250399 0.10814958
000110 00 cb 82 3e 5e c6 06 be c6 8f 95 3e e0 2f ef bd
       0.25545502 -0.13161609 0.29211253 -0.11679053
000120 11 4e 1e 3e 76 6a b2 3e 9e e9 3a 3e 73 53 28 bd
       0.15459467 0.34846848 0.1825318 -0.04109521
000130 e8 ad aa bb a0 da 7c 3a f9 b9 6e 3e 7f f3 cc 3e
       -0.0052087195 0.0009645615 0.2331313 0.40029523
000140 46 ef ec 3d 72 73 92 bb 5f d9 68 3c b9 cd 24 3d
       0.11569075 -0.0044693286 0.014211982 0.040235255
000150 4b b4 9e 3e 86 0a 8c 3e 8b 69 4b 3e 87 fa e9 3d
       0.30996928 0.2735178 0.1986448 0.114247374
000160 0b 61 1f 3d d8 b6 a5 3e 65 f7 e8 bd 0e 7f e6 3d
       0.038910907 0.3236606 -0.11375312 0.112547025
000170 a7 be d6 3d 90 f3 e5 ba 08 6a 14 bd 29 00 dd 3c
       0.10485583 -0.0017543901 -0.03623393 0.026977615
000180 b3 df 12 3d f3 c5 c5 3d 10 d0 72 3c 5d 08 39 3e
       0.035857867 0.096568964 0.014820114 0.18069597
000190 a1 d8 94 3e 5c bf 0d 3e 5d aa 38 3e b2 2a 04 be
       0.29071525 0.13842529 0.18033738 -0.12906912
0001a0 ba 54 a5 3d 9b 29 05 be ce 28 70 be d0 29 ad 3c
       0.08072801 -0.13004152 -0.23453066 0.021138102
0001b0 64 85 9a 3e 6f 21 ae be 4f 58 ae 3d 59 78 5f 3e
       0.30179894 -0.34009883 0.08512937 0.21823253
0001c0 f0 98 b1 3d 50 db d0 3d 61 61 96 3e e3 18 dd bd
       0.08671749 0.101980805 0.2937117 -0.107957624
0001d0 41 1b 66 3e fc e9 5a 3e 35 3d bb bc 69 02 9b bc
       0.22471334 0.2137832 -0.022856334 -0.018922048
0001e0 3f 1a 79 bc 3a c0 55 3e b3 72 85 3b 75 b5 38 3f
       -0.015204011 0.2087411 0.004072511 0.7215188
0001f0 b0 d0 a5 3d 05 25 29 3d 02 94 bb 3e c8 45 ea bd
       0.080964446 0.04129507 0.36636358 -0.11439091
000200 b9 a7 42 be ba 83 02 bd de e3 dc bd eb 9c 0e be
       -0.19009294 -0.031863905 -0.1078565 -0.13927047
000210 06 fa c4 bd d1 bd 51 bd dd dc 6f be 53 9b 74 3b
       -0.09618001 -0.051206414 -0.23424096 0.0037324026
000220 bf c1 d6 3d c0 5a 20 be 86 da 07 be 44 84 4d bd
       0.10486173 -0.15659618 -0.13266954 -0.050174966
000230 ef 14 95 bc 15 57 4c 3d 9e 00 90 be 43 03 b6 bd
       -0.018198458 0.049887735 -0.2812547 -0.08887341
000240 91 6f 20 3e 80 73 0a bd 28 6d 84 be f8 63 e4 3b
       0.15667559 -0.033801556 -0.2586453 0.006969925
000250 c5 ad 99 be 01 fb 45 be 05 54 51 be e9 35 3c be
       -0.30015388 -0.19334032 -0.20442207 -0.1837994
000260 4b 7a 8e 3e 0e 5d 13 be 8e db dd 3d f3 c5 99 bd
       0.27827677 -0.14390966 0.10832892 -0.07508459
000270 8c 60 82 be 54 e4 ac bd 03 a6 55 3c c8 e9 0b bc
       -0.25464284 -0.08441988 0.013040069 -0.0085396245
000280 0f 27 2c be f8 92 a4 bd 61 a6 a9 3d 27 86 3b bd
       -0.16811775 -0.080358446 0.082836874 -0.045782235
000290 71 ee 2c bd e4 84 bd bc 5a c4 95 be b6 64 ea bd
       -0.042219583 -0.023134656 -0.29251367 -0.1144499
0002a0 04 41 23 bd 9a 5c 74 be f8 d9 2b be 22 94 41 be
       -0.039856926 -0.2386345 -0.16782367 -0.18904164
0002b0 eb 5b 3e be 57 df 16 3e 37 45 4e be 3f a8 04 be
       -0.18589751 0.14733635 -0.20143591 -0.12954806
0002c0 cc 9a bd bb ab 29 aa 3d 92 ce c1 3e 6f 49 ce 3d
       -0.0057862755 0.08308729 0.37852913 0.100726
0002d0 d2 21 ad bd 73 82 a0 bd 0e 11 92 bc 6b e0 76 3c
       -0.08453716 -0.07837381 -0.017830398 0.015068154
0002e0 75 87 33 be 0e 02 89 be 55 11 3f ba b6 eb 1a 3f
       -0.17532142 -0.2675938 -0.00072886545 0.60515916
0002f0 e1 b3 1c bd 41 7d 04 be 3c 4f 2e 3d 10 ae bc bd
       -0.038257483 -0.12938406 0.042556033 -0.09212887
000300 6e 2e 96 3d 35 a4 81 3d f1 86 04 be 38 b6 13 be
       0.073330745 0.06330148 -0.12942101 -0.1442498
000310 a9 f6 58 bd 5b 7d d1 3c 19 8d c3 bc b0 9a 6b 3d
       -0.05296961 0.02557247 -0.023870992 0.05752057
000320 bf b7 2f 3d ba 63 8f 3d 61 b1 6b 3d de 45 b3 3d
       0.042899843 0.07001443 0.05754221 0.087535605
000330 ec 0b bf bd b4 e5 3a bd 2d 7f 00 bd 17 06 15 bd
       -0.09328446 -0.04562922 -0.031371284 -0.03638276
000340 8f 13 e2 bd 64 ab a5 bd 07 ea 20 3c 5f ad 9e 3d
       -0.11038887 -0.08089331 0.0098214215 0.07747912
000350 dd 8b 21 3d cd 93 b6 3d 42 76 90 3c 82 bd 1b 3d
       0.039440025 0.089149095 0.017634515 0.038022526
000360 b8 e5 05 be 6e 0f 66 bc 82 03 1d bc d8 f4 96 3d
       -0.13075912 -0.014041765 -0.009583356 0.07370919
000370 06 84 4e bc ad b8 d6 bd e4 98 16 bd 42 b3 20 be
       -0.012604719 -0.10484443 -0.0367669 -0.15693381
000380 d8 bf ee bd 71 99 64 3b aa 66 58 bc 98 d2 e0 bd
       -0.11657685 0.0034881497 -0.013208071 -0.109776676
000390 85 6c 8f bd 9d bf 9a 3d 76 51 1d 3d 22 e0 01 3d
       -0.0700312 0.075560786 0.038407765 0.03170789
0003a0 6e dc d3 bd 46 2d e9 bd 34 e5 d8 bd c3 27 a5 bd
       -0.10344778 -0.11385588 -0.10590592 -0.080642246
0003b0 7b 96 a6 3c cb 20 c1 bd 0c 5d 91 3b 7f fb 99 3d
       0.020335427 -0.09430083 0.004436141 0.07518672
0003c0 5e 4a d0 bd e4 b0 6a 3d c2 80 f4 bb e3 b2 16 3b
       -0.101704344 0.057297602 -0.007461638 0.0022994808
0003d0 3b 32 ce 3d a3 87 e0 3c 51 52 fc 3c 0e 38 fe bd
       0.100681745 0.027408427 0.03080097 -0.12413035
0003e0 8c 2f 10 bd 83 a2 b9 3d f5 c7 9c bb 03 d2 12 3c
       -0.035201594 0.090642 -0.004784579 0.0089612035
0003f0 a0 94 ad bd 6b 57 5f 3d ee e4 e0 bc e6 f0 11 bc
       -0.084756136 0.054526728 -0.027452912 -0.008907532

mlp.2.bias f4 [64]
000000 3f e6 4f 3c a2 7a e4 bc 5b ec ab 3c b8 50 e0 bd
       0.012689172 -0.027890507 0.020986727 -0.10952896
000010 d2 b8 29 3d bf eb 9c 3d b4 1c 42 bd 20 29 ff bb
       0.041436024 0.076621525 -0.047390655 -0.007786885
000020 3f 63 c2 bc ea d9 40 3e 1a 58 83 bd 1b 07 e7 3c
       -0.023728965 0.18833128 -0.064132884 0.02820163
000030 f6 3e 9d 3c 13 a7 57 bc 68 47 92 3d a8 f1 e6 3d
       0.019195061 -0.013162392 0.07142526 0.11276561
000040 bf 08 f2 bd c3 5c 95 3c 8f af 1e bd bf f2 0e 3e
       -0.118180744 0.018232709 -0.038741644 0.13959788
000050 c9 8a 98 3d d6 6b a9 3d 25 f6 ba 3c 64 3f d8 3d
       0.07448346 0.08272521 0.022822449 0.10558966
000060 03 ce 04 3e de f1 0e 3e fc 3f 03 be d6 7c 22 bd
       0.12969212 0.13959453 -0.12817377 -0.039669834
000070 37 9e 98 bb e0 d3 d8 bb f0 df 75 3d 9c c2 61 3e
       -0.0046575326 -0.0066170543 0.060028017 0.22046894
000080 90 30 ba bc 07 ba 9c 3c bb 01 6e 3e 52 ab 98 3d
       -0.022728235 0.019131673 0.23242848 0.07454552
000090 c4 6b b9 bd 78 60 06 3d 3a 8e b1 3d 50 af 57 3e
       -0.09053758 0.032806844 0.08669706 0.2106297
0000a0 fa 0d 22 3e fb 13 5a 3e 91 51 60 3e 6b c4 b4 3b
       0.15825644 0.21296684 0.21906115 0.005516579
0000b0 a0 67 b6 bc 98 51 a6 3d a8 d0 a0 3d d0 e0 8c bc
       -0.02226621 0.081210315 0.07852298 -0.017197043
0000c0 01 8d e9 3c 15 1a b1 3d 2f 7c 01 3e 1b 8d 84 3d
       0.028509619 0.08647553 0.12645029 0.06472226
0000d0 c4 89 eb 3d 98 19 26 3e 0a 22 1c bc fe 63 81 bd
       0.11500886 0.162207 -0.0095296 -0.063179
0000e0 fa d2 fa 3d 58 42 34 3e 37 26 b0 bd 3b 3b c9 3d
       0.12247272 0.17603433 -0.08601039 0.098257504
0000f0 75 f6 04 3e d9 17 8d bd ab a8 85 bd ac 9b bc bd
       0.12984641 -0.06889314 -0.065263115 -0.092093796

mlp.4.weight f4 [1, 64]
000000 41 4e 82 3e fc 3b a3 3e 2d 85 21 bf 0a 50 b2 bd
       0.25450328 0.31881702 -0.63093835 -0.087066725
000010 59 66 a0 3e a3 f1 46 3e cf e9 4a bd 8f a5 cc be
       0.31328085 0.19428115 -0.049539384 -0.3997006
000020 46 50 5b bd 7a 81 3d 3e 67 29 d2 bd 3a 3d 7b 3e
       -0.05354335 0.18506423 -0.10261803 0.24535075
000030 df 24 02 bf 20 55 95 bd e3 be 35 3e 62 f7 58 3e
       -0.5083751 -0.07291627 0.17748599 0.21188119
000040 ae 23 9d bc 9d 40 25 3e 32 5f 93 bd f4 c6 1f 3e
       -0.019182052 0.1613793 -0.071958914 0.15603238
000050 35 1a 86 be f6 fb 79 bc a9 60 6d bd c7 e6 70 3e
       -0.2619187 -0.015257826 -0.05795351 0.23525535
000060 9d 2a 64 3e da 7e 75 3e 26 9a a0 bd 5d 03 08 bd
       0.2228188 0.23974171 -0.078419015 -0.033206332
000070 0d fb c5 bc da 78 01 bf 56 20 f7 3d 07 0a 3d 3e
       -0.024167562 -0.5057503 0.120667145 0.18460856
000080 1c b1 fe be b6 04 d0 bd a2 e6 73 3e 8d 75 65 3e
       -0.497445 -0.101571485 0.23818448 0.22408123
000090 f3 4e 76 bf 7d 80 7f 3e d7 10 1a bd 1e 0e 77 3e
       -0.96214217 0.24951358 -0.037613716 0.24126479
0000a0 1d 70 5b 3e e2 25 84 3e 3c f3 3e 3e c9 fe 8c bc
       0.21429487 0.25810152 0.18647474 -0.017211335
0000b0 ad 3f 3d 3e 2b 1d 9d 39 1f 79 c3 bd 4e c9 8d bd
       0.18481322 0.00029967105 -0.095445864 -0.069231614
0000c0 36 fa 43 3a fa cf 63 3e 08 26 33 3e 3e 5b b7 bd
       0.0007475944 0.22247306 0.17494977 -0.0895295
0000d0 5b 9c a8 3e d8 57 65 3e f9 b1 2f 3e d8 f1 da bc
       0.3293179 0.22396791 0.17157735 -0.026726648
0000e0 7f e0 5d 3e 80 c2 4a 3e d9 c1 14 bc 8f 4c d1 bd
       0.2166767 0.19800758 -0.00907942 -0.102196805
0000f0 65 09 4b 3e 23 47 49 bf 56 cc 52 bd c1 ae 9d 3c
       0.19827802 -0.7862417 -0.0514644 0.019248368
