forecasting/midroll/dnn_model/model_0_ofac2023.ckpt (torch, 42527 bytes, 5 tensors)

mlp.0.weight f4 [64, 90]
000000 73 6d b4 3d 9c 4d 17 bd 88 ef ba 3d 80 fc a4 bd
       0.08809938 -0.03693925 0.09127718 -0.08055973
000010 f6 2c 93 bd c5 48 3c bd da f3 3e 3d c1 ff 5a 3d
       -0.0718631 -0.045967836 0.046619274 0.053466562
000020 0a 5a f4 bb d6 29 6c bd b3 f2 3b bb 27 f5 e7 3d
       -0.0074570226 -0.057657085 -0.0028678596 0.11326056
000030 98 7e b5 3d 99 78 c5 bd 17 75 e9 3d 48 05 ad 3d
       0.088620365 -0.09642143 0.11399286 0.08448273
000040 b1 d6 dd bd 33 fc ad bc 4f 1b 11 bd e2 39 bd 3b
       -0.10831965 -0.021238422 -0.035426434 0.0057747224
000050 cf ff 9e bd a5 f2 16 bd ca ab 6d 3d 26 4b 06 3e
       -0.07763635 -0.036852498 0.05802516 0.13114604
000060 81 7e 84 3d fc 7d 99 bc 4b 51 a6 3d 49 8b 98 bb
       0.06469441 -0.018736832 0.08120974 -0.004655276
000070 a2 28 5f bc c7 bf 16 3c 9e fd db bd 28 5a 4d bb
       -0.013620527 0.009200997 -0.10741733 -0.0031334255
000080 a8 fb 53 bd 69 75 0e be cc e6 63 3d 67 ee 9c bb
       -0.05175367 -0.13911976 0.055640027 -0.004789162
000090 c4 e8 5d bd 93 5f 8a 3c 7f c9 05 bd 60 33 86 bd
       -0.05417706 0.016891276 -0.032662865 -0.06552768
0000a0 9d e4 67 3d d5 55 a2 3d 25 43 fc 3d 89 82 1e 3e
       0.056614507 0.079265274 0.12317494 0.15479483
0000b0 17 95 f7 3b 99 5c e9 3b 55 89 93 3e 17 22 e9 be
       0.0075556147 0.007121634 0.28815714 -0.4553382
0000c0 6c 99 1e be ff 8e 3a 3d f1 58 19 3d 15 1f a6 3d
       -0.15488213 0.045546528 0.037438337 0.08111397
0000d0 30 cb 72 3d 11 65 bc bc 0b 17 eb 3c 00 93 07 be
       0.059275806 -0.022997411 0.028697511 -0.1323967
0000e0 26 02 f5 3c 05 b1 30 be 1b c4 8c 3d 82 34 26 bd
       0.029908251 -0.17255028 0.06873342 -0.04057742
0000f0 11 82 6e be 98 50 f3 bd 2e 24 ba bc e8 bc 46 ba
       -0.23291804 -0.118806064 -0.02272233 -0.000758125
000100 70 c3 b3 3e 5d a3 4a be 0f e4 6f bd 5f ff 30 bd
       0.35110044 -0.1978888 -0.058567103 -0.04321229
000110 b8 6c 4c bd 30 04 6e bd d9 9e f9 3c e0 d8 81 3d
       -0.04990837 -0.058109462 0.030471252 0.06340194
000120 ca e3 7f bd 8d 67 ec bc c9 cb f9 bd 18 6f 38 3d
       -0.062473096 -0.02885797 -0.12197072 0.045027822
000130 fb 27 3a 3c f2 98 dd 3d ee ec 6e 3d e1 ba 37 3e
       0.011362071 0.10820188 0.058331423 0.17942382
000140 8f 1d 22 3c 7d 47 1a 3c 5e 78 0c bd be 6b b6 3d
       0.009894743 0.009416458 -0.03429448 0.08907269
000150 ff 02 f0 bc e2 ea 97 bc fd c5 86 bd 4d 41 a1 3b
       -0.029298304 -0.018544618 -0.06580732 0.0049211145
000160 dd c9 0a 3e 9b 2a d9 bb 67 7a c3 3d 30 17 e1 3d
       0.13553567 -0.0066273934 0.09544831 0.10990751
000170 89 2b ee 3d 4b 88 16 bd 6a ca f2 3d 47 e0 b6 bd
       0.116293974 -0.036751073 0.11855014 -0.08929496
000180 1c 20 f3 bc 98 6a ac bd 07 d6 8d bc 52 2a dd 3b
       -0.029678397 -0.08418769 -0.01731397 0.0067494297
000190 09 36 ca 3d c3 1d 12 3e 6e e4 56 bd 94 ee 7d 3d
       0.09873588 0.14269166 -0.05246394 0.061995104
0001a0 3e 98 b3 3d 88 ec c0 3d f2 80 35 3c bd 6f d7 bc
       0.08769272 0.09420115 0.011078106 -0.026298398
0001b0 39 6c 9e 3d 1e b7 9c 3d ef 2c fa 3d d5 5b b7 3c
       0.077354856 0.07652114 0.12215602 0.022382656
0001c0 26 ac 47 3d 5b e0 17 bd 9b ec 27 bd b1 49 af bd
       0.048748158 -0.037079196 -0.04099713 -0.085589774
0001d0 26 4b a6 3c e4 81 cb bd 10 8a aa ba 1d 56 e4 bd
       0.020299505 -0.09936884 -0.0013011117 -0.11149237
0001e0 f7 43 73 3d 87 3c 30 3e 02 32 35 3e c3 e9 49 3e
       0.05939099 0.1721059 0.17694858 0.1971808
0001f0 72 ec 8d bc f2 46 79 be 22 c0 a2 bc 33 d2 d3 bd
       -0.01732466 -0.2434347 -0.019867007 -0.10342827
000200 e6 9b 75 3d 45 ea cd bd 9c 2e df 3d 77 85 1d 3d
       0.05996313 -0.10054449 0.10897562 0.03845736
000210 78 07 b9 bd 39 41 ee bd d8 1e b4 bc ea 3c 4b bb
       -0.09034628 -0.11633534 -0.021987364 -0.003101165
000220 e5 48 18 be 62 6a 11 3e e2 45 8d 3d c6 8e 6a 3d
       -0.14871557 0.14200738 0.06898095 0.057265066
000230 b2 c7 b2 bd d6 ea 64 bc fd 3a b9 3c e9 43 6d bc
       -0.08729495 -0.013972005 0.022611136 -0.014481523
000240 65 3e 95 3d 1f d6 a1 3d 49 15 8f 3c f2 9e 93 bb
       0.072872914 0.079021685 0.017466204 -0.0045050317
000250 1e 7d 90 bd 31 55 d9 bd 95 d4 28 be 35 ed 50 bd
       -0.07055114 -0.10611952 -0.16487344 -0.05100747
000260 a4 1a 26 3e e9 97 06 3e 28 d4 19 3d 28 da 21 be
       0.162211 0.13143887 0.037555844 -0.15805876
000270 c5 7b de 3d cd 70 e7 bd ff b6 97 3c a3 0e a5 bd
       0.10863451 -0.11300812 0.018519877 -0.08059432
000280 28 81 6c bd a0 ba d8 3d b4 d3 67 3d ba 08 94 bd
       -0.05774036 0.10582471 0.05659838 -0.07228227
000290 7e e4 6c 3d 38 d5 0e bd b6 70 11 3d 52 65 4c 3d
       0.057835095 -0.03487131 0.03550788 0.049901314
0002a0 02 4d 00 bb 45 4a 18 3e f0 48 6a bc 03 1e b2 bd
       -0.001957715 0.14872082 -0.014299616 -0.086971305
0002b0 e2 af 24 3e b8 a5 86 3d d4 e0 d6 3c 92 1d ae ba
       0.16082719 0.06574577 0.026230253 -0.0013283959
0002c0 b4 df 0b 3e 8d 77 af ba 31 8b ea bd 1c ac e1 3d
       0.13659555 -0.0013387069 -0.1145233 0.110191554
0002d0 c7 23 2c bd 07 86 05 3e 12 84 cd bc 6a b9 76 3b
       -0.042026307 0.13039409 -0.02508739 0.0037647136
0002e0 a4 3b d5 bc c5 38 46 3d 68 7e 26 3d e6 8b 6e bd
       -0.026029415 0.048393983 0.040647894 -0.058238886
0002f0 ba f2 04 3d 22 0b d8 3c d8 f5 36 bd dd 31 9a bd
       0.032458045 0.026372496 -0.04466805 -0.07529042
000300 66 e0 f1 bd b1 26 a3 3d 1b a3 92 bb 8a c3 d5 bd
       -0.11810379 0.07966364 -0.00447501 -0.10437687
000310 aa f4 70 bd 41 c7 57 bc fc 89 33 3b 17 f2 5c bd
       -0.05882708 -0.013170064 0.0027395478 -0.053941812
000320 3a 18 90 bd fc 48 b4 bd 97 10 e2 bd 73 a4 49 3d
       -0.07035871 -0.08802983 -0.110383205 0.049229097
000330 44 da ef 3c 96 c6 94 bd dc b8 67 3c 73 46 39 bd
       0.029278882 -0.0726444 0.014143195 -0.0452332
000340 46 60 59 3b e8 17 7b 3c f9 58 e9 bc 16 6d d0 bc
       0.0033168956 0.015325524 -0.028484808 -0.025442641
000350 f9 61 17 3d 24 1f 13 bc da 04 cd 3d 6b d9 b1 bd
       0.03695867 -0.0089795925 0.10010691 -0.08684047
000360 f0 63 b2 bd dd 9b 97 bd 15 8a 17 3d 17 9c ba bd
       -0.08710468 -0.074027754 0.03699692 -0.09111803
000370 3d 99 be 3d b9 5d 68 3d cb 29 10 be f9 4d 66 be
       0.09306572 0.056730006 -0.14078443 -0.22490682
000380 2f 37 11 3e 8f 66 5a bc af c8 1b be d1 9e 60 3e
       0.14181207 -0.013330116 -0.15213273 0.21935584
000390 bb c2 5d bd da 3b b1 3d c7 89 8c bd fb 1e 48 bd
       -0.054140788 0.08653994 -0.068622164 -0.04885767
0003a0 bf 70 1a 3b 42 c9 d6 bd 15 b1 90 bd 78 46 e6 3d
       0.0023565737 -0.10487606 -0.07065026 0.112439096
0003b0 ba 5c 66 be 93 a6 39 be 8b f4 42 bd 6f e3 a8 bb
       -0.2249631 -0.1812995 -0.047596496 -0.0051540653
0003c0 95 6a 15 3e dc 20 26 bd a0 b0 86 be be 2b 1b 3d
       0.14591439 -0.04055868 -0.2630663 0.037883513
0003d0 04 38 ae bd 18 c5 a6 bd 5f e2 88 3c ed 4f 1e bd
       -0.08506778 -0.081430614 0.016709505 -0.038650442
0003e0 5e 96 8b 3d 3e 24 2b 3d 7f 86 cc bd 6d 18 30 bd
       0.0681579 0.04178261 -0.099865906 -0.042992044
0003f0 29 46 57 3d b1 d2 18 bd 68 40 09 3c 87 58 6b bd
       0.052557144 -0.037310306 0.008377172 -0.057457473

mlp.0.bias f4 [64]
000000 d6 0f 51 3d 9f 8d 01 3d 0b 12 21 bd 35 7b 0a bc
       0.051040493 0.0316292 -0.039323848 -0.008452226
000010 3d 85 a2 3d 24 c7 f4 3c 8a 77 82 3d c9 43 17 bd
       0.079355694 0.029880114 0.063704565 -0.03692988
000020 0e 7d e0 bc dd e8 9d bd bf 87 55 bc f2 db b5 bd
       -0.02740338 -0.07710431 -0.013032853 -0.08879842
000030 1d 29 9e 3d 3a ba e4 bd f8 8e 82 3b 3e 5e 21 bb
       0.077226855 -0.111683324 0.0039843284 -0.0024622823
000040 47 37 65 3d 66 bb e0 bc 48 bd 8a bd 5e 33 93 bd
       0.05596092 -0.027433109 -0.06774384 -0.07187532
000050 7d f4 87 3d b6 17 5c bd 0d 48 ad 3d 94 f8 ea 3c
       0.06638429 -0.05373355 0.08461008 0.028682984
000060 43 18 e1 3c 13 5c 09 3a 76 fc 27 bd f0 ea 73 3c
       0.02747739 0.00052398554 -0.04101225 0.014887556
000070 39 a4 eb bd 5f c5 00 3d 78 a4 ac 3c 63 da cb bd
       -0.11505932 0.031438228 0.021074519 -0.09953763
000080 58 9e 49 bd 97 2b b1 3c 2b bd 87 3d a4 61 24 3d
       -0.049223274 0.02162723 0.06627878 0.04013218
000090 dc c7 e8 bd cf 1b ca bd 89 ee 01 bc 6d 7a 5d bc
       -0.11366245 -0.09868585 -0.007930406 -0.013517958
0000a0 a1 27 0a 3d 5a 12 11 bd e0 7e 43 3d ff 97 f0 bc
       0.0337292 -0.035417892 0.04772842 -0.029369352
0000b0 c2 96 af bc cd 61 a8 3d 48 ef de 3b 15 30 82 bd
       -0.021434192 0.08221779 0.006803427 -0.06356827
0000c0 a2 e8 3f bd 6e db ad bd c1 9d 06 be 35 2d 68 bd
       -0.046852715 -0.084891185 -0.13146116 -0.056683738
0000d0 42 83 cc bd a5 a3 fc bc d2 4f 50 bd 22 57 2a 3d
       -0.09985973 -0.03083975 -0.050857373 0.041587003
0000e0 54 e9 c0 3c 2c da d5 3d a2 00 b5 bd 6e cb c4 bd
       0.02354876 0.104420036 -0.08838011 -0.09609114
0000f0 dc a9 17 3c 00 f8 be bd b3 c7 82 bd 59 f8 e6 bc
       0.009256806 -0.09324646 -0.06385746 -0.028194593

mlp.2.weight f4 [64, 64]
000000 25 72 96 be 9f 94 ab bc 5b 35 09 3e 77 b5 3a bc
       -0.2938396 -0.020944891 0.1339926 -0.011395804
000010 d4 30 13 3d 60 dc 12 be 8a a7 4d 3d 8d 43 48 be
       0.035935238 -0.14341879 0.050208606 -0.19557019
000020 b7 c6 97 bd 21 ba b7 bc 32 1e 5f bd 28 da 72 bd
       -0.07410949 -0.02242762 -0.054472156 -0.05929008
000030 00 71 b8 bc c7 74 f8 3d 8c 0d 6c 3d 89 64 45 bd
       -0.02251482 0.121316485 0.057630107 -0.04819158
000040 20 63 62 3d 25 12 11 3c 13 f7 04 3e 45 8c 39 bd
       0.055270314 0.008854424 0.12984876 -0.045299787
000050 1b 34 39 3c 10 f4 69 bc 74 47 91 bd 9b 53 8c bd
       0.011303927 -0.01427938 -0.07093707 -0.06851884
000060 c7 de b3 3c e8 e0 69 bd ab e9 4e be ed 03 f8 3d
       0.021956814 -0.057099253 -0.20206325 0.12110124
000070 be b0 a4 3d 93 0f 27 bc 48 08 88 bd 77 67 0b be
       0.080415234 -0.010196584 -0.066422045 -0.13613687
000080 11 3f 63 be ba 96 ff 3d 4a 0c d4 3c a1 58 c9 3d
       -0.22192027 0.12479921 0.025884766 0.09831358
000090 9f bf 8f 3c 90 b1 ca 3d 30 16 ae bd fe 89 1c bd
       0.017547427 0.098971486 -0.08500326 -0.038217537
0000a0 ad 34 05 bd cf a4 1f 3e 9c 1b 02 3e 55 bb 0a 3e
       -0.03252094 0.15590213 0.12705845 0.13548024
0000b0 e8 c0 a4 3d 1a 2e 06 be fb f7 11 3e 15 de 07 bd
       0.080446064 -0.13103524 0.14254753 -0.03317078
0000c0 4c 09 a6 bd 37 7d 2d bd 8e cc 21 3c 62 e8 a9 bd
       -0.08107242 -0.042355742 0.00987543 -0.08296277
0000d0 c7 08 fb 3c ef 2a 7a 3d b2 cb 9b 3d 44 83 0b be
       0.030643834 0.0610761 0.07607211 -0.13624293
0000e0 3e e0 23 3e 7b e2 c0 bd ba b7 eb bd 90 65 8d bc
       0.1600351 -0.09418198 -0.115096524 -0.017260343
0000f0 f4 f6 8d bd c0 c2 8d bc e8 a0 51 3c b9 ce 83 bd
       -0.06931868 -0.017304778 0.012794711 -0.064359136
000100 d4 36 ab bc 5d 82 db 3c 9e 4d e9 bd 28 d6 8f bd
       -0.020900168 0.02679556 -0.113917574 -0.07023269
000110 5b 37 ca 3b 4c 09 9e bd 2a 7b c3 3d 34 88 bc 3d
       0.0061711497 -0.07716617 0.09544976 0.09205666
000120 78 8f 72 bd 23 69 2b be 69 e4 87 bd b3 ba 6f bc
       -0.059218854 -0.16739325 -0.06635363 -0.014631915
000130 31 5e df bd a8 45 a3 bd 47 e2 29 3e 2f 22 3d 3d
       -0.109066375 -0.0797227 0.16590224 0.04617518
000140 a3 c0 62 bd 30 d6 85 3e e4 83 a6 bd 35 8b de bd
       -0.055359494 0.26139975 -0.08130625 -0.108663954
000150 19 6d 0e 3e 90 54 4b be 91 d0 4e 3c 47 3d 66 3d
       0.13908805 -0.19856477 0.012622968 0.056210782
000160 3f 7b 35 3d 37 0a 4c 3e 8f 35 86 be 65 92 ce bd
       0.04430699 0.19925772 -0.26212737 -0.10086516
000170 f0 82 c2 bc dc cd 89 3c 5f f0 ea bd fa 33 4f be
       -0.023744076 0.016821794 -0.114716284 -0.20234671
000180 87 37 ce bd 00 ae 78 3d 4b 7a 3e be db 73 83 bd
       -0.10069185 0.060712814 -0.18601339 -0.06418582
000190 0d f4 ce 3d 85 93 66 bd 71 ea 90 3d d9 e9 ea bc
       0.10105143 -0.05629303 0.07075966 -0.02867596
0001a0 63 ff 4a be ee 9b 0e 3d 05 a3 e6 bd 93 c3 c8 3d
       -0.19823985 0.034816675 -0.11261562 0.09802928
0001b0 54 31 b2 bc d1 f6 89 be d8 73 1c bb 21 e0 2f be
       -0.021752037 -0.26946118 -0.002387276 -0.17175342
0001c0 c1 dc 02 be ef 8b cc 3c 10 eb 10 3e 24 9d b9 3d
       -0.12779523 0.02496907 0.14152169 0.09063175
0001d0 aa 8b 7e 3d b5 c2 8b 3d 6c 5f 0e be 89 84 1c be
       0.062144913 0.06824247 -0.13903588 -0.15284933
0001e0 f8 5e e2 bd f1 95 94 3d 57 b6 95 3d 3b 30 ce 3d
       -0.1105327 0.072551616 0.07310169 0.10067793
0001f0 30 56 17 bd e5 8a 38 be 70 64 ab bc 47 1a 82 3d
       -0.03694743 -0.18021734 -0.020921916 0.06352668
000200 c5 2e ca 3d 5e 99 37 3d 6e db d5 3d 56 5a 95 bd
       0.09872202 0.044823997 0.104422435 -0.07292621
000210 67 22 81 3d fe f5 62 3d 5e f3 aa 3c 49 4f a2 3d
       0.0630539 0.055410378 0.020868 0.07925279
000220 de 88 c7 3d 2a 6c 21 3d 18 35 d3 3d 8f dd b0 3b
       0.09742902 0.039409794 0.10312861 0.0053975056
000230 8f 8c 12 bd b7 12 7f 3c 68 3f 4f 3d 2f c3 27 bd
       -0.03577858 0.015568427 0.05059758 -0.040957626
000240 12 a6 2a 3d 3c d5 a4 bd d0 b7 ae 3c 59 cb 87 3d
       0.041662283 -0.08048484 0.021327883 0.06630582
000250 b5 ab 0e bd 37 3a 15 bd 26 82 81 bd 83 70 43 3d
       -0.03483172 -0.03643247 -0.06323652 0.04771472
000260 7b 01 ef bc a5 07 d0 3d bd 91 16 bc ab 84 d5 3c
       -0.02917551 0.10157708 -0.00919002 0.026064238
000270 07 79 a2 3d bb f1 1f 3c ac 0b c9 bd 86 55 b3 3d
       0.079332404 0.009762223 -0.09816679 0.08756547
000280 07 7e 50 bd 50 9a 26 bd b7 c8 9e bd 6c db 15 bd
       -0.05090144 -0.040674508 -0.07753127 -0.03658621
000290 92 15 d9 3d 23 56 e1 3c 28 45 61 bd 39 4c a0 3d
       0.10599817 0.027506894 -0.054997593 0.07827038
0002a0 05 d5 ce bd a9 6f e5 bc 86 11 7d 3d d5 ce 62 bd
       -0.10099224 -0.028007345 0.06178429 -0.05537303
0002b0 72 25 85 bd d8 a3 78 bd 4a ef 05 bd 45 6f a8 bc
       -0.06501283 -0.06070313 -0.032698907 -0.02056087
0002c0 c6 0b cc 3c d2 b8 51 bd 93 6e 53 3c ab 96 b1 3c
       0.024907958 -0.05120165 0.012904781 0.02167829
0002d0 29 18 88 3d c5 7c 06 3d 13 2d 2e bc e6 d5 f5 3d
       0.06645233 0.032833833 -0.010630864 0.120036885
0002e0 69 04 ae bd 85 49 37 3d da 90 e1 3d e6 52 9b 3d
       -0.08496935 0.044747848 0.11013956 0.07584171
0002f0 02 5d cd 3d 37 ff 9b 3d 74 6a cd 3d 4d 45 11 be
       0.100275055 0.07617038 0.1003007 -0.14186592
000300 9d 8e 8c bd 42 5f 27 3e ee 42 ae 3c f6 1e cc 3d
       -0.06863139 0.16344932 0.021272149 0.09966843
000310 76 c2 28 bd 50 d6 c8 3c 4f 04 62 3d 4b 22 f8 3c
       -0.041201077 0.024516255 0.05517989 0.03028979
000320 90 22 e1 bd 52 e0 d3 3d ac f0 91 3d f3 49 c8 3c
       -0.109929204 0.1034552 0.07125983 0.024449324
000330 2f 81 bf 3d 14 60 cb bd df 4a 4f bd 36 a2 8f 3d
       0.09350812 -0.09930435 -0.050608512 0.07013361
000340 e3 24 e4 3d 70 d8 07 3e 86 f3 b2 bc 87 63 d8 3d
       0.11139848 0.13266158 -0.021844637 0.10565858
000350 ea 9c d6 3d a9 dd bf 3d fc 76 c6 39 ed b2 c5 bd
       0.10479148 0.0936845 0.00037854153 -0.09653268
000360 90 77 0c bd 31 fe e2 3a 49 26 91 bd a2 1b d0 3d
       -0.03429371 0.0017318187 -0.070873804 0.101615205
000370 9a b6 0d bd 0f f0 44 3d ed 80 fa 3d 01 b7 e7 3d
       -0.03459797 0.0480805 0.12231622 0.11314202
000380 79 89 b4 bd 72 34 c1 3d 02 64 77 3d df 72 30 bd
       -0.08815283 0.09433831 0.06039811 -0.0430783
000390 8b 46 86 3d 40 4c 80 3d 24 be 52 3b 7e e7 fe 3d
       0.06556424 0.062645435 0.003215679 0.124464974
0003a0 86 7b 42 3d 79 68 cf bd 73 99 28 3e b5 2d cb 3c
       0.047481082 -0.101273485 0.16464786 0.024802068
0003b0 8b 9b 4d bd a5 86 85 bd ae a6 fd 3d f7 35 5f bd
       -0.050197165 -0.06519822 0.12385307 -0.054494824
0003c0 70 ef 06 be 87 67 c0 bd c2 4b 1d 3d 2c c4 89 3b
       -0.13177276 -0.09394746 0.038402326 0.0042042937
0003d0 41 b0 dd 3d 00 b4 58 bd 42 3d 46 3c 02 33 b0 3d
       0.108246334 -0.052906036 0.012099566 0.08603479
0003e0 1d f8 10 bd dc e8 29 bd e0 2b 0d 3d 64 5c 46 bd
       -0.03539287 -0.041481838 0.03446567 -0.048427954
0003f0 50 bc d5 bd a7 22 e6 bc fa 04 71 3d e2 60 2c 3d
       -0.104363084 -0.028092695 0.058842637 0.042084582

mlp.2.bias f4 [64]
000000 9d 33 12 bd 7b 91 34 bc 05 53 98 bc 04 f0 05 3e
       -0.035693754 -0.011021013 -0.018594274 0.1307984
000010 de 55 ee bb e4 1b af bd d8 14 f6 bc b5 1e a1 bd
       -0.0072734198 -0.085502416 -0.030039236 -0.07867185
000020 8c 91 89 3d c7 3e c4 bd f1 42 8b bd 79 72 c5 bb
       0.06717214 -0.09582286 -0.067998774 -0.006025609
000030 c3 28 f1 bd dc 72 d6 3c f1 7c 9d bd b0 e8 04 be
       -0.11775353 0.026177816 -0.07689846 -0.12979388
000040 c3 56 9a bd 7b 8b bf 3d 57 43 dd 3d 7c 08 c1 bd
       -0.0753608 0.09352776 0.1080386 -0.094254464
000050 6c fd 71 bd b0 65 81 3d 16 1c c5 3d e8 04 e4 bd
       -0.059079573 0.063182235 0.096244976 -0.11133748
000060 7c 20 b1 bd b5 e3 d8 bc 86 da dc 3d 9b fe 86 3b
       -0.08648774 -0.026475767 0.107838675 0.004119707
000070 43 52 dc 3c 92 4f 3a bd 58 81 9c bd 17 f7 5d 3d
       0.026894694 -0.04548604 -0.07641858 0.05419072
000080 d0 5d 45 bd ea 83 f7 3c 7e 91 32 bd c2 5b 1b 3d
       -0.04818517 0.030214269 -0.043595783 0.037929304
000090 55 9c d1 3d 42 1b 14 3d c2 03 03 be 96 56 bc 3d
       0.10234896 0.036158808 -0.12794402 0.091962025
0000a0 03 3d 93 bd 61 c3 62 3d ea d7 11 be f7 2e fa 3d
       -0.071893714 0.05536211 -0.14242521 0.12215989
0000b0 9b 51 ce bd 19 23 b0 bd ae 18 ae 3d 0e 1b f9 bd
       -0.10074159 -0.08600444 0.08500801 -0.121633634
0000c0 e1 c9 f1 bd 12 d7 fb 3d 2c 8b a3 3d 92 e2 0c bd
       -0.118060835 0.12296881 0.07985529 -0.03439576
0000d0 30 2e f4 bd 53 3e dc bd c9 67 22 3d 07 d9 12 be
       -0.11922872 -0.10754075 0.03964976 -0.14340602
0000e0 18 df 34 bd cf af 9a 3d c2 97 05 3e 45 af 46 bd
       -0.04415807 0.07553064 0.13046172 -0.048506994
0000f0 5d 9b b9 bd 3d 3f ed 3d 56 dc 4f 3d 5c 38 35 be
       -0.09062836 0.11584327 0.050747238 -0.1769728

mlp.4.weight f4 [1, 64]
000000 1f a4 d7 bd 58 f5 36 3e 85 58 52 bb 48 13 b8 3d
       -0.105293505 0.17867029 -0.0032096219 0.089880526
000010 21 aa 4c 3d cc 67 a7 bd e0 70 57 bd c2 81 0e bd
       0.049966935 -0.081740946 -0.05259788 -0.034791715
000020 a9 ab 32 3c 97 41 27 bd 4e 26 71 bb 08 13 12 3e
       0.010905185 -0.040834036 -0.0036796513 0.14265072
000030 4f c9 98 bb 23 cf 3d bd 27 fc 2d bd bc f6 66 bd
       -0.0046626697 -0.04634012 -0.0424768 -0.056387648
000040 aa ae 04 3e 6b 3d ca 3d cc bf e4 3c b9 b7 9f 3d
       0.12957254 0.09874996 0.027923487 0.07798714
000050 0e 34 79 bd 98 9c 10 bd 74 a9 8b 3d 1f b2 e1 3e
       -0.06084066 -0.03530559 0.0681943 0.44081208
000060 81 34 f5 bd e0 22 a9 3c fa 7a aa 3d e9 55 d2 3d
       -0.11972905 0.020646513 0.08324237 0.10270292
000070 0b 25 2f bd a1 4f 91 bd e0 4b c2 3d 00 b5 61 bd
       -0.042759936 -0.07095266 0.09487128 -0.055104256
000080 c1 1a 29 3e 9e 9c c2 bd b7 51 37 3b 09 c9 3d 3c
       0.16514112 -0.095025286 0.002797229 0.011583575
000090 6a f1 cf 3d 2b 5f 85 3d f4 2d 97 bd b9 a6 b9 bd
       0.10153468 0.065122925 -0.07381812 -0.09065003
0000a0 ca d1 c8 bd dd 1d 84 bd 33 59 2a be 48 1c 08 3d
       -0.09805639 -0.064510085 -0.1663559 0.033230096
0000b0 67 9b 85 bd 29 d7 15 3e ee 54 af ba 86 67 56 bd
       -0.06523781 0.14632858 -0.0013376751 -0.05234482
0000c0 ff 6b 61 bb 96 8f 65 3d 63 df 89 3e f2 82 9d bd
       -0.0034396646 0.056045137 0.26928243 -0.076909915
0000d0 11 c1 56 3d 7b a2 fa 3a a7 8c 84 bb 64 bf 58 bd
       0.052430216 0.0019121909 -0.0040450874 -0.0529169
0000e0 5e 5f 1e 3b f6 9a 1e 3d be 9e 85 3c 73 32 41 bd
       0.002416573 0.038722 0.016311046 -0.047167253
0000f0 ad aa 8a bd 89 6e 01 3e 2b 78 b1 3d eb 98 a0 3d
       -0.06770835 0.12639822 0.08665498 0.07841667
