forecasting/midroll/dnn_model/model_1_ofwc2023.ckpt (torch, 42527 bytes, 5 tensors)

mlp.0.weight f4 [64, 90]
0	0x3d882761	0.06648136
1	0x3d89d4cf	0.06730043
2	0x3d392c51	0.04520828
3	0xbd98ef0d	-0.0746747
4	0xbd0ab980	-0.033868313
5	0x3deb339b	0.11484452
6	0xbac61d2b	-0.0015114894
7	0xbde5d183	-0.11221602
8	0x3d9e2d20	0.07723451
9	0xbcdf8550	-0.027285248
10	0x3cc78be6	0.024358701
11	0x3e6d7f99	0.23193206
12	0x3d67ff8b	0.05664019
13	0x3d9aa82c	0.075516075
14	0xbd5a2d53	-0.05326588
15	0xbe7d18bf	-0.24716471
16	0xbd057c38	-0.032589167
17	0xbd1c6974	-0.038186505
18	0xbdeec517	-0.11658686
19	0xbd2b62eb	-0.041842382
20	0x3df8f0b5	0.12155286
21	0xbe043f12	-0.12914684
22	0x3c563d2b	0.013076107
23	0xbbb66f96	-0.0055675013
24	0xbd3f762d	-0.04674356
25	0xbda5cc2c	-0.08095583
26	0xbdba0b63	-0.09084203
27	0x3dadd2a9	0.08487446
28	0x3d493ba1	0.049129132
29	0x3bb4bf3b	0.0055159605
30	0x3d001e2b	0.03127877
31	0x3daa0ac7	0.08302837
32	0xbde1bc48	-0.1102224
33	0x3b4e1172	0.0031443504
34	0xbd068892	-0.032845087
35	0x3ddcf096	0.107880756
36	0x3c43cffa	0.011951441
37	0xbd806b3e	-0.06270455
38	0x3deb4d5c	0.114893645
39	0x3da2939f	0.07938313
40	0x3e09aa36	0.13443837
41	0x3e177d0b	0.14793794
42	0x3e07c69c	0.13259357
43	0x3e702554	0.2345174
44	0x3d68a9e5	0.05680265
45	0xbd3e531e	-0.046465985
46	0xbb4dcf19	-0.0031403957
47	0x3e6b240e	0.22962973
48	0x3db54215	0.08850495
49	0xbe0ce5b5	-0.13759501
50	0xbda6d61c	-0.08146307
51	0xbe2b3fd4	-0.16723567
52	0xbcd1da65	-0.025616834
53	0x3e306d81	0.17229272
54	0x3d6776de	0.056509845
55	0x3ddd2341	0.1079774
56	0x3d993066	0.074799344
57	0x3d68f6de	0.056876056
58	0x3dbfd2e7	0.09366398
59	0x3cc8cdca	0.02451219
60	0xbd31e8fd	-0.043435086
61	0x3ab7e16d	0.0014028974
62	0x3e43b70e	0.19112799
63	0xbd91a745	-0.07111982
64	0x3de6b8d8	0.11265725
65	0x3e227221	0.15863849
66	0xbc8035fb	-0.01565074
67	0x3da202a0	0.07910657
68	0xbd31c39c	-0.04339944
69	0xbd0bb4c7	-0.03410795
70	0x3de488e7	0.111589245
71	0x3d0ae7f0	0.0339126
72	0x3c559d08	0.013037927
73	0xbd26b58e	-0.040700488
74	0xbdaca6db	-0.08430263
75	0x3c45feaa	0.012084642
76	0xbd0a353e	-0.033742182
77	0x3e19a29e	0.1500344
78	0x3dca9124	0.098909646
79	0x3beb3c54	0.0071788225
80	0x3c9a9df6	0.01887415
81	0xbd601bd8	-0.054714054
82	0xbcd2560e	-0.0256758
83	0xbd3b9949	-0.04580048
84	0xbd2a256b	-0.04153959
85	0x3d92b5d6	0.07163589
86	0x3d822291	0.06354249
87	0x3d817fc9	0.06323201
88	0xbc0553ad	-0.008137626
89	0x3d4d4e25	0.050123353
90	0x3e61e919	0.22061576
91	0x3c5a9960	0.0133422315
92	0x3d577cc4	0.05260922
93	0xbe676648	-0.22597611
94	0x3e562ab0	0.20914721
95	0x3e5e5b38	0.21714485
96	0xbdc8b206	-0.0979958
97	0xbbdb62d2	-0.00669513
98	0xbd52ee1e	-0.051496617
99	0x3e8b67e1	0.2722769
100	0xbc91b1e6	-0.017785024
101	0x3e099a7b	0.13437836
102	0x3d970f6f	0.073759906
103	0xbc3ddaa7	-0.011587775
104	0xbd8f448f	-0.069954984
105	0x3b70874c	0.0036701737
106	0xbd1e958f	-0.03871685
107	0xbd284a0a	-0.041086234
108	0xbdb16815	-0.0866243
109	0x3dbd7b16	0.092519924
110	0x3c9cb19b	0.019127658
111	0x3cf0f864	0.029415317
112	0x3e2eba8e	0.17063352
113	0xbdb7e887	-0.08979898
114	0xbe50b417	-0.20381199
115	0xbe2e9503	-0.17049031
116	0xbe41e0df	-0.18933438
117	0xbc9e3fa1	-0.01931745
118	0x3df3e1aa	0.119082764
119	0x3d9bc73d	0.07606361
120	0xbd05357a	-0.032521702
121	0xbd7b9afe	-0.06142711
122	0x3dc9ce97	0.09853857
123	0x3ca1637a	0.019700754
124	0xbbcc24cf	-0.006229974
125	0xbd232e9a	-0.039839365
126	0xbdc5d533	-0.09659805
127	0x3c9b708a	0.018974561
128	0xbe0ff29a	-0.14057389
129	0xbe3478e9	-0.17624249
130	0xbe416060	-0.1888442
131	0xbcc186ad	-0.023623789
132	0x3c9c2291	0.019059451
133	0xbdca491d	-0.098772265
134	0x3c955cf9	0.01823281
135	0x3cd0ce14	0.02548889
136	0xbdd6dc77	-0.10491269
137	0xbcb74e58	-0.022376224
138	0xbd32c662	-0.043646224
139	0xbd2f2511	-0.04275996
140	0x3db7ad52	0.08968605
141	0x3dfdae46	0.12386756
142	0xbdea1e73	-0.11431589
143	0xbe0d3a94	-0.13791877
144	0xbb98a456	-0.0046582622
145	0x3dd882eb	0.105718456
146	0x3ce4e651	0.027941855
147	0xbd11042d	-0.035404373
148	0xbdcfac35	-0.10140268
149	0x3c985921	0.018597187
150	0x3e1de25d	0.15418382
151	0x3a89df50	0.0010518823
152	0xbcae1792	-0.021251474
153	0xbe4cb24a	-0.19989887
154	0x3d87c976	0.066302225
155	0xbd6fada1	-0.058515195
156	0x3e57d7fe	0.21078488
157	0x3e1f560e	0.15560171
158	0x3e1e7b03	0.15476613
159	0x3c93d4ec	0.018045865
160	0xbd33002f	-0.043701347
161	0x3d0af57f	0.03392553
162	0x3d2441dd	0.040101875
163	0xbcf93b78	-0.030423865
164	0xbd23d9a4	-0.04000248
165	0xbd2694db	-0.040669303
166	0x3d91a505	0.07111553
167	0x3d5edb8a	0.054408588
168	0xbca82d21	-0.020529332
169	0x3d59d4a2	0.053181298
170	0x3dbb20b5	0.09137098
171	0xbd93a5f4	-0.072093874
172	0xbc8d6bff	-0.01726341
173	0x3de4d5a4	0.11173561
174	0xbe07fc6f	-0.1327989
175	0xbde654b9	-0.11246628
176	0x3d6db5e9	0.05803481
177	0x3cd76033	0.026290989
178	0xbd561170	-0.052262723
179	0x3d41d420	0.04732144
180	0x3e160f7c	0.14654344
181	0xbcb75795	-0.02238063
182	0x3c1f6adb	0.009730066
183	0xbe0045b8	-0.12526596
184	0xbc176be8	-0.009242035
185	0x3e21dc58	0.1580671
186	0xbc843238	-0.016137227
187	0x3cef144f	0.029184489
188	0xbdda3f27	-0.106565766
189	0x3d361fe2	0.044464
190	0x3d16367b	0.03667305
191	0x3d7da916	0.06192883
192	0xbd50cbbb	-0.050975543
193	0x3de4ae90	0.11166108
194	0xbd938da3	-0.072047494
195	0x3c0d805b	0.008636559
196	0x3caf58bb	0.021404615
197	0xbbc5a999	-0.0060321805
198	0x3d8021b4	0.06256428
199	0xbcdd9c0a	-0.027051944
200	0x3d0f1da1	0.034940366
201	0x3b407d61	0.0029371607
202	0x3e0d8148	0.13818848
203	0x3daf7baa	0.08568509
204	0x3814d150	3.5480887e-05
205	0xbd877890	-0.06614792
206	0xbd3b995c	-0.04580055
207	0x3d62c1c2	0.055360563
208	0xbd1386de	-0.03601729
209	0x3bbfc5a2	0.005852417
210	0x3dbf3157	0.09335583
211	0x3d289fd9	0.041168068
212	0xbd8e05bb	-0.06934687
213	0xbcab198d	-0.020886207
214	0xbcc166ea	-0.023608644
215	0x3d2d6317	0.042330828
216	0x3d7771a7	0.06041112
217	0xbc7fd33d	-0.015614328
218	0x3ba15827	0.0049238387
219	0x3d11a4a8	0.03555742
220	0x3e04265d	0.1290526
221	0x3dd63ad2	0.10460438
222	0xbd34fcdf	-0.04418647
223	0xbd22a101	-0.039704327
224	0x3d4da2f5	0.050204236
225	0x3dee4578	0.11634344
226	0x3c5078bd	0.012724099
227	0xbda0b850	-0.07847655
228	0xbda7eac1	-0.08199073
229	0x3d22ec1a	0.039775945
230	0xbdf3e10c	-0.11908159
231	0xbcd7019b	-0.026245883
232	0xbddcded7	-0.10784691
233	0xbca35860	-0.019939601
234	0x3d56de29	0.052457962
235	0x3de9d65c	0.11417839
236	0xbd48d58a	-0.04903177
237	0xbde7c2ff	-0.113164894
238	0xbda0cd2d	-0.07851634
239	0x3e041098	0.12896955
240	0x3e00e32e	0.12586662
241	0x3d9464a3	0.072457574
242	0x3d522377	0.051303353
243	0xbe089586	-0.13338289
244	0xbdbc5f37	-0.09197848
245	0xbd847964	-0.06468466
246	0x3c82a5ba	0.015948165
247	0x3d8edd25	0.06975774
248	0x3b8ffd71	0.0043942262
249	0x3cf0d02c	0.02939614
250	0x3d75c634	0.060003474
251	0xbd185dab	-0.037198704
252	0x3d759dae	0.05996483
253	0x3dfa9325	0.12235097
254	0xbcb321d5	-0.021866718
255	0x3ddacdf3	0.10683813

mlp.0.bias f4 [64]
0	0x3d2b6685	0.041845817
1	0xbca048a3	-0.019565886
2	0x3d15db74	0.03658624
3	0x3d6c370e	0.05766969
4	0xbd9ec0d7	-0.07751625
5	0x3d926a76	0.07149212
6	0xbe0588fa	-0.13040534
7	0xbd32c547	-0.04364517
8	0x3d25bdac	0.04046409
9	0x3d2a4e3f	0.041578528
10	0x3dc1d711	0.09464849
11	0xbdf9e2dd	-0.12201474
12	0x3d26109f	0.040543195
13	0x3d0fd43c	0.03511451
14	0x3d667327	0.05626216
15	0x3b389612	0.002816562
16	0xbc9496a7	-0.018138243
17	0x3d6bb02d	0.05754106
18	0xbc8397fb	-0.01606368
19	0xbdbafda2	-0.09130408
20	0x3cde10de	0.027107652
21	0xbdcbf38f	-0.099585645
22	0x3c0b70ba	0.008510763
23	0xbcd18bbb	-0.025579324
24	0xbdf0676d	-0.11738477
25	0x3daacec3	0.08340218
26	0xbd66cdd6	-0.056348644
27	0x3dbe1a9a	0.092824176
28	0xbdde3083	-0.108490966
29	0xbc5e1120	-0.013553888
30	0x3dc100ad	0.09423957
31	0xbd934c03	-0.071922325
32	0x3d7dcd09	0.061963115
33	0x3d4c505a	0.049881317
34	0xbe127895	-0.14303811
35	0xbc0127fd	-0.007883069
36	0xbab5cfde	-0.0013871153
37	0x3bb0851d	0.005386962
38	0xbdd51855	-0.104050316
39	0xbdfb521f	-0.12271523
40	0x3de34977	0.11097997
41	0x3ce4bbcc	0.02792158
42	0xbdc12c41	-0.09432269
43	0xbd375cec	-0.04476635
44	0x3cdd3cd1	0.027006539
45	0xbc836ecf	-0.016044049
46	0x3c061f43	0.008186164
47	0xbd66fa0c	-0.056390807
48	0x3d450446	0.04809978
49	0x3ddb2bb8	0.10701698
50	0x3d652ecb	0.05595283
51	0x3d696ca1	0.056988362
52	0xbd4e754a	-0.050404824
53	0x3d4d215b	0.05008064
54	0xbd322a81	-0.043497566
55	0xbd614b89	-0.055003677
56	0x3dea43d3	0.11438718
57	0x3d7c7c7f	0.061642166
58	0xbb28fea6	-0.0025786548
59	0xbbf4868e	-0.007462329
60	0x3dcb43a8	0.09925014
61	0xbd945769	-0.07243235
62	0xbde082c6	-0.10962443
63	0xbdc19488	-0.09452158

mlp.2.weight f4 [64, 64]
0	0xbdae1431	-0.08499945
1	0x3da76b11	0.08174718
2	0xbc452996	-0.012033841
3	0x3d68b471	0.056812707
4	0x3d29de17	0.041471567
5	0x3d158b21	0.036509637
6	0xbe5ddf4d	-0.21667214
7	0x3ea769ed	0.32698002
8	0x3e8d1a1b	0.2755898
9	0x3e1f4784	0.15554625
10	0xbdb7955a	-0.089640334
11	0x3e5e70ae	0.21722671
12	0xbcf2dbaf	-0.029645769
13	0x3bfef25b	0.007780356
14	0x3e345b55	0.17612965
15	0xbcd8a95c	-0.026447944
16	0xbb58e193	-0.0033093437
17	0x3b643ffe	0.0034828181
18	0x3ea96fa3	0.33092985
19	0xbc16e652	-0.009210186
20	0xbaa577fe	-0.0012624261
21	0x3eccffc1	0.40038875
22	0xbd6feaea	-0.05857364
23	0xbe92d1d8	-0.28675723
24	0x3da3b1d8	0.079929054
25	0x3dd5a6e7	0.10432225
26	0xbe79a3ca	-0.24378887
27	0xbd5bd2e7	-0.05366793
28	0x3e5f5624	0.21810204
29	0xbe01385c	-0.12619156
30	0x3e7ffe50	0.24999356
31	0x3e7de6c8	0.24795067
32	0x3e822bb4	0.25423968
33	0xbe18de53	-0.1492856
34	0x3ed025cf	0.40653846
35	0x3ce0868d	0.027407909
36	0x3d4df62a	0.05028359
37	0x3e3b6cff	0.18303297
38	0xbd6de27a	-0.058077313
39	0x3f3c2c92	0.7350551
40	0x3d5681ed	0.05237
41	0x3e0beee2	0.13665345
42	0x3e19d8d6	0.15024123
43	0x3db937d4	0.090438515
44	0x3c53a0a9	0.012916722
45	0x3eccaae5	0.39974132
46	0x3ceac5d4	0.028658785
47	0x3e61e710	0.220608
48	0xbd63590a	-0.055504836
49	0xbc438bd1	-0.01193519
50	0x3e232a56	0.15934119
51	0x3d9d4a96	0.07680242
52	0x3e9a33c7	0.30117628
53	0x3d3fe297	0.046846952
54	0x3de73477	0.11289304
55	0x3e89a3c6	0.26882762
56	0xbed325ed	-0.41239873
57	0xbeb79294	-0.35854018
58	0x3e432e16	0.19060549
59	0x3edf21ab	0.43580374
60	0xbd60e69f	-0.054907437
61	0x3dec6692	0.11543001
62	0xbc37fada	-0.011229241
63	0x3de1299d	0.10994265
64	0x3de9609b	0.11395379
65	0xbc5791fe	-0.013157366
66	0x3d7a84a8	0.061161667
67	0x3d086fd6	0.03330978
68	0xbc8c88c3	-0.017155057
69	0x3dcbc1df	0.09949087
70	0x3e46b5df	0.19405316
71	0x3dc03e58	0.09386891
72	0x3d9c8eed	0.076444484
73	0x3de7257d	0.11286447
74	0x3df7d1e8	0.12100583
75	0x3c85b7ad	0.016322935
76	0x3e17e327	0.14832745
77	0x3d211ddb	0.039335113
78	0x3dee8a54	0.11647478
79	0xbc8004f3	-0.01562736
80	0x3d909e43	0.07061436
81	0x3db036d2	0.08604206
82	0x3e317ef7	0.1733359
83	0x3da87608	0.08225638
84	0xbd548de8	-0.051893145
85	0x3e3234fb	0.17403023
86	0xbd349a37	-0.044092383
87	0x3d9f8931	0.07789839
88	0x3e0baa51	0.1363919
89	0x3e5337e8	0.20626795
90	0xbe1bebb5	-0.15226634
91	0x3d1590c9	0.03651503
92	0x3e046017	0.1292728
93	0x3dda2e1c	0.10653326
94	0x3e3ce81f	0.18447922
95	0x3d89d520	0.067301035
96	0x3ea26f9c	0.31725776
97	0x3be5d707	0.0070141586
98	0x3eb97eeb	0.36229643
99	0x3e09ee55	0.13469823
100	0x3e150829	0.14553894
101	0x3e387860	0.1801467
102	0xbbd022e9	-0.006351818
103	0x3f1c74a5	0.61115485
104	0x3d9d0071	0.076661
105	0x3c8df5fb	0.017329207
106	0x3e0058b1	0.12533833
107	0x3de17c34	0.11010018
108	0x3e02b07e	0.12762639
109	0x3e22132c	0.15827626
110	0xbe03d0a4	-0.12872559
111	0x3deab223	0.11459758
112	0x3e01b0b0	0.12665057
113	0x3dcbe19a	0.099551395
114	0x3ab07f99	0.0013465761
115	0x3d462327	0.048373368
116	0x3e964427	0.2934887
117	0x3d9b4f67	0.07583504
118	0xbda51a0d	-0.080616094
119	0x3e59894c	0.21243781
120	0xbd1d9fae	-0.03848236
121	0x3d3c7900	0.046013832
122	0x3d241c4a	0.04006604
123	0x3ea006d2	0.31255203
124	0x3bb71031	0.005586647
125	0x3e3fbdd0	0.18724751
126	0x3e0dae1b	0.13835947
127	0x3de8def9	0.11370654
128	0xbd8143f2	-0.06311788
129	0x3e3f88ca	0.18704525
130	0x3b10848e	0.0022051665
131	0xbdd1e51b	-0.102487765
132	0xbc0ea82f	-0.00870709
133	0xbc085fdf	-0.008323639
134	0x3e802719	0.2502983
135	0x3ea06d91	0.31333593
136	0x3d4e52cc	0.05037193
137	0x3e8abe9e	0.27098554
138	0xbbf2ea90	-0.007413216
139	0x3d1b26de	0.037878864
140	0x3e1e737a	0.15473738
141	0x3c83c079	0.016082989
142	0x3e3bcdd6	0.18340239
143	0x3e36a7cb	0.17837445
144	0xbd26362e	-0.040579014
145	0x3d8be52a	0.06830819
146	0x3df6106c	0.12014851
147	0xbd3bcac3	-0.045847666
148	0x3ce621bf	0.028092263
149	0x3e134f43	0.14385705
150	0xbd187e5b	-0.037229877
151	0x3dd58b5d	0.10426972
152	0x3c8cca46	0.017186295
153	0x3dd22adc	0.10262081
154	0xbe4eec28	-0.20207274
155	0xbbcd13bb	-0.0062584556
156	0x3dad1e7f	0.08453082
157	0x3e217fc0	0.15771389
158	0x3df12d6f	0.11776244
159	0x3e8b2227	0.27174494
160	0x3e2e90db	0.17047445
161	0x3dca88d9	0.09889383
162	0x3ee2ab3c	0.44271266
163	0x3decf1b6	0.1156954
164	0x3e09203a	0.133912
165	0x3e7f19c7	0.24912177
166	0xbd6700da	-0.056397296
167	0x3f2e91ad	0.68191034
168	0x3df4bdaf	0.11950242
169	0x3ce7be4b	0.028288981
170	0x3d904976	0.070452616
171	0x3d870600	0.06592941
172	0xbd8d06e3	-0.06886079
173	0x3e78518f	0.24249862
174	0xbd04f96e	-0.032464437
175	0x3e19a3a7	0.15003835
176	0xbdb55e6b	-0.088558994
177	0x3d73cc02	0.05952073
178	0x3d086f1c	0.033309087
179	0x3e00cbad	0.12577696
180	0x3e6c06df	0.23049496
181	0x3d9a7665	0.07542113
182	0xbd59a3f4	-0.053134874
183	0x3e842e4c	0.25816572
184	0x3dea989d	0.1145489
185	0xbdcc94cb	-0.099893175
186	0x3e4b15c4	0.19832522
187	0x3eee21d7	0.46510193
188	0x3cfafc74	0.030637957
189	0x3dba4c46	0.09096579
190	0x3e0bd757	0.13656364
191	0x3dc6e36c	0.09711346
192	0xbc6c30e4	-0.014415953
193	0x3e0a6dae	0.13518402
194	0x3d8a13a0	0.067420244
195	0xbdd5c02a	-0.10437043
196	0xbd9d9eeb	-0.07696327
197	0x3e098272	0.13428667
198	0x3e64ca85	0.2234288
199	0x3e736b11	0.23771311
200	0x3dfee34c	0.12445697
201	0x3e9756c8	0.29558396
202	0x3d8d0868	0.06886369
203	0x3e5b8318	0.21436727
204	0xbdccd0ff	-0.100008
205	0xbb8209b9	-0.003968444
206	0x3dbec9c4	0.093158275
207	0x3d6dfced	0.058102537
208	0x3e0028d1	0.1251557
209	0x3c086969	0.008325913
210	0x3e8a5017	0.2701423
211	0x3dda36d4	0.10654989
212	0x3de04a5f	0.10951685
213	0x3e6c3bfc	0.23069757
214	0x3d2d6762	0.04233492
215	0xbd1758d1	-0.036949936
216	0xbba28ecd	-0.004960871
217	0x3dfe8d61	0.1242931
218	0xbd64d629	-0.0558683
219	0x3c99d47b	0.018778076
220	0x3e21cacb	0.15800016
221	0x3e130b79	0.14359845
222	0x3d553e8e	0.05206161
223	0x3deb4e85	0.11489586
224	0x3e38767b	0.18013947
225	0x3dd1e9a9	0.10249645
226	0x3ee80c81	0.4532204
227	0xbd2d980c	-0.04238133
228	0x3dfb0cfb	0.12258335
229	0x3db78403	0.08960726
230	0xbdcceeb5	-0.10006467
231	0x3f290871	0.66028506
232	0x3dc076ff	0.09397697
233	0x3daac832	0.083389655
234	0x3e6c3819	0.23068275
235	0x3dfb0160	0.12256122
236	0xbdb96aa0	-0.0905354
237	0x3ebd3594	0.3695494
238	0xbdb3bc86	-0.08776192
239	0x3de624f1	0.11237515
240	0xbd0b04e0	-0.033940196
241	0x3d8bcbb6	0.06825964
242	0x3e062c25	0.13102777
243	0xbd180b72	-0.03712029
244	0x3e501d49	0.20323671
245	0x3d8be99d	0.068316676
246	0x3da4aae4	0.08040407
247	0x3e028383	0.1274548
248	0xbdeedb87	-0.11662965
249	0x3de98338	0.11401981
250	0x3e0b8a42	0.1362696
251	0x3ecb3837	0.39691326
252	0xbd9f5837	-0.077804975
253	0xbd6d46c2	-0.057928808
254	0xbc93635c	-0.017991714
255	0x3d9a9274	0.07547465

mlp.2.bias f4 [64]
0	0xbc64e979	-0.01397168
1	0x3c639cef	0.013892396
2	0x3bb02069	0.0053749573
3	0x3e2f55ce	0.17122576
4	0x3e54f640	0.20797062
5	0xbdc241ec	-0.0948523
6	0x3bc38451	0.005966701
7	0xbc703474	-0.014660943
8	0x3d71f1d2	0.05906851
9	0xbd2449dd	-0.040109504
10	0xbda8e928	-0.08247596
11	0x3d9bb9fd	0.07603834
12	0x3d4b4060	0.04962194
13	0x3da1592e	0.07878338
14	0xbbbdad41	-0.0057884757
15	0xbc82ab42	-0.015950803
16	0x3e4fd558	0.20296228
17	0xbca0d42e	-0.019632425
18	0x3bcc49d3	0.0062343865
19	0x3e42eb8f	0.19035171
20	0xbd2da4bd	-0.042393435
21	0xbd8c7af6	-0.068593904
22	0xbdde2b5e	-0.108481154
23	0x3d810a65	0.06300811
24	0x3c89584e	0.01676574
25	0x3d9723c4	0.073798686
26	0x3c1250aa	0.008930365
27	0x3cd59208	0.02607061
28	0xbd2f7bca	-0.042842664
29	0x3cc480f4	0.02398727
30	0xbdae6fed	-0.08517442
31	0xbd94596b	-0.072436176
32	0x3d93c554	0.07215372
33	0x3c98f556	0.018671673
34	0x3d989384	0.074500114
35	0xbe11f707	-0.1425439
36	0x3dc6c27d	0.097050644
37	0x3cb436ab	0.021998724
38	0x3d422cb9	0.047405932
39	0x3d153a40	0.036432505
40	0xbc6558c6	-0.013998216
41	0x3e2b2820	0.16714525
42	0x3e16d307	0.14728938
43	0xbd8b8e29	-0.06814224
44	0xbde49908	-0.11162001
45	0x3d295afb	0.04134653
46	0x3acda024	0.0015687984
47	0x3dc999af	0.09843766
48	0xbd6b6a41	-0.05747438
49	0x3dd4e5b5	0.10395376
50	0x3e27aa6c	0.16373605
51	0x3ca053c4	0.019571193
52	0x3d8e182d	0.06938205
53	0xbdf921e7	-0.121646695
54	0xbd68f537	-0.05687448
55	0xbcd5104e	-0.026008751
56	0x3cca21d8	0.024674341
57	0xbdefa58e	-0.11701499
58	0xbdbd2de6	-0.0923727
59	0x3e17a3b2	0.14808539
60	0x3e028aff	0.12748335
61	0xbbd57ef7	-0.0065153795
62	0x3b04ce3b	0.0020264525
63	0x3b04a721	0.0020241218

mlp.4.weight f4 [1, 64]
0	0x3eb13f6e	0.34618706
1	0x3df68b5a	0.12038298
2	0x3e539995	0.20664056
3	0x3dcf5f9f	0.1012566
4	0x3e06a829	0.13150086
5	0xbd7c1638	-0.061544627
6	0x3e058e39	0.13042535
7	0xbcc2a3f5	-0.023759821
8	0xbccba8cb	-0.02486076
9	0xbd089a99	-0.03335056
10	0x3dde142e	0.10843693
11	0xbdd9428e	-0.106083974
12	0x3e56ac71	0.20964219
13	0xbf416082	-0.75537884
14	0x3e379c8c	0.17930812
15	0x3e4aa63d	0.19789977
16	0x3e028551	0.12746169
17	0x3ded8582	0.1159773
18	0x3e31e713	0.17373304
19	0x3e5b4632	0.21413496
20	0x3dd4917b	0.10379311
21	0xbda69c78	-0.08135313
22	0xbce28841	-0.027652862
23	0x3eaba377	0.3352315
24	0xbc827dd1	-0.015929135
25	0x3e95de74	0.2927128
26	0xbbecf17d	-0.007230936
27	0x3e3a65b9	0.18202867
28	0xbdabd697	-0.08390539
29	0x3e3c3600	0.18379974
30	0x3e6e0272	0.2324312
31	0x3e78d042	0.24298194
32	0xbdac11ad	-0.08401809
33	0xbedcd952	-0.43134552
34	0x3e79a8b6	0.24380764
35	0xbd5f9c86	-0.05459263
36	0x3e7f50bd	0.24933143
37	0x3e3274f5	0.17427428
38	0xbd069ff4	-0.032867387
39	0xbdca00ec	-0.09863457
40	0xbdab17d2	-0.08354153
41	0x3e14b65f	0.14522694
42	0x3e245096	0.16046366
43	0xbda81197	-0.0820648
44	0x3da6c891	0.08143724
45	0x3e577147	0.21039306
46	0x3de753b4	0.11295262
47	0x3e32d29c	0.17463154
48	0xbe704bc7	-0.23466407
49	0xbec658ff	-0.38739774
50	0x3e514d7e	0.20439717
51	0x3e23ea7a	0.16007414
52	0x3e321506	0.17390832
53	0xbcde1fca	-0.027114768
54	0xbd1a8a10	-0.037729323
55	0xbe975c59	-0.29562643
56	0x3e540067	0.20703278
57	0x3e9fc397	0.3120391
58	0xbdb2d0e4	-0.08731249
59	0x3e0501c3	0.12988953
60	0x3ec12396	0.37722462
61	0x3e9bb493	0.30411205
62	0x3c2c8f6b	0.01053224
63	0x3e042c05	0.12907417
