forecasting/midroll/dnn_model/model_0_ofwc2021.ckpt (torch, 42527 bytes, 5 tensors)

mlp.0.weight f4 [64, 90]
0	0xbc3d0aeb	-0.011538248
1	0x3d07bb86	0.03313782
2	0x3de8ef5d	0.1137378
3	0x3e2c60d4	0.16833812
4	0xbbc8f846	-0.006133112
5	0xbd191647	-0.03737476
6	0x3c9e5a14	0.019330062
7	0xbda5f518	-0.081033885
8	0xbc8df21d	-0.017327363
9	0x3d0b9ea2	0.03408683
10	0x3e01d794	0.12679893
11	0x3d7bc597	0.061467733
12	0xbdb2f17c	-0.08737466
13	0x3c3728ab	0.01117913
14	0xbc956ea2	-0.01824123
15	0x3deb939c	0.11502764
16	0x3c1aa68b	0.009439121
17	0xbce215cf	-0.02759829
18	0x3dac1209	0.084018774
19	0xbd751ce0	-0.05984199
20	0x3dc15fa6	0.094420716
21	0xbd1eb797	-0.038749304
22	0x3d6c9dd4	0.057767704
23	0x3d6c734b	0.05772714
24	0xbe1f1213	-0.15534239
25	0x3c9cf3bc	0.01915919
26	0xbd224c86	-0.03962376
27	0xbdce8a06	-0.1008492
28	0xbd851024	-0.06497219
29	0x3e1b840c	0.1518709
30	0x3d901149	0.07034547
31	0x3d2c068b	0.041998427
32	0xbd485faf	-0.048919376
33	0x3da6f899	0.08152885
34	0x3d2747f8	0.04084012
35	0x3d693a35	0.056940276
36	0x3c16a30e	0.009194149
37	0x3cc3642f	0.023851482
38	0x3bc21209	0.00592256
39	0xbd19f4b1	-0.03758687
40	0xbc5e4182	-0.013565423
41	0xbd5dae6c	-0.05412142
42	0x3d8d71c4	0.06906465
43	0xbcc36d79	-0.023855912
44	0xbc46eb2c	-0.01214103
45	0x3d866858	0.06562871
46	0xbb825df4	-0.0039784852
47	0x3dc75103	0.09732249
48	0x3d052f45	0.032515783
49	0xbbbdc953	-0.005791822
50	0xbd29f3b7	-0.04149219
51	0x3d818fad	0.06326232
52	0xbdd3e7e9	-0.10346968
53	0xbdbc6398	-0.091986835
54	0xbd229b3c	-0.039698824
55	0x3d830111	0.06396688
56	0xbd1d413f	-0.0383923
57	0x3d755af5	0.059901197
58	0xbbe4d43a	-0.006983307
59	0xbd6c4b5d	-0.05768906
60	0x3c85b1b0	0.01632008
61	0x3cdcf20e	0.02697089
62	0xbd37c6f9	-0.04486749
63	0x3e020bab	0.12699763
64	0xbd1ed378	-0.03877589
65	0x3dad5dc3	0.08465149
66	0x3d41947d	0.04726075
67	0xbc54abc8	-0.012980409
68	0xbd0159cd	-0.03157978
69	0x3d8cf347	0.06882339
70	0xbb9f5a61	-0.004863069
71	0x3d9c4266	0.07629852
72	0xbd401db5	-0.04690333
73	0x3cfc2553	0.030779516
74	0xbbb058af	-0.0053816657
75	0x3d600bca	0.054698743
76	0x3d2048dd	0.039131988
77	0xbd81d489	-0.06339366
78	0xbdc25e80	-0.09490681
79	0x3ba75331	0.0051063527
80	0x3d543e6f	0.051817354
81	0x3dd924cf	0.10602724
82	0xbd5dfd2a	-0.054196514
83	0xbda3e3be	-0.08002423
84	0x3cc6216f	0.024185864
85	0x3b32964d	0.002725023
86	0x3b43d5e1	0.002988212
87	0x3dcbd78f	0.09953224
88	0xbd8c3cb1	-0.068475135
89	0xbdc36e68	-0.09542543
90	0x3cb1e125	0.021713803
91	0x3d919ef8	0.07110399
92	0x3d529171	0.051408235
93	0x3c8610da	0.016365457
94	0xbe249a72	-0.16074541
95	0x3ddaad3f	0.10677575
96	0x3d4a4562	0.049382575
97	0xbe0c6fc5	-0.13714512
98	0x3d56f322	0.052477963
99	0x3d8e1e2c	0.069393486
100	0xbb5c2b72	-0.0033595231
101	0xbd2e134f	-0.042498883
102	0x3c7b1387	0.01532448
103	0x3d2d4f6b	0.042312067
104	0x3d7263e0	0.05917728
105	0x3cb55335	0.022134403
106	0xbdbe06de	-0.092786536
107	0xbdb69b54	-0.08916345
108	0xbdd48ba3	-0.10378196
109	0x3d03f076	0.032211743
110	0xbce8521f	-0.02835947
111	0xbd11133a	-0.035418727
112	0xbd3aaaad	-0.045572925
113	0x3d8d40a9	0.068970986
114	0x3c7e9716	0.015538951
115	0xbd08cfe6	-0.033401392
116	0x3d54a3ea	0.051914133
117	0xbde564f3	-0.11200895
118	0xbde3de12	-0.11126341
119	0x3dd24fb4	0.102691084
120	0xbda0083a	-0.07814069
121	0x3dc1bf29	0.09460289
122	0xbd37b023	-0.04484571
123	0x3ddf4111	0.10901082
124	0x3cfdfa6f	0.031003205
125	0x3d9ac9db	0.07558032
126	0xbd327edf	-0.043578025
127	0xbd423cb7	-0.047421183
128	0xbd735515	-0.059407312
129	0x3ce22e2a	0.027609903
130	0xbcf75c2f	-0.030195324
131	0x3c34d512	0.011037128
132	0xbdd8e005	-0.10589603
133	0x3d5ae274	0.05343862
134	0xbd9afd3c	-0.07567832
135	0xbdbd96df	-0.09257292
136	0xbca7b7e6	-0.020473432
137	0x3c904da1	0.017615141
138	0xbcc5a04a	-0.024124283
139	0xbdb8951e	-0.09012817
140	0x3d9d8cb1	0.076928504
141	0x3cebf973	0.02880547
142	0xbda74b21	-0.081686266
143	0x3dd86116	0.10565393
144	0xbd30d027	-0.04316726
145	0x3bc1f7af	0.0059194188
146	0x3cc0736d	0.02349254
147	0x3c46b17a	0.012127275
148	0x3d2afe75	0.041746575
149	0xbdd09df8	-0.1018638
150	0x3dbe63bf	0.09296369
151	0x3d4d1c95	0.050076086
152	0x3dac3744	0.084089786
153	0x3dfc03d6	0.12305419
154	0xbd84bb20	-0.06481004
155	0x3e4b9b38	0.1988343
156	0x3dd508c8	0.104020655
157	0xbc866fb4	-0.016410686
158	0x3de6bd05	0.11266521
159	0xbdafa89d	-0.08577082
160	0x3c6c0d6c	0.014407497
161	0x3cbbd3f2	0.022928212
162	0x3d7bd2ff	0.06148052
163	0x3d81a4b8	0.06330246
164	0xbbdda6ce	-0.0067642694
165	0xbd1b1b1a	-0.037867643
166	0xbcdc3f79	-0.026885735
167	0xbdad82d5	-0.0847222
168	0xbd9caed7	-0.076505356
169	0xbdc548c5	-0.0963302
170	0x3c8c974b	0.017161986
171	0x3d56628f	0.052340087
172	0x3da3be35	0.079952635
173	0x3d7d0f01	0.061781887
174	0xbda04b77	-0.07826894
175	0x3d783ff2	0.060607858
176	0xbd89a039	-0.06720013
177	0x3d8ba5aa	0.06818707
178	0x3defbdd2	0.11706127
179	0x3b737162	0.003714644
180	0xbca05841	-0.019573333
181	0x3d89dcd4	0.06731573
182	0x3de047b0	0.10951173
183	0xbc29588b	-0.010336052
184	0xbda4862a	-0.08033402
185	0x3e21a1e8	0.15784419
186	0x3ce6cf24	0.028174944
187	0x3c300566	0.010743475
188	0x3da23c90	0.07921708
189	0x3c396a00	0.011316776
190	0xbde64fba	-0.112456754
191	0xbd456747	-0.048194196
192	0x3ccc1a79	0.024914967
193	0xbc1fa4ef	-0.009743913
194	0xbd10f127	-0.03538623
195	0xbd9a733a	-0.07541509
196	0x3d0e9496	0.03480967
197	0xbd3cd3af	-0.046100315
198	0x3c8858a0	0.016643822
199	0x3dbda4a1	0.09259916
200	0xbd9a7999	-0.07542724
201	0x3db26e8b	0.08712491
202	0xbbe2001b	-0.006896985
203	0xbce436f1	-0.02785823
204	0x3d8126fe	0.06306265
205	0xbd846676	-0.064648554
206	0x3aa6cceb	0.0012725865
207	0x3df54d85	0.11977676
208	0xbdb527e0	-0.08845496
209	0xbc2f6c72	-0.010707008
210	0xbdf7d8f4	-0.121019274
211	0xbda872ae	-0.082249984
212	0x3b45d67e	0.0030187662
213	0xbd569c28	-0.052395016
214	0xbd54afbc	-0.051925406
215	0x3e4da1a8	0.20081198
216	0xbb5ccff2	-0.003369328
217	0xbdf7a31f	-0.1209166
218	0x3dcb22f7	0.099187784
219	0x3cb5e0a2	0.02220184
220	0x3c4e3210	0.012585178
221	0xbd0595ec	-0.03261368
222	0x3db7716f	0.089571826
223	0xbe3c676f	-0.18398832
224	0x3df7b300	0.120946884
225	0x3d95d8c0	0.073167324
226	0x3e1bad34	0.1520279
227	0xbb9e1ddf	-0.0048253383
228	0x3ce70b89	0.028203743
229	0x3e428284	0.189951
230	0x3d625300	0.055254936
231	0x3be3a002	0.0069465647
232	0x3d94aadd	0.07259152
233	0x3e204c62	0.15654138
234	0xbdf029d2	-0.117267266
235	0x3db0be09	0.08629996
236	0xbe2fe14b	-0.17175786
237	0x3ddcb1e6	0.10776119
238	0x3e5b09c0	0.21390438
239	0x3c0f019b	0.00872841
240	0xbe0b6a88	-0.13614857
241	0xbddd7efe	-0.108152375
242	0x3dcadd63	0.099055074
243	0xbd1a6098	-0.037689775
244	0xbe0e1111	-0.13873698
245	0xbc806c2a	-0.015676577
246	0xbd8d79ca	-0.06907995
247	0xbd475d17	-0.04867276
248	0x3b9f0ac0	0.0048535764
249	0xbde48665	-0.11158446
250	0xbd8c9c26	-0.068657205
251	0x3d5fe412	0.054660864
252	0xbd918c2b	-0.07106813
253	0x3d5f2d42	0.05448652
254	0x3c480afe	0.012209652
255	0x3c57a736	0.013162425

mlp.0.bias f4 [64]
0	0x3d8623b7	0.06549781
1	0x3ce3709f	0.027763663
2	0x3d87416d	0.06604276
3	0xbdb0dfc4	-0.0863643
4	0x3d1d9e57	0.038481083
5	0xbdb6028c	-0.088872045
6	0xbdf0ca9e	-0.11757396
7	0xbcf7d7d2	-0.030254278
8	0xbcc0b56d	-0.02352401
9	0x3cef38b7	0.029201848
10	0xbd870e8c	-0.065945715
11	0xbc3f9e54	-0.011695463
12	0x3d4b80d4	0.049683407
13	0x3dce8770	0.100844264
14	0xbd883033	-0.06649818
15	0xbd1d348a	-0.038380183
16	0xbd149104	-0.03627111
17	0xbd9fd94b	-0.07805117
18	0xba1dd76a	-0.0006021174
19	0xbde1ca2c	-0.11024889
20	0x3d534abb	0.05158494
21	0xbcbdd13e	-0.023171064
22	0x3d8b24d7	0.06794136
23	0xbd33bbba	-0.043880202
24	0xbd1006b2	-0.035162635
25	0x3dc5b91f	0.0965445
26	0x3c633a5a	0.013868893
27	0x3da491ec	0.08035645
28	0xbd8a1b06	-0.067434356
29	0x3d880d0b	0.06643113
30	0xbd8aea03	-0.067829154
31	0x3b18d6e5	0.0023321446
32	0xbdb69c79	-0.089165635
33	0x3cbc3ac4	0.02297724
34	0x3d4e43a1	0.050357465
35	0xbd40bf70	-0.04705757
36	0xbd9b963f	-0.075970165
37	0xbdbcb251	-0.09213699
38	0x3da67959	0.08128614
39	0xbdcd2fcf	-0.100188844
40	0x3d4b395d	0.049615253
41	0xbd0c1164	-0.034196272
42	0x3c9f8a3a	0.019475091
43	0x3b415991	0.0029502849
44	0xbd0bcd5b	-0.03413139
45	0x3d19ebe3	0.037578475
46	0x3d2fc8a0	0.04291594
47	0xbcae888c	-0.021305345
48	0xbddf2c53	-0.10897126
49	0x3c919261	0.017769994
50	0xbd363f14	-0.04449375
51	0x3b9c1cbf	0.004764169
52	0xbd5e39f4	-0.054254487
53	0x3d8493a0	0.0647347
54	0x3d873620	0.066021204
55	0xbd1a3160	-0.037644744
56	0x3dce71ba	0.10080285
57	0xbcf8feb7	-0.030394895
58	0xbdb3cf08	-0.087797225
59	0x3bb2f62e	0.005461476
60	0xbdf1bc29	-0.11803467
61	0x3c77d39e	0.015126137
62	0xbdbc2fc8	-0.09188801
63	0x3d5f0100	0.054444313

mlp.2.weight f4 [64, 64]
0	0xbda2a419	-0.079414554
1	0xbe04488f	-0.12918304
2	0x3d8aeb75	0.06783191
3	0x3e085439	0.13313378
4	0x3bd33e24	0.0064466167
5	0xbda33a39	-0.079700895
6	0xbdbb0c5e	-0.09133218
7	0xbd91244a	-0.07087
8	0xbe41a87a	-0.18911925
9	0xbdb8dfe0	-0.09027076
10	0xbd81a272	-0.06329812
11	0x3e02586f	0.12729047
12	0xbd2a8371	-0.04162926
13	0x3d55792d	0.052117515
14	0x3e13c54c	0.14430732
15	0x3dad6ee0	0.08468413
16	0xbdae1576	-0.08500187
17	0xbe5f761a	-0.21822396
18	0x3cba1484	0.02271486
19	0x3c7d659a	0.015466118
20	0xbd00aad4	-0.031412914
21	0x3d893bb3	0.0670084
22	0xbe1f1ef1	-0.15539147
23	0xbc230d76	-0.00995194
24	0xbdf9aca7	-0.12191134
25	0xbbe1f311	-0.006895431
26	0xbd61e9b7	-0.05515453
27	0x3ca2c46f	0.019869057
28	0x3d7441cf	0.059633072
29	0xbcf7c61d	-0.030245835
30	0xbe06956e	-0.1314294
31	0x3de607c1	0.11231948
32	0x3dba1551	0.09086097
33	0xbdaf6960	-0.085650206
34	0x3d1f79dd	0.038934577
35	0x3da7a0e5	0.08184985
36	0xbd7d27cf	-0.061805543
37	0xbdb5895c	-0.0886409
38	0xbe750c74	-0.23930532
39	0xbddd6059	-0.108093925
40	0xbde4ea31	-0.11177481
41	0xbd85dfab	-0.06536802
42	0x3d9deb86	0.07710938
43	0xbdbf2923	-0.09334018
44	0xbdfffb31	-0.12499083
45	0xbdaeadbc	-0.08529231
46	0xbdac001d	-0.08398459
47	0xbd72833a	-0.05920718
48	0x3db34514	0.0875341
49	0xbe5a0bd3	-0.21293573
50	0xbcdcd785	-0.026958236
51	0xbdc09200	-0.09402847
52	0xbe1afdae	-0.15135834
53	0xbdb0a511	-0.08625234
54	0x3e069453	0.13142519
55	0xbc8b5ef8	-0.017013058
56	0xbd565520	-0.052327275
57	0xbdbddd42	-0.09270717
58	0x3d910008	0.07080084
59	0x3dd004ca	0.101571634
60	0xbe340ce2	-0.1758304
61	0x3daac8ab	0.08339056
62	0xbe1f907f	-0.15582465
63	0x3d4508f7	0.048104253
64	0xbdca3523	-0.09873416
65	0xbd8f0332	-0.06983031
66	0x3ce04009	0.027374284
67	0xbe3e8be3	-0.1860805
68	0x3d178de8	0.037000567
69	0xbdee2b0f	-0.116293065
70	0xbbe499ef	-0.006976358
71	0x3caa30f0	0.020775288
72	0x3d1aaabd	0.037760485
73	0xbdf104a8	-0.11768466
74	0xbcfb2f66	-0.03066225
75	0xbc761c63	-0.015021416
76	0xbe0e4945	-0.13895138
77	0xbcc1566c	-0.02360078
78	0xbde7d4c9	-0.113198824
79	0xbc43b02f	-0.011943861
80	0xbde27d7a	-0.11059089
81	0xbe11bcf3	-0.14232235
82	0x3dd6ec82	0.10494329
83	0x3926205a	0.00015843046
84	0x3d409452	0.04701645
85	0x3b83613b	0.0040093935
86	0x3b0bcbb2	0.0021331129
87	0x3ce8d709	0.02842285
88	0xbd3a493a	-0.04547999
89	0xbd8d605f	-0.06903147
90	0x3d402b52	0.046916313
91	0xbe06a668	-0.13149416
92	0x3dab84ea	0.08374961
93	0xbd9e3682	-0.0772524
94	0xbdb1face	-0.08690415
95	0xbd9edff0	-0.077575564
96	0x3d0dd974	0.034631208
97	0xbc6f3bcd	-0.01460166
98	0xbd794d34	-0.060864642
99	0xbe2d6cd9	-0.16936053
100	0xbd4d4fd8	-0.050124973
101	0xbd653a43	-0.055963766
102	0xbe1e3fe9	-0.15454067
103	0xbdadccda	-0.08486338
104	0xbc007bbd	-0.0078420015
105	0x3d5a75b7	0.053334918
106	0x3dd16fce	0.10226403
107	0xbe1ca5d0	-0.15297627
108	0xbd79050f	-0.06079584
109	0xbd1b371a	-0.037894346
110	0x3d58005a	0.05273471
111	0xbcebde8e	-0.028792646
112	0xbdbadd2e	-0.09124218
113	0xbdf68894	-0.12037769
114	0x3db1bba1	0.086783655
115	0x3da71a5b	0.08159324
116	0x3bd0ecfe	0.006375908
117	0x3c0e12f2	0.008671509
118	0xbe4b7ad1	-0.1987107
119	0xbd38b48a	-0.04509405
120	0xbdc815db	-0.097697936
121	0x3db15675	0.086590685
122	0x3cd82e0b	0.026389142
123	0xbd2dd17d	-0.04243611
124	0xbd9996cf	-0.074994676
125	0xbd65e42c	-0.056125805
126	0xbd86c7eb	-0.065811
127	0xbe1e1446	-0.15437421
128	0x3d4ed275	0.050493676
129	0xbd792e4d	-0.06083517
130	0xbd50f8ec	-0.05101864
131	0xbda16b3e	-0.07881783
132	0x3deaac71	0.11458672
133	0x3e0808c4	0.13284594
134	0xbe30469d	-0.17214437
135	0xbd19d9c0	-0.03756118
136	0xbe688cbc	-0.22709936
137	0xbcc53f38	-0.024077997
138	0x3c50f8f7	0.01275467
139	0x3ced2c45	0.028951773
140	0xbd97beb3	-0.0740942
141	0xbcd91eca	-0.02650394
142	0xbe082979	-0.1329707
143	0x3d49a905	0.049233455
144	0xbdde7475	-0.10862056
145	0xbdefd549	-0.11710603
146	0xbb2e6c7c	-0.0026614955
147	0x3daedb90	0.08537972
148	0x3e2a6b3e	0.16642472
149	0xba5b183c	-0.0008357798
150	0xbe3a9ab9	-0.18223085
151	0x3e01af6e	0.12664577
152	0x3ca47a90	0.020077974
153	0xbdeef321	-0.11667467
154	0xbd361351	-0.044452015
155	0x3d6e834a	0.058230676
156	0x3d92908d	0.07156477
157	0x3ddc3d77	0.10753911
158	0xbe5a9f3d	-0.21349807
159	0x3c2c2e55	0.010509093
160	0xbd31a6cf	-0.04337197
161	0xbd16aef2	-0.036787935
162	0xbe323155	-0.17401631
163	0x3db544b8	0.08850998
164	0xbd6c5c0a	-0.057704963
165	0x3dc8b526	0.09800176
166	0x3ceb5668	0.028727725
167	0x3c841b47	0.016126288
168	0xbe218d7c	-0.15776628
169	0xbd03991f	-0.03212845
170	0xbde38993	-0.111102246
171	0xbdda6a1c	-0.1066477
172	0xbda28d95	-0.07937161
173	0xbc923e91	-0.0178521
174	0xbc4e20fb	-0.012581105
175	0x3db23f63	0.08703496
176	0x3dda7248	0.10666329
177	0x3cfaef72	0.030631755
178	0xbe1ab20e	-0.15106985
179	0xbc6dbc0c	-0.014510166
180	0x3dd6ff56	0.1049792
181	0x3dd3dcd0	0.10344851
182	0xbde800dd	-0.1132829
183	0x3d9b05a0	0.07569432
184	0x3d301c1c	0.042995557
185	0xbcff5d64	-0.031172462
186	0x3d2fe28b	0.042940658
187	0xbdbf0734	-0.09327546
188	0xbd45955f	-0.048238155
189	0x3d070482	0.032963283
190	0xbd3ad89f	-0.045616742
191	0x3dba1f56	0.09088008
192	0xbe0a5ba8	-0.13511527
193	0x3d60e1b9	0.054902766
194	0xbda4941e	-0.080360636
195	0x3ce6815e	0.028137859
196	0x3e061c4b	0.1309673
197	0xbdf97030	-0.12179601
198	0xbd5822a9	-0.05276743
199	0xbd115539	-0.035481665
200	0xbd4ba5ef	-0.049718793
201	0xbdc4cb60	-0.09609103
202	0x3e08d379	0.1336192
203	0x3d4aaf08	0.04948333
204	0x3d89af32	0.06722869
205	0xbd5f4f5f	-0.054519054
206	0x3d6cda4c	0.05782537
207	0xbd7bce3c	-0.061475977
208	0x3daa2d2d	0.08309398
209	0xbc53b828	-0.012922324
210	0xbd981395	-0.0742561
211	0xbb042a36	-0.0020166761
212	0xbd5c9538	-0.053853244
213	0xbdc86f78	-0.09786886
214	0xbdd67f55	-0.104735054
215	0xbd1ff38a	-0.039050616
216	0xbc8ee0f5	-0.017441252
217	0xbd065340	-0.032794237
218	0xbcbd64d8	-0.023119375
219	0xbc0d892e	-0.008638663
220	0xbd8df2fc	-0.06931111
221	0x3d2ab419	0.04167566
222	0x3db20d70	0.08693969
223	0xbd33e977	-0.04392382
224	0xbe12d16a	-0.14337698
225	0xbdafbe9f	-0.0858128
226	0x3d680930	0.056649387
227	0xbd8b5356	-0.068030044
228	0xbe1e2dd3	-0.15447168
229	0x3d823444	0.06357625
230	0x3d78e79b	0.06076775
231	0xbdb6b3ac	-0.089209884
232	0xbda7b44b	-0.08188685
233	0xbdc52cfe	-0.09627722
234	0x3ce3ceca	0.027808566
235	0xbdc2d7e5	-0.09513835
236	0x3dab8e36	0.08376734
237	0xbc26a1d2	-0.010170417
238	0xbdea10fa	-0.11429019
239	0xbc80f90e	-0.015743759
240	0x3da13914	0.07872215
241	0xbdb45592	-0.08805384
242	0xbdb8e265	-0.09027556
243	0xbe290eff	-0.16509627
244	0x3daba7c2	0.08381607
245	0xbd841664	-0.06449583
246	0xbd36cb45	-0.044627447
247	0x3cf1bf56	0.029510181
248	0x3d113d04	0.03545858
249	0x3d1432b0	0.036181152
250	0x3d8d9f91	0.069152005
251	0x3d16fe45	0.036863584
252	0x3c600e29	0.013675251
253	0x3d8ebaa7	0.06969195
254	0xbd628290	-0.055300295
255	0xbc6404d0	-0.013917163

mlp.2.bias f4 [64]
0	0x3d9df801	0.077133186
1	0xbd2d34b3	-0.042286586
2	0x3d5582c7	0.052126672
3	0xbdeb0a97	-0.11476629
4	0x3d240cab	0.040051144
5	0xbdcf4cdc	-0.10122082
6	0xbdaeefd8	-0.0854184
7	0xbdec5540	-0.11539698
8	0x3d0c554c	0.034261033
9	0x3ded48f4	0.1158618
10	0xbd66ea4b	-0.056375783
11	0x3d6fc4a1	0.05853713
12	0xbdf74402	-0.12073518
13	0xbd2fc2b6	-0.0429103
14	0xbd381bd0	-0.0449484
15	0xbdef5520	-0.11686158
16	0x3da69f58	0.08135861
17	0xbd86c1d0	-0.065799356
18	0xbc489fa4	-0.012245093
19	0xbd34ffb8	-0.044189185
20	0x3e036823	0.12832694
21	0xbddcedc9	-0.107875414
22	0xbdf91fea	-0.1216429
23	0xbd970dc2	-0.07375671
24	0xbe028fcb	-0.12750165
25	0x3cd8d848	0.026470318
26	0xbcb2de91	-0.021834644
27	0xbd61d652	-0.055136032
28	0x3db11005	0.086456336
29	0xbdbdeeb9	-0.09274048
30	0x3d8983f1	0.06714619
31	0x3d88be5d	0.06676934
32	0xbdb587fd	-0.08863828
33	0xbd2ae0af	-0.04171818
34	0x3d6eef43	0.058333647
35	0x3de430fd	0.11142156
36	0xbd5ea095	-0.05435236
37	0x3cd2b994	0.025723256
38	0xbbe6c12d	-0.0070420713
39	0xbc86ab09	-0.016438978
40	0xbd27f85e	-0.041008346
41	0xbe1d459e	-0.15358588
42	0xbdab2d38	-0.08358234
43	0x3d4ff6ce	0.05077248
44	0x3cc0dcc5	0.023542771
45	0x3b6f3508	0.0036500115
46	0xbdd8813a	-0.10571523
47	0x3be46a48	0.0069706775
48	0x3cad32dd	0.021142418
49	0xbdc18406	-0.094490096
50	0xbd4652d5	-0.04841884
51	0x3c677029	0.014125862
52	0x3d9f1011	0.07766736
53	0xbd152d86	-0.036420368
54	0x3c9dfded	0.01928612
55	0xbda2b05c	-0.07943794
56	0x3d2fb16b	0.04289381
57	0xbde29b16	-0.110647365
58	0x3d1ea690	0.038733065
59	0x3d5830bd	0.052780855
60	0x3b8f755a	0.004378003
61	0xbcafd13d	-0.021462077
62	0xbe055c23	-0.13023429
63	0xbd921e2c	-0.07134661

mlp.4.weight f4 [1, 64]
0	0x3dbe1459	0.09281225
1	0xbcceb2ff	-0.025231836
2	0xbd68ea42	-0.05686403
3	0x3b8c6372	0.0042843157
4	0xbb5b3ad0	-0.0033451803
5	0xbd9c609c	-0.07635614
6	0x3db4293c	0.08796927
7	0x3c36b20e	0.01115085
8	0xbdc95093	-0.098298214
9	0x3d377c18	0.04479608
10	0xbd427852	-0.047478028
11	0xbd417504	-0.047230735
12	0xbe068525	-0.13136728
13	0x3b134ce7	0.0022476257
14	0x3d4ca049	0.049957547
15	0xbdd2fb39	-0.10301823
16	0x3d9b2bcb	0.07576712
17	0x3dd5ded7	0.10442894
18	0x3dc9cf54	0.09853998
19	0x3e3858c7	0.18002616
20	0x3c56a2e8	0.013100363
21	0xbd896a7f	-0.06709766
22	0x3e06499e	0.1311402
23	0xbe1b97fd	-0.15194698
24	0xbbf48251	-0.007461824
25	0x3d02d325	0.031939644
26	0xbe131818	-0.1436466
27	0xbcac39a7	-0.021023585
28	0x3d520863	0.05127753
29	0x3d30b93d	0.043145407
30	0xbd47dc5f	-0.048794147
31	0xbae08536	-0.0017129544
32	0xbd88c13e	-0.06677483
33	0xbdd8497e	-0.105608925
34	0xbe0c0746	-0.1367465
35	0x3db4daff	0.08830833
36	0x3d26442f	0.04059237
37	0x3d9ae031	0.07562292
38	0x3da92090	0.08258164
39	0x3d9eb90f	0.07750141
40	0x3d1995c1	0.037496332
41	0xbadb6a8b	-0.0016740126
42	0x3d6d9a1e	0.058008306
43	0x3d373ee3	0.044737708
44	0x3be8b12b	0.007101198
45	0xbcae6c57	-0.021291895
46	0xbe139827	-0.1441351
47	0xb9cdce4f	-0.0003925436
48	0xbe21dac8	-0.15806115
49	0xbc8fee51	-0.017569693
50	0xbd0e8c7a	-0.034801938
51	0xbe205ba8	-0.15659964
52	0x3d9c502f	0.07632481
53	0xbdddfdd0	-0.108394265
54	0xbe141f84	-0.14465147
55	0xbb80d273	-0.0039313375
56	0x3bd4b258	0.006490987
57	0xbc5f1daa	-0.013617912
58	0x3dbde618	0.092724025
59	0xbdb2e538	-0.08735126
60	0x3d447888	0.04796651
61	0xbe039155	-0.12848409
62	0xbdc646ef	-0.09681498
63	0xbc40faca	-0.011778543
