forecasting/midroll/dnn_model/model_1_ofwc2021.ckpt (torch, 42527 bytes, 5 tensors)

mlp.0.weight f4 [64, 90]
000000 e0 0a 7e 3d cc 3c 62 3e fc 40 7c be cf 06 dc 3d
       0.06202209 0.22093505 -0.24634165 0.10743486
000010 df 83 38 3e 9a 6d 6c be 9f 2a 03 bd 33 26 46 3e
       0.18019055 -0.23088685 -0.03202307 0.1935051
000020 30 33 8a bd 9b 98 33 be 2c 26 89 bb a9 0d a4 bd
       -0.067480445 -0.17538683 -0.0041854586 -0.08010418
000030 ce 09 b8 3c 25 3e 8d bd 85 39 65 3d f9 da 05 bd
       0.022465613 -0.06896619 0.055963058 -0.03267953
000040 89 5c e7 3d 48 bb 01 be 75 4a 46 bd 15 20 de 3d
       0.112969466 -0.12669098 -0.04841085 0.10845963
000050 33 93 fe bd cb 1c e5 3d ae 50 f7 bc 43 d4 07 3e
       -0.1243042 0.111871324 -0.030189838 0.13264565
000060 22 1a 5d 3c 15 7b e9 bd 91 75 b1 3c c2 ce a6 3c
       0.013495 -0.11400429 0.021662505 0.020362262
000070 a9 20 be bc 9a 5a f4 bd 87 c7 2c 3d 01 f5 f9 bc
       -0.023208933 -0.119313434 0.04218247 -0.030512335
000080 57 0f 95 3d c0 f5 e5 bb 2e 1b 2c 3d 72 ba c6 bc
       0.072783165 -0.007017821 0.042018108 -0.024258826
000090 6f 79 e0 3d 1c 49 7f bd 1e ec 1f 3c f5 83 12 3d
       0.109606616 -0.062325582 0.009760885 0.035770375
0000a0 53 ab d2 bd 01 dc 84 3d f5 60 84 3d cc c7 2f 3d
       -0.10286584 0.06487275 0.064638056 0.04291515
0000b0 39 f8 92 3c 74 6d 39 bb b9 a2 0b 3e e2 6e a1 bd
       0.017940627 -0.0028294 0.13636293 -0.07882477
0000c0 68 5a a3 3d fb 21 9f 3d 00 9b 07 bc 51 36 72 bd
       0.07976228 0.07770153 -0.008276701 -0.05913383
0000d0 f5 e1 58 bd 89 00 f4 3c 35 e2 97 3d 5e 30 66 3d
       -0.052949864 0.029785411 0.074161924 0.05619847
0000e0 fb f8 aa bc 8e 0b 73 bd 9f b0 e7 bc 90 8c 8f bd
       -0.020870676 -0.05933719 -0.028282462 -0.07009232
0000f0 f4 3b 5f 3d 1f 13 bb bd 3d c1 c3 3d 39 f8 b6 bd
       0.054500535 -0.091345064 0.09558342 -0.089340635
000100 19 35 85 bd da 64 45 3c 07 b9 c4 bd 1e 8b e1 3c
       -0.06504268 0.012047971 -0.09605604 0.027532157
000110 91 d2 96 3d 39 5d 30 bd 59 38 8c 3d 0f 82 35 bc
       0.07364381 -0.043057654 0.06846685 -0.011078372
000120 c6 dd df bd 19 bd 4e bd 89 c8 d3 3d 64 9c 05 3c
       -0.10930972 -0.050473306 0.103409834 0.008154962
000130 8e ca 7c bd 3d 12 77 3c 61 55 63 3d 65 c7 e1 3b
       -0.06171661 0.015080032 0.055501346 0.0068902248
000140 52 d5 69 bd 1d 47 e5 3d 26 f1 44 bd 17 79 4f 3a
       -0.057088204 0.111952044 -0.04808154 0.0007914467
000150 30 33 44 bd a2 ac f7 3d a8 8e 9c 3c dc c2 18 bd
       -0.04790038 0.12093474 0.019110993 -0.037295207
000160 e4 a0 b5 bd e4 83 16 3e ff f9 be 3b e5 66 c7 3e
       -0.08868578 0.1469875 0.0058281417 0.3894569
000170 29 c9 9f be a6 0e 7f 3e 43 2d 90 3e 61 21 f6 be
       -0.3120816 0.24907932 0.28159532 -0.4807234
000180 9c 33 8e bc 1d 74 9f 3d a7 4e 76 bc 65 55 61 be
       -0.017358594 0.07785819 -0.015033401 -0.22005232
000190 d1 21 4c 3d 80 df 02 be 83 bb f0 bd 1d 43 6b 3d
       0.049836937 -0.12780571 -0.11754515 0.05743705
0001a0 c3 6f d8 bd 9f 94 53 be 2b 8c 22 be d3 3c 84 be
       -0.10568192 -0.20662163 -0.15873782 -0.25827655
0001b0 26 40 cd bd bd e2 0c 3b 63 90 c2 3c e7 45 bb bc
       -0.10022001 0.0021497451 0.02375049 -0.02286048
0001c0 36 7b 8c bd b2 75 34 3d ec ec c3 3d 4f 87 f9 bd
       -0.06859438 0.044057555 0.09566674 -0.12184011
0001d0 39 66 a1 3d 82 62 31 3e 98 d8 c9 3c fe 6e 37 be
       0.078808255 0.17322734 0.024639413 -0.17913434
0001e0 6a 90 99 bc 63 d5 d9 bd ce bc 42 bb 59 7b 40 bd
       -0.01874562 -0.106364034 -0.0029714587 -0.046992633
0001f0 74 0f 5d 3d 95 e5 8f bb c8 92 d1 3b c8 ef e5 3d
       0.053969815 -0.004391382 0.0063956715 0.11227375
000200 7b b0 7a bc f1 32 83 bd 6e 19 82 3d 63 66 c0 3d
       -0.015300865 -0.06406201 0.063525066 0.09394529
000210 77 20 9c bd c6 2a 47 bd 65 63 6d 3c 3e 99 91 bd
       -0.0762338 -0.048624776 0.0144890295 -0.07109307
000220 e6 88 7d 3c 9f 40 bd 39 90 17 ab bd 61 55 14 bd
       0.015474534 0.00036097036 -0.083541036 -0.036214236
000230 ae 85 08 bd 13 1e 31 bd 0a 0e b5 3c 9f 7e a7 3d
       -0.033330612 -0.04324157 0.02210142 0.08178448
000240 ee 10 26 be a3 e5 b7 bd 56 43 b9 bd fe 8f 1b 3e
       -0.16217396 -0.089793466 -0.090460464 0.15191647
000250 70 88 19 bb 54 6b e8 bb 74 0f fb 3c 89 f8 39 3e
       -0.002342727 -0.0070928726 0.030647017 0.18161215
000260 15 37 19 be 86 76 ae be 41 26 3a be ea d4 b6 bd
       -0.14962418 -0.340748 -0.18178655 -0.08927329
000270 ef e8 89 be 25 7b 50 bd a9 57 c9 3d 96 5c 90 bd
       -0.26935527 -0.05089869 0.09831173 -0.07048909
000280 7a 2a 10 3d e5 4b 1f 3e fb 0c b2 bd 21 a3 fe bd
       0.03519676 0.15556295 -0.08693882 -0.12433458
000290 6c 90 99 3b b0 e3 a0 bb 01 3c 61 bc 13 d8 08 3e
       0.004686406 -0.004909955 -0.013747216 0.13363676
0002a0 16 ae 00 3d ba 35 d0 3d 4c e1 92 3d c7 bd 19 3d
       0.03141602 0.101664975 0.07171878 0.0375345
0002b0 4f aa 14 3d 74 fa ac bd 2d 0f 59 3d 4a 07 41 3c
       0.03629523 -0.08446208 0.05299299 0.011781523
0002c0 3d 6b a3 bd cd 99 73 3d 67 ee ac bd bd e6 b1 bd
       -0.079794385 0.059472848 -0.08443909 -0.08686588
0002d0 14 a0 9c bc c2 e1 2b 3d 0b 59 95 be 09 f3 bd bc
       -0.0191193 0.041963346 -0.29169497 -0.023187177
0002e0 02 b4 b7 3c ad aa f6 bd d9 25 1d 3c 7a 9b c4 3d
       0.022424702 -0.120442726 0.009591543 0.09599967
0002f0 d4 fe 41 3d 14 2d 05 bd cb b2 74 bd b9 88 f4 bc
       0.047362164 -0.032513693 -0.059740823 -0.02985035
000300 2f 6b 1a 3d 43 73 31 3c 6c 13 9b 3b b7 97 81 3c
       0.037699874 0.010830703 0.00473254 0.015819414
000310 19 10 04 3e 82 6d c5 3d a4 20 0b bd dd 43 91 3d
       0.12896766 0.096400276 -0.033966675 0.07093022
000320 08 64 ca 3c d6 5d 44 bd 82 be 85 bd 78 dc 89 3d
       0.024705902 -0.04794105 -0.06530477 0.06731504
000330 1c 42 ab 3d 09 84 db bd 38 c8 79 3d f5 d1 90 3d
       0.08362219 -0.10718543 0.06098196 0.07071296
000340 23 47 2d bd 7a 5e 43 bc a8 d3 50 bd 6e 2d 0e bd
       -0.04230417 -0.01192438 -0.0509831 -0.034711294
000350 37 53 c6 bd 38 47 9b 3d 2e 7b 71 bc 7d b6 0f 3c
       -0.09683841 0.07581943 -0.014738841 0.008771536
000360 96 22 b2 3d a4 c4 bb 3a 7e 49 be 3d 00 80 86 bc
       0.08698003 0.0014325571 0.09291361 -0.016418457
000370 93 aa c4 3c a5 02 e7 3d 93 c1 3e bd 28 ab 77 3c
       0.024007117 0.11279801 -0.046571326 0.01511649
000380 c0 1e ac 3c 30 19 56 3d 03 2e db bd 28 4e 7f bd
       0.021010756 0.052270114 -0.107021354 -0.062330395
000390 dd 9a ca 3d b5 d4 91 3d 84 0a 0c 3e 2d 08 39 bd
       0.09892819 0.07120649 0.13675886 -0.045173813
0003a0 70 3f 2f 3d 8d b1 8b 3d 9c 78 2e be 84 e5 d6 bd
       0.042785108 0.068209745 -0.17038196 -0.104929954
0003b0 f9 eb 7c be 78 a5 17 bd 3f 78 ab bc c9 81 61 bc
       -0.24699391 -0.037023038 -0.020931361 -0.013763853
0003c0 3e e6 af bc 0a 14 4e 3e 85 0e 68 bd 89 08 ac 3d
       -0.021472093 0.20124832 -0.056654472 0.084000655
0003d0 cb ae 35 3e c2 db 95 bd 65 da 37 be dc bf f7 bd
       0.1774246 -0.07317306 -0.17954405 -0.12097141
0003e0 4e 0e 8f bd 16 65 6a 3d 69 a9 ac bd ce 2a 95 3d
       -0.0698515 0.05722531 -0.0843075 0.07283555
0003f0 f6 1b e9 bb 1c 9d 8d bd 38 19 a0 bd 31 d1 95 bd
       -0.007113929 -0.06914732 -0.0781731 -0.07315291

mlp.0.bias f4 [64]
000000 fa 37 d7 bd af 17 1f 3d ac 49 15 3d 2d 0e 38 bd
       -0.105087236 0.038840946 0.036447212 -0.044935394
000010 1c e8 a9 bd 81 b5 4f bd 1b f0 1b bb 08 13 a4 bc
       -0.082962245 -0.050710205 -0.0023794237 -0.020028606
000020 94 7e 10 3e 2f 62 bc 3d 45 ac 43 3d 2e cf dc bd
       0.14110786 0.091984145 0.04777171 -0.10781704
000030 ae 23 23 3d ab 1a 69 bd 41 68 e1 bc f2 41 b6 bd
       0.03982895 -0.0569102 -0.027515532 -0.08899297
000040 2d c9 de b9 02 91 d7 bd 9e 06 04 bd bb ad f5 3c
       -0.00042493027 -0.10525705 -0.032232873 0.029990068
000050 a7 ec d6 3d 3c 92 dd bd a9 f6 df bd 64 3b d8 3d
       0.104943566 -0.108189076 -0.109357186 0.10558203
000060 c0 8c 3d 3d b1 a9 e9 bd c3 d3 a7 3c f7 2b 48 bd
       0.046276808 -0.11409319 0.020486718 -0.048870053
000070 5d a8 8d bd 07 ab 5c 3d fa 16 3c 3d 70 2a df 3c
       -0.06916878 0.053874042 0.04592035 0.027241915
000080 c3 a8 b0 3b a0 31 a6 bd 02 ea d7 bc eb 91 37 bd
       0.0053912117 -0.08114934 -0.0263567 -0.044816893
000090 3e e6 21 3d 33 0a 13 bd 5c d9 ce bd 3b ed 88 3d
       0.039526217 -0.0358984 -0.10100052 0.06685873
0000a0 87 c8 fa bc 5e c6 31 3c d5 f4 54 bb cb 61 86 bc
       -0.030613197 0.010850517 -0.0032494564 -0.016404053
0000b0 68 ee 22 bd 21 e4 0f bc c9 50 c1 bd 8f 1a b1 3d
       -0.039778143 -0.0087824175 -0.09439237 0.08647644
0000c0 4c d8 d3 bc f6 05 d2 bc 4c 0a f8 bb 46 73 94 3d
       -0.025859974 -0.025637608 -0.007569587 0.07248549
0000d0 ab 93 2f 3c e4 4a f8 bc 5c 79 e8 bd d1 18 d1 3c
       0.010716359 -0.030309148 -0.113512725 0.025524529
0000e0 64 27 78 3d ff d7 a1 3c 65 ac 8d 3c 57 15 ee bd
       0.06058444 0.019756315 0.017294118 -0.11625164
0000f0 8f 6f b0 bd d0 72 99 3d 75 b8 7e bd 0d 2f 87 bd
       -0.08615028 0.07492602 -0.06218763 -0.06600771

mlp.2.weight f4 [64, 64]
000000 ca 51 69 bd 14 3e 59 bc 74 21 7d be df 46 12 be
       -0.056962766 -0.0132594295 -0.24719793 -0.14284848
000010 71 a2 70 bd 7c 25 f9 3c b4 3e 03 be ec 9c 39 3d
       -0.058748666 0.030413382 -0.12816888 0.045315668
000020 1a 0d 61 3d c6 0b 8d 3d 64 f2 35 be 88 04 7b bd
       0.054944135 0.06887011 -0.17768246 -0.06128362
000030 75 f5 fe bd c9 59 d3 bd fb ea 89 bd f6 d7 f4 3b
       -0.12449161 -0.103198595 -0.06734272 0.0074720336
000040 ee 81 51 be f0 17 c9 3d 36 ef e2 3c 4f 53 b3 bd
       -0.2045972 0.09819019 0.027701955 -0.08756124
000050 63 99 b4 bd da 61 86 be 3f 60 a9 bd 16 3e 69 3e
       -0.08818319 -0.2624653 -0.082703106 0.2277759
000060 9e fd 31 be 7a b8 42 3e ba 69 07 3e 07 d6 49 be
       -0.17381904 0.19015685 0.13223925 -0.19710551
000070 57 53 97 be 93 cf 94 be 16 ea cb bd 10 8b 60 bd
       -0.2955577 -0.29064617 -0.09956758 -0.05482012
000080 88 45 35 be 79 1a 98 3e de 5e a7 bc 35 fa 65 be
       -0.17702305 0.29707697 -0.020430978 -0.22458728
000090 a6 36 fb bd ee 6b c1 be da 67 99 bd 36 82 50 be
       -0.12266283 -0.37777656 -0.07490511 -0.20362172
0000a0 50 71 65 bc 1c f7 27 be 62 1f 33 3d 04 b0 a4 be
       -0.014004067 -0.16402858 0.0437311 -0.3216554
0000b0 f8 57 8e be 91 0e 42 be 59 46 cc bd cb c8 39 be
       -0.2780149 -0.18950869 -0.09974355 -0.18143003
0000c0 35 f1 bc 3c 03 54 14 be 24 4c 91 be 83 9f 97 3d
       0.023064235 -0.14485173 -0.28378403 0.07403471
0000d0 a5 ff 51 be 66 ad 10 3d cc b0 a7 3d 6a 87 9d bb
       -0.20507677 0.035321616 0.08188018 -0.0048074024
0000e0 4f 68 c8 bd 9a c9 8e 3e af 58 d1 be 36 15 87 be
       -0.0978552 0.27888185 -0.40887973 -0.2638337
0000f0 4e 37 e7 bb 26 53 42 be 1d bd 68 3d 8e 5c 3b 3e
       -0.0070561534 -0.18977031 0.056820977 0.18297026
000100 b3 cd d5 bc f0 f5 0c bd de a7 1a be 5e e4 bf 3d
       -0.026099062 -0.03441423 -0.15103099 0.093697295
000110 0d 65 b2 3d ea 87 12 3d 6d 57 cf 3d 5b 0f f5 bc
       0.0871068 0.03577415 0.10124097 -0.029914549
000120 dc fe 22 3d 27 7b 80 bd d6 d6 39 3d 25 95 16 be
       0.039793834 -0.062734894 0.0453709 -0.14705332
000130 ec 7f 89 bd 71 e2 c4 3d d8 6d 01 be 25 7f 5f 3d
       -0.06713852 0.09613503 -0.12639558 0.054564614
000140 e6 ec e1 3c 67 cc 38 bd f2 fb 5f bd 6c 72 ab bc
       0.027578782 -0.04511681 -0.054683633 -0.020928584
000150 00 9b 90 bd 1a 66 82 bb d8 23 9a 3d 69 2c 09 3d
       -0.07060814 -0.0039794566 0.07526368 0.03348962
000160 b4 37 00 3d af ee 63 3c 6d c8 83 bd b3 96 cf bd
       0.031303123 0.013911887 -0.064347126 -0.101361655
000170 f9 fd 05 be 8d 4a fa bd ed 3b 8e bd 4d 79 94 3d
       -0.13085164 -0.12221251 -0.06945024 0.07249699
000180 29 a7 0a 3d eb 3d 7b ba 17 94 d5 bb 41 46 a7 3d
       0.033850823 -0.00095841166 -0.006517898 0.08167697
000190 ef 18 01 be 96 b1 ca bd dc ed 98 ba 34 44 bf bd
       -0.12607168 -0.09897153 -0.0011667567 -0.093391806
0001a0 04 72 d1 bd 6d e0 08 3c a1 50 b6 3d af d9 71 bd
       -0.10226825 0.0083542885 0.089020975 -0.05904549
0001b0 7b bf 34 3d d6 73 a2 bd c4 3c 6f 3d 62 ad 94 3d
       0.044127923 -0.0793225 0.05840756 0.07259633
0001c0 15 45 28 bd 33 38 8a 3d fc 14 b0 3d 9d 73 ab bb
       -0.041081507 0.067490004 0.085977525 -0.005232288
0001d0 ba e9 71 3d 0e a1 e5 bd e2 00 e2 3d ba b8 35 3d
       0.05906079 -0.11212359 0.11035325 0.044365622
0001e0 1f 1e bc 3d 20 ac 21 3d cc d2 32 bd a7 e5 74 3d
       0.09185433 0.03947079 -0.043658063 0.059789326
0001f0 39 82 fc bd 13 f4 f9 bb d1 93 48 bd c1 2e 7e bd
       -0.123295255 -0.007627973 -0.048969094 -0.062056307
000200 0c ef 83 3d ad 16 b8 3e be 09 66 3d a3 02 8a 3e
       0.06442079 0.359548 0.056161635 0.26955137
000210 ea 73 b4 bc e0 26 93 3c fc 9a 9d 3e 3f d6 b7 3e
       -0.022027928 0.017962873 0.30782306 0.35905644
000220 c9 29 6d 3d 98 ec 2b 3d 75 e8 93 3e 2b 36 a8 3e
       0.057901178 0.04197368 0.28888288 0.32853827
000230 20 11 d2 3d 66 6f 78 3e d0 90 23 3d c2 7a c9 3e
       0.102571726 0.24261245 0.039933026 0.3935147
000240 34 9d 06 3e 69 30 39 3e fa 16 02 3e 29 11 16 3d
       0.13145906 0.18084873 0.12704077 0.03663746
000250 ed 70 83 3e 7d 04 72 3e de d8 34 3e 56 61 2a bd
       0.25672093 0.23634525 0.17660853 -0.041596733
000260 5c 67 57 3e bb 01 01 be 39 81 38 3d a4 66 a8 3e
       0.21035522 -0.12598316 0.04504511 0.3289081
000270 a4 af 57 3e d5 75 92 be d1 4b cb bc f8 c6 2b 3e
       0.21063095 -0.28605524 -0.024816426 0.1677512
000280 c2 9f 48 3e 5c f8 10 3e 2b 5e ca 3d f0 0f c3 bd
       0.19592193 0.14157242 0.09881242 -0.09524524
000290 59 39 a1 3e d5 2b b3 3e 2d 60 c8 3e ca 28 67 3e
       0.31489065 0.3499438 0.39135876 0.22574154
0002a0 ec 98 37 bd 1d 0e d9 3d 8d 45 bb bd f2 56 e7 3c
       -0.044823572 0.10598395 -0.09144125 0.028239701
0002b0 f3 f1 b9 3e a5 07 12 3e 90 a9 15 3e 7e 2e 4c 3e
       0.36317405 0.14260729 0.14615464 0.1993961
0002c0 41 e8 98 3e 9f e8 6f 3e 66 f2 0d 3e 6c cc ab 3d
       0.29864696 0.23428582 0.13861999 0.083886
0002d0 07 2d 08 3f 41 0a 49 bd 9a 49 52 3d 4d 52 cf bd
       0.53193706 -0.049082045 0.051339723 -0.101231195
0002e0 8e 63 84 bb dd a4 e0 3d 84 3b 8e 3e 69 85 ac 3e
       -0.004040188 0.10968945 0.27779782 0.33695534
0002f0 a2 18 79 bd 33 a3 6a 3e 45 e2 46 bc 25 97 e2 bc
       -0.060814507 0.22913818 -0.012138908 -0.027659962
000300 59 d9 78 3d 58 6d a7 3e 61 96 ab 3d c6 d8 1a 3e
       0.060754154 0.3270061 0.08378292 0.15121755
000310 a3 a8 d4 bd 12 18 5b 3d e2 e4 90 3e c3 51 a0 3e
       -0.103837274 0.053489752 0.28299624 0.3131238
000320 69 95 06 3e bb 7e 96 bb ca 65 7d 3e 9d d7 a3 3d
       0.13142933 -0.004592744 0.2474586 0.08000109
000330 ec ae 80 3e 62 4b 3b 3e 8f a5 12 bd de 74 da 3e
       0.25133455 0.18290475 -0.03580242 0.42667288
000340 68 f0 82 3e 04 64 94 3d 61 2a 28 bd c6 1e 7b 3d
       0.2557404 0.07245639 -0.04105604 0.061308645
000350 00 d8 82 3e e3 33 71 3e e4 86 34 3e 21 26 e5 bd
       0.2555542 0.2355495 0.17629582 -0.11188913
000360 89 0e 82 3c 9b e1 df 3b 49 aa 9b bd 5b 62 3c 3e
       0.015876072 0.006832314 -0.07600839 0.18396895
000370 8b e8 70 3e d9 30 93 be b7 9a 13 3e 1e e2 a8 3e
       0.23526208 -0.28748205 0.14414488 0.32985014
000380 fa a2 ca 3d 5a da 82 3d f7 63 a3 bd 41 ae d6 3d
       0.098943666 0.063893035 -0.07978051 0.10482455
000390 d1 d2 6e 3e bc 57 a3 3e 4a ab 2a 3e 5c 6b a9 3e
       0.23322608 0.31902874 0.16666904 0.3308972
0003a0 36 8d cf bc 0a ea 6c 3e ee 11 dc 3c 07 d7 ff 3d
       -0.02533589 0.23136154 0.026864018 0.12492185
0003b0 10 96 90 3e 23 4b 84 3e 4f fa 55 3d 7a 5f e3 3d
       0.2823949 0.25838575 0.052240666 0.11102195
0003c0 eb fb 7a 3e e9 6d c8 3e a2 0b 4a 3e eb 17 5f 3d
       0.24510162 0.39146355 0.19731 0.05446617
0003d0 d5 68 1e 3f 4c b5 a8 3d 16 3a c5 bd 94 c3 8f bd
       0.6187871 0.08237705 -0.0963022 -0.070197254
0003e0 2f 8f ae 3b 3c 87 a5 bd 5d 93 6e 3e 54 77 49 3e
       0.0053271274 -0.080824345 0.23298402 0.19674426
0003f0 74 3b ac bd 51 47 2b 3e 80 fe c8 bd 87 72 ac 3d
       -0.08409777 0.16726424 -0.09814167 0.08420282

mlp.2.bias f4 [64]
000000 3b e8 0e 3e 65 ee 82 bd ab 0a ed 3d 82 fb af 3d
       0.13955776 -0.063931264 0.115743004 0.08592893
000010 18 1b 71 bc 6a d3 12 3d 19 5e f2 bd 49 39 f4 3d
       -0.014715932 0.03584615 -0.11834354 0.11924989
000020 c4 42 38 3d f1 d8 21 3e 76 cb 0d be ee ec c1 bc
       0.044985548 0.15805413 -0.13847145 -0.023672547
000030 5f ed 8b 3d a1 46 ce bd 5c f4 f5 bd 7e f6 65 3d
       0.06832384 -0.10072065 -0.120094985 0.056143276
000040 4d 8a 60 3d d5 01 97 bd 0d 51 20 bd 81 f4 42 3d
       0.054819394 -0.07373396 -0.039139796 0.04759646
000050 9d 47 08 be b5 00 a3 3a a9 b6 55 bd a5 59 97 3d
       -0.13308568 0.0012436124 -0.05217615 0.07390145
000060 4b e8 f6 3d cb a5 35 3d d4 83 fa 3d e2 31 70 3d
       0.12056025 0.044347566 0.122321755 0.058641322
000070 e8 b1 81 3d ea 33 03 3b 3f 30 b8 bd 9a 5e ad bd
       0.06332761 0.0020019957 -0.08993577 -0.084653094
000080 55 99 b4 3c da 7e 95 bd b9 6b a9 3d 3b cb 96 3d
       0.02204577 -0.07299586 0.082724996 0.07362982
000090 51 70 84 3d 82 16 72 3d e7 23 02 be de 42 39 be
       0.06466735 0.059103496 -0.12709008 -0.18091914
0000a0 4a 15 a9 3d 97 54 1e 3e db 96 df 3d a5 6b 80 3d
       0.08256014 0.15461956 0.10917445 0.062705316
0000b0 20 54 39 3e 9c 27 f8 3c 43 b9 f7 bd 92 58 6f bd
       0.18098497 0.030292325 -0.12095883 -0.058434077
0000c0 c0 53 f4 3c 07 38 cd 3c 50 5a 03 3d b5 75 bc 3d
       0.029825091 0.02505113 0.03206855 0.09202138
0000d0 af 41 05 3e da fb 5f 3a de 89 98 3d 6e d1 25 3e
       0.13013338 0.0008544304 0.07448171 0.16193172
0000e0 c6 30 e6 3d 93 ac 48 3c 67 bd a9 3d 63 fe 26 3d
       0.112397715 0.012248176 0.08288079 0.040769946
0000f0 ea b4 33 3e 77 97 00 be ed c2 4b 3d bd 96 a5 3d
       0.17549482 -0.12557779 0.049746443 0.08085392

mlp.4.weight f4 [1, 64]
000000 66 88 a7 3e ff d0 3b bd 93 57 5f 3e 9e de 7b 3e
       0.3272125 -0.04585361 0.2181075 0.2459664
000010 26 25 6e be c6 47 e1 bb f0 14 85 bd 57 42 4b 3e
       -0.23256359 -0.006875011 -0.06498134 0.19849525
000020 87 dc 8e bd 20 08 4a 3e 00 4e 85 bd 1c 9d b0 bd
       -0.06975656 0.19729662 -0.06509018 -0.08623716
000030 a3 c9 76 bd e1 62 94 bd e0 dd 59 3d df 1b 81 3e
       -0.06025089 -0.07245422 0.053190112 0.25216576
000040 d6 03 80 3e e0 4a 8d be 9b 6d aa be ee 2f a3 be
       0.25002927 -0.27596188 -0.33286747 -0.31872505
000050 39 cb 21 bd c8 fe 6f 3e b1 56 bd be 09 ad 68 3e
       -0.03950045 0.23437035 -0.36980203 0.22722258
000060 ed f5 7c 3e 6d c7 70 3e 73 71 7e 3e 66 cf 18 3e
       0.24703188 0.23513575 0.24847965 0.14922866
000070 0e ab 82 be 4c 70 9a bd 56 49 58 bd 4d 1f 74 3e
       -0.2552113 -0.0754095 -0.052804314 0.23840065
000080 2a f1 c1 be 7c c6 6b bc d1 af 7f 3e d5 55 75 3e
       -0.37879306 -0.014390584 0.24969412 0.23958524
000090 0c dd 2f be fb 54 68 3e 5a ca fe 3e a4 54 dc 3e
       -0.17174166 0.22688667 0.49763757 0.43033326
0000a0 a4 02 2f be 57 e2 76 3e 0c ad 71 3e 5a 7f 44 3e
       -0.17090851 0.2410978 0.23601168 0.19189206
0000b0 74 31 9e 3e 98 94 c6 bd 58 54 85 bd 3c b2 d3 3d
       0.30897105 -0.09696311 -0.06510228 0.1033673
0000c0 63 45 8e be f6 92 cf be f9 5c 6b 3e f6 7c 82 3e
       -0.27787313 -0.4054181 0.22984685 0.25485963
0000d0 86 2e 6e 3e 12 73 73 bd a4 3d 6f 3e 1e 81 6c 3e
       0.23259935 -0.05943591 0.23363358 0.2309613
0000e0 be 09 8b 3e 7b 58 17 bf b0 92 13 bf e5 e2 96 be
       0.2715587 -0.59119385 -0.576457 -0.29469982
0000f0 97 c2 59 3e a9 f3 f6 3c c1 39 53 3e 06 66 c6 bd
       0.21265636 0.030145483 0.206275 -0.09687428
