forecasting/midroll/dnn_model/model_3_ofipl2022.ckpt (torch, 42535 bytes, 5 tensors)

mlp.0.weight f4 [64, 90]
00000000: f7d5 7e3a 825f f83d a964 83bd 6cb2 87bd
00000010: c8aa e93b b436 04bb 507a 96bd 98e9 783e
00000020: 068a 21bd 1b00 e63d 8634 64be e52b 963c
00000030: ca2d e1bd 027c 26be d925 c63c 9119 b73d
00000040: 0d03 35be 0815 e6bd a946 fabd aeef e0bd
00000050: 215e 89bc 2133 fabc 0fbb 2fbd 1959 bc3b
00000060: cc28 533e 777a 513e 25f1 d7bd 8056 20bb
00000070: 7029 00be e9db 833d 0c9c 91b9 6215 1d3e
00000080: 526a 8c3d cbcd 133e 8a3b 19bc 5655 81bd
00000090: 9113 883d 76ae 7bbc e2d7 6e3d a312 84b9
000000a0: d304 2cbc 2b00 b1bd f176 b5bd 0367 dd3d
000000b0: 3655 f1bd 500b dc3c 9c78 be3d 32e1 633d
000000c0: 30a6 513e 5308 373e c7b8 c2bc eb21 94bd
000000d0: 13e6 50bd c077 1bbe 5b73 50bc 73d7 383d
000000e0: 5821 8ebd d963 8ebd ceed 3b3c 53a5 b5bc
000000f0: 04f8 81bd f5d2 c13d d0d3 ebbd ca64 ac3d
00000100: 6cf2 d0bd a0f8 98bd 3bfb 643d 3bff d53c
00000110: 61ca 8b3d 3271 933c f78b 1bbd c0f9 603d
00000120: f095 a63c 94df e4bd e5e5 9bbd 8bdb 04bd
00000130: 3874 aebd db7f 13bd bf0d 573b d9c6 743d
00000140: eae0 323b 9936 ef3d f0f5 943d b94d 163d
00000150: fc5d 533e 91bd d2ba 7501 10be 5e80 003e
00000160: a866 3a3d 58e6 7bbd 07e5 003d b093 34bc
00000170: 32b1 cb3d 8903 bcbd 1c0a b6bc 6c6d 043c
00000180: 7167 91bc 6f72 b33e d542 dfbd 5b59 a4bc
00000190: a71c 24be 743e a03c 5889 4abd 413f cbbd
000001a0: 21a9 15bc 8d66 39bd 84fa 96bc 838c 9dbd
000001b0: 35a9 52bd e4c8 7d3d 16df e33d 7de6 b3bd
000001c0: f728 0c3e 3ea1 a13d 5208 073e ef4d 463e
000001d0: 8fdd 36bd b1f4 8abd 6ec2 cebd b4fa 803d
000001e0: ecd1 ebbd 0e20 ba3d 16d3 853c a6d1 463d
000001f0: 60e9 10bd 7e4d 99bd 6252 793d dbbe cbbc
00000200: ce49 1d3d 5d5c 523c 5b85 af3c b97c 3dbd
00000210: d9fa 94bd 252a 5e3d c00f 9fbd 3780 a93d
00000220: 5c2e 383d a471 8dbb 3aec 573e d835 b93c
00000230: 5533 22be 96c3 82bd 57b7 35be 2260 ccbc
00000240: 7763 b23d 7fcf fb3d 9638 1ebe 3402 c13d
00000250: 1a17 db3d 214b ec3d dbea cebd 468d e23d
00000260: 8dd2 ddbd 6469 2dbc fdee ebbd 9a6c 90bd
00000270: 4303 633d 2a21 95bd 532a 39bd e87c 55bd
00000280: 736f 46bd c3c8 7dbc 77ae f8bc 0cd1 afbd
00000290: 6876 e5bd f76c 3cbd 7df8 f3bd 6e73 1bbe
000002a0: c04f 0c3d 711c f53d 195a a83d b9ca 4e3d
000002b0: 4311 e73d 1940 e3bc 5828 d33d 8550 25bc
000002c0: 04c1 73be 99be 0a3c e3fa fd3c 9632 d1bc
000002d0: 7707 c7bc d1fa 033b ef52 8b3d 28d9 b33c
000002e0: b02a 533c 6a8f 3ebd 2461 01be 6a99 b43e
000002f0: c524 61be d213 4abd 556f a2be c3c5 113d
00000300: 6c2c e4bd d5aa 41be ca75 24be b6d6 90bd
00000310: 81e7 26be 297f 29bc 4012 693c 0ca4 13bb
00000320: 63c6 383d 1ebb 2b3d 610a 5c3d dc95 823d
00000330: 7629 833e 22cc 353d 0a91 46bd a9c8 363d
00000340: 6201 58bd 3087 563d 8aa8 453d 6664 21b9
00000350: 73dc 173e e93f 0e3e 1410 533d 6bb9 b1bd
00000360: 2aa9 0d3e 177c 123d 4169 40bd 203f 8d3d
00000370: fe2b 433d ba3b bebd 28e0 a8bd ede0 37bd
00000380: 88a7 033d 4485 9c3d 44ac 95ba 393e f83d
00000390: f1a1 2d3e 5e0d f43d 6e98 e5bd 16e5 043d
000003a0: cdf2 06be 4220 b0bc 2ae1 c4ba 219a 803d
000003b0: 389a 28be 7290 de3d 86be 6fbc 39d7 463d
000003c0: a6a5 1dbd 3bde 6c3e f2b1 f3bd 09f6 a83c
000003d0: a898 25be a2bd 92bc f611 c1bd 147e 32bc
000003e0: 985a 48bd d545 25be 15de a9bd e6bb 3dbd
000003f0: b689 a93d 3f2e 98bd fd13 e2bc 83b2 ccbd
0.00097212143 0.12127592 -0.06415684 -0.06625828 0.0071309544 -0.0020174207 -0.07347548 0.24307859
-0.03943827 0.11230489 -0.22285661 0.018331477 -0.10995062 -0.16258243 0.024187969 0.08940423
-0.17676945 -0.1123448 -0.122205086 -0.10983215 -0.016768517 -0.030541958 -0.042903002 0.005747926
0.20621032 0.20456873 -0.105440415 -0.002446562 -0.12515807 0.06438429 -0.0002777282 0.15340188
0.068562165 0.14433973 -0.009352574 -0.06315105 0.06644357 -0.015361419 0.05831135 -0.00025190887
-0.010499197 -0.0864261 -0.08860577 0.108106636 -0.11783831 0.026860863 0.09300348 0.055634685
0.20473552 0.17874269 -0.02376975 -0.07233032 -0.051000666 -0.151824 -0.012722815 0.045127343
-0.069399536 -0.06952638 0.011470271 -0.02217356 -0.06346133 0.09464065 -0.115150094 0.084176615
-0.10202488 -0.074692965 0.055903655 0.02612268 0.0682571 0.017998312 -0.037975278 0.05492568
0.020335168 -0.11175457 -0.07612208 -0.032435935 -0.08518261 -0.036010604 0.003281459 0.05975995
0.0027294704 0.116803356 0.07273471 0.036695216 0.20641321 -0.0016078224 -0.14063056 0.12548968
0.045508057 -0.06149897 0.031468417 -0.01102154 0.09945907 -0.09180362 -0.022221617 0.008082729
-0.01774952 0.35048243 -0.10901419 -0.02006214 -0.16026555 0.01956103 -0.049447387 -0.09924174
-0.009134562 -0.045263816 -0.018430002 -0.07692816 -0.0514309 0.061959162 0.11126535 -0.087841965
0.13687502 0.07892083 0.13186768 0.19365667 -0.04464489 -0.067849524 -0.10095678 0.06297818
-0.11514649 0.09088145 0.016336005 0.04853978 -0.035378814 -0.074854836 0.060869582 -0.02487128
0.038400464 0.012839404 0.021425894 -0.046261523 -0.07274408 0.05423941 -0.07766676 0.08276408
0.044966087 -0.0043165255 0.21086207 0.022608683 -0.15839894 -0.06384961 -0.1774572 -0.024948183
0.08710378 0.12295436 -0.15451273 0.09424248 0.10697766 0.11537767 -0.10103389 0.11062102
-0.10831175 -0.010584209 -0.11520193 -0.07051964 0.055423032 -0.07281716 -0.04520638 -0.052121073
-0.04844613 -0.01548976 -0.030356629 -0.085847944 -0.11204225 -0.046002354 -0.1191263 -0.15180752
0.034255743 0.119683154 0.0822031 0.0504863 0.11282589 -0.027740525 0.10310429 -0.010089998
-0.23804098 0.008468294 0.031003421 -0.025536817 -0.024295552 0.0020138512 0.06802928 0.021954134
0.012888595 -0.04652349 -0.12634712 0.35273296 -0.21986683 -0.04933531 -0.31725565 0.03558899
-0.11141285 -0.18912823 -0.16060558 -0.07072203 -0.16299249 -0.010345259 0.014225543 -0.00225282
0.04511107 0.041926496 0.053720836 0.0637624 0.2561757 0.04438413 -0.048478164 0.04462496
-0.052735694 0.05237502 0.048256435 -0.00015391558 0.14830188 0.13891567 0.051529005 -0.08677944
0.13834062 0.035762873 -0.046975378 0.06896806 0.047649376 -0.09288736 -0.082458794 -0.04489224
0.032142192 0.07642606 -0.0011419137 0.12121243 0.16956307 0.11916612 -0.11210714 0.032445036
-0.13178559 -0.021499757 -0.0015020717 0.06279398 -0.1646508 0.108673945 -0.014632827 0.048545096
-0.038488053 0.23131649 -0.11899175 0.020625131 -0.16171515 -0.01791269 -0.09427254 -0.010894317
-0.048914522 -0.1613992 -0.08294312 -0.046321772 0.082782194 -0.07430696 -0.027597422 -0.09994986

mlp.0.bias f4 [64]
00000000: 06b8 943c 7bc1 a73b b223 1a3e 3af6 3c3c
00000010: 6086 ff3d 01e1 0fbd 934f d03d 9970 b93d
00000020: 5f04 cb3d b446 4ebd 71c6 2f3d f951 433d
00000030: 273a 13bd f388 6f3d 2597 e73d d4f6 aa3d
00000040: 707e 533d 1f36 e23d 0471 943d 4b49 a1bd
00000050: c165 b33b da64 9f3c 9844 513d b2aa 403d
00000060: dbf3 45bd 3ddb 0a3d 5176 f83d 5f43 bd3c
00000070: fb8f 1b3e f6fa 893d 4869 cf3d 364c 463b
00000080: d4ae dd3d 2efb 46bb 0d6d c93d d018 e53d
00000090: 5792 a63d 8ed3 173d dfac 443d c184 b83d
000000a0: 8218 5fbd a484 f13c 9062 20bd 5b5e a3bb
000000b0: 5aae 093e 0c9b 623d ba35 94bb 48a4 a5bc
000000c0: a636 31bd a6a7 09bd f3fd e1bc a6c1 c13d
000000d0: 9c93 113d 0583 d33d 0424 64bd b211 653c
000000e0: 35de aabc 98e7 bc3d 436b ba3d fbcb 53bc
000000f0: b4f0 94bd 03fa 1b3e 0661 863d 807f 32bd
0.018154155 0.0051195 0.15052679 0.011533314 0.12476802 -0.03512669 0.101714276 0.090546794
0.09912943 -0.050360397 0.042913858 0.047685597 -0.03594413 0.058480214 0.113081254 0.0834786
0.051634252 0.11045479 0.072481185 -0.07875308 0.0054747765 0.01945727 0.051090807 0.047037788
-0.04832826 0.03390049 0.12131942 0.023103414 0.15191643 0.0673732 0.10127503 0.0030257828
0.108243614 -0.0030362117 0.09835253 0.11186373 0.08133381 0.03706699 0.048016425 0.09009696
-0.05446673 0.029482193 -0.039156497 -0.0049856133 0.13445416 0.055323645 -0.0045230063 -0.020219937
-0.043265007 -0.033607148 -0.027586913 0.09460764 0.035541162 0.10327724 -0.05569841 0.01398127
-0.02085791 0.092238605 0.0910249 -0.012927051 -0.07272473 0.1523209 0.065614745 -0.043578625

mlp.2.weight f4 [64, 64]
00000000: 05bb d73c e066 ad3c 5f23 37bd 734a e03d
00000010: d06b 833d d077 33bd 2629 19bd a3ff 95bc
00000020: 2c3d a93d a5c1 42bd 90b3 903d 98ea 10bd
00000030: b824 923c 8577 49bd f3ec 213d 565f 913d
00000040: 2ca0 e6bc 638e 0bbe b454 99bd ba7a 5d3d
00000050: 7bc6 a1bd 6ce2 1c3d 0206 9e3d 1bfd b9bd
00000060: b056 63bd 0678 ac3c d88d 8b3d 3fa7 0dbd
00000070: fe3f 6abd c089 9d3d 5893 063b 5484 9f3d
00000080: 5d0e e4bd 9ed0 93bd 81a7 04be 565e be3d
00000090: b5a1 27bc 0c4a d1bc 61a9 d13d fd1e f8bd
000000a0: 678f ac3d 37d9 5abd a713 5bbc 8efe ac3d
000000b0: ae83 963d c204 ff3c dd7c 6ebc 3add b8bc
000000c0: 7636 96bd 0769 fdbd 8bdb b0bd 8149 c2bd
000000d0: 0d61 203c 173d 8abd 99c9 0abc a6f9 c13d
000000e0: 79f3 103d 3d73 64bc 1bd0 e6bd 004f 183a
000000f0: 109c ae3d e527 07bc 3cfa eb3c 1f78 a3bd
00000100: 5850 01be c707 e7bd 734c 913b 057d adbd
00000110: e385 80bd 94ff c2bd a212 133d c12f bb3d
00000120: 476b 333d a902 6e3d 78aa 1dbd 50b0 363d
00000130: 55d3 a2bd df3e 483d 819b 1d3b 91ae 1e3d
00000140: f505 1c3d e81c 03bd ab8f 633d 51de 903b
00000150: f696 d73c 48cc 8d3c cbaf ebbc 2e4f 533b
00000160: 1f3e d5bc 1431 13be 4024 95bd 24d5 123d
00000170: e390 11be ef81 91bd bdb9 3cbd fde5 d1bc
00000180: f3df e4bb d153 cdbd 8113 2abd 2c1f 203d
00000190: eb46 873d eb77 8abc dde1 b8bc 698e 3f3c
000001a0: ded6 a13d 4f48 6d3c 863a 19be 03a0 363d
000001b0: 8768 a3bc f55c b73d 689f 0fbd 3d95 c5bc
000001c0: a856 88bc 6932 d83d cbe7 bc3c e2be 06be
000001d0: 24ea 56bd 3219 253d 9de4 01bd e488 a53d
000001e0: 5e2e bebd b063 4abd 53c9 16be 893a ab3c
000001f0: 7546 f23c 99da 6ebd 9de1 94bd d46e b4bd
00000200: 7622 e13d a063 41bd 5337 83bd bc87 6cbd
00000210: b6a6 14bd b350 4c3d 3cdd 143d 4492 cb3d
00000220: 24fe 2dbd 7251 50ba 3c20 263d 5cae 01be
00000230: e240 c4bc 8ec7 8ebd 6d15 7a3c 2f97 99bd
00000240: 569a 76bc 3cfb 30bd 7af0 733c 686c a6bd
00000250: c2dc 883d 44c2 6a3d 30f2 ef39 3556 b63d
00000260: 25e6 48bc 4a76 1e3d dd88 1c3c b4be eebd
00000270: 73fd f5bd 00e2 ddbd a557 e13c 3738 05be
00000280: de56 1bbd e5bb ab3c 80f4 ddbc 1412 a3bd
00000290: b00b a1bd 8a41 843d 1c31 b03d f522 e2bc
000002a0: 8079 37bc 4105 2dbc 96be e3bd 5f60 d73d
000002b0: c024 6fbd 5853 6ebd 9314 baba 64ac aa3c
000002c0: 2f07 07be f2fe 773d 2490 2fbd c76f 75bd
000002d0: 7756 afbd 7dd4 833d 6ab9 30bd e04b 8e3d
000002e0: ab5c 373d b96d 4c3d 5a59 ad3c d38c e23d
000002f0: a830 09bd 3666 d53d 039b c3bc f2b0 0fbd
00000300: 62b2 b4bd 1063 d6bd 15e1 f7bd c8df 1b3c
00000310: 582f f7bd a9d2 89bc c801 a53d 6958 e63d
00000320: 732c f3bd dc9c 9ebd 8190 d5bd a275 dabd
00000330: b4ae 303c dd21 0cbd 8efe cc3d 82b1 a63d
00000340: ebab f83c d3e4 8fbc 95af 603c 7a50 283d
00000350: 8f7a fcbd a81f ac3c 1fd4 2abd 2932 283d
00000360: 6228 b0bb b1d8 f7bd 0024 203d 94a1 ad3d
00000370: 6d8f e2bd 1cec dabd e1b0 47bd 321b a5bd
00000380: e7a6 75bd aa32 73bd 5ee9 c1bd c14e 80bc
00000390: 6c08 b8bd 34a5 1f3d c64d 31bc 907e 00bd
000003a0: e60e a83d 8793 c8bc 0ead a2bc d32b 743c
000003b0: b860 c93c 2469 dabd 354c 81bc ac17 783d
000003c0: 83dc c13d 7980 d83d ba4c 9c3c cc9c 7e3c
000003d0: 0385 9c3c 641a 65bd dcd8 d2bd a7b6 3cbd
000003e0: 09c8 7c3b 69bc da3c 5182 053d 73df 913c
000003f0: a81c c7bd ad1f 83bd c192 213d 2a22 cb3d
0.026334295 0.021167219 -0.044711467 0.109517 0.06417048 -0.043815434 -0.037392758 -0.018310374
0.08263621 -0.047547955 0.07065499 -0.035379976 0.017839774 -0.04918625 0.039532613 0.07098262
-0.028152548 -0.13628535 -0.07486859 0.05407212 -0.07899185 0.03830187 0.0771599 -0.09081479
-0.055502594 0.021053325 0.06814164 -0.034583326 -0.057189934 0.07692289 0.00205346 0.077889115
-0.11135552 -0.07217525 -0.12954523 0.09295337 -0.010231425 -0.025548004 0.102373846 -0.121152855
0.08425789 -0.05342981 -0.013371385 0.0844699 0.07349335 0.031130198 -0.014556137 -0.022566427
-0.07334606 -0.12373548 -0.086356245 -0.09486676 0.009788764 -0.06749933 -0.008470916 0.09471445
0.035388444 -0.013943491 -0.11270162 0.0005810112 0.0852586 -0.008249258 0.028805844 -0.07981896
-0.12628305 -0.1128078 0.0044341623 -0.08471111 -0.06275537 -0.09521404 0.03590644 0.09139968
0.04380348 0.058108006 -0.03849265 0.04460174 -0.07950465 0.048888084 0.0024048986 0.0387407
0.03809162 -0.03200999 0.055556934 0.0044210334 0.026317101 0.017309323 -0.028770348 0.003224324
-0.026030598 -0.1437419 -0.07282305 0.035847798 -0.14215426 -0.07104861 -0.04607557 -0.025622362
-0.0069847046 -0.10025752 -0.041522507 0.039092228 0.066053234 -0.016902884 -0.022568638 0.011691668
0.07902311 0.014482572 -0.14963731 0.044586193 -0.019947303 0.08953277 -0.03506413 -0.024119014
-0.016642883 0.1055649 0.023059746 -0.13158754 -0.052469388 0.04030723 -0.031712163 0.080827504
-0.092861876 -0.049411476 -0.14725237 0.020901935 0.029574612 -0.05831394 -0.07269595 -0.08810201
0.10992901 -0.04721415 -0.06407037 -0.057746634 -0.0362918 0.04988165 0.036343798 0.09940007
-0.042478696 -0.00079467066 0.040558085 -0.12664169 -0.02395672 -0.06971656 0.015263897 -0.07499539
-0.015051445 -0.043208346 0.014888877 -0.081261456 0.06682731 0.057314172 0.00045766076 0.089031614
-0.012261902 0.038687028 0.009554115 -0.116574675 -0.12011232 -0.10834122 0.027507612 -0.13009726
-0.03792464 0.020963619 -0.027094126 -0.079624325 -0.07863557 0.06457813 0.08603117 -0.02760456
-0.011198401 -0.010560335 -0.11120336 0.10516428 -0.058384657 -0.05818495 -0.0014196805 0.020834155
-0.13186334 0.06054587 -0.042862073 -0.059921052 -0.08561414 0.06437013 -0.043145575 0.06948066
0.04476611 0.049909327 0.02116077 0.11062016 -0.033493668 0.10419886 -0.023877626 -0.035080858
-0.08823086 -0.104681134 -0.12103478 0.009513803 -0.12069577 -0.016824083 0.0805698 0.11247332
-0.118737124 -0.07744762 -0.104279526 -0.10666968 0.01078384 -0.034211982 0.1000949 0.08139326
0.030355414 -0.017565167 0.013713737 0.041092373 -0.12328064 0.021011189 -0.0417062 0.04106346
-0.0053759078 -0.121018775 0.039096832 0.08478084 -0.110625125 -0.106895655 -0.04875267 -0.08061828
-0.059973624 -0.05937449 -0.094683394 -0.015662553 -0.08985981 0.03897591 -0.010821765 -0.0313707
0.08205967 -0.024484409 -0.01985791 0.014903027 0.024582252 -0.10664585 -0.015783409 0.06056945
0.094658874 0.10571379 0.019079555 0.015540313 0.019106394 -0.05593337 -0.10295269 -0.04607263
0.0038571379 0.02670117 0.032594983 0.017806744 -0.097222626 -0.06402526 0.039446596 0.09918626

mlp.2.bias f4 [64]
00000000: 8dbc 7fbb 62bd b83d d335 803c 905a 07be
00000010: 7707 d03d 6493 79bc b573 f73c 4031 a1bd
00000020: df53 a0bb 095f 34bd db63 273e b987 0f3d
00000030: 4b3b 51bd 8e94 02bd e70b 043e eba4 e23d
00000040: def1 efbd 9ecf e1bd 64c0 303e 3ae2 3d3d
00000050: fbe6 44bd 0eba 053e 6fa6 f2bd da21 4e3d
00000060: e0b4 4d3c ab30 ddbb 4c77 99bd 74f6 143e
00000070: bed8 05be a1f7 f8bd 62f6 bb3c 101a e1bd
00000080: 75b8 2c3e dcb0 ea3d 7b4c 393e 9ab5 fdbd
00000090: 8f2f 35bd acc1 54bd d437 a1bd 653a 0c3e
000000a0: 26b8 993d ae5d 0e3e 7483 bd3d 95aa 1f39
000000b0: 1c9c 593d cab2 25bc 5c74 623a 1c19 7dbd
000000c0: 000b ab3c 1ad5 58bd 3c37 53bd e454 283c
000000d0: 8812 0e3e b18d e63d a713 113e 54d3 84bd
000000e0: 807b e93c 6c67 333e 862e 87bc 65c2 d6bd
000000f0: 319e 8d3d 06e2 07be 3f28 2e3e f502 b93c
-0.0039022297 0.09020497 0.015650665 -0.1321814 0.10157674 -0.015232895 0.03020654 -0.07870722
-0.0048928107 -0.044035945 0.16346686 0.035041545 -0.051081937 -0.031879954 0.12895165 0.11066612
-0.117160544 -0.11025928 0.17260891 0.046358325 -0.048071843 0.13059255 -0.11848151 0.050325252
0.012555331 -0.0067501864 -0.07493457 0.1454714 -0.13070962 -0.121566065 0.022944633 -0.10991299
0.1686724 0.114595145 0.18095581 -0.123881534 -0.04423481 -0.051942512 -0.078719765 0.13694151
0.07505827 0.13902923 0.09253588 0.00015226968 0.053127393 -0.010113427 0.0008638555 -0.061791524
0.020879269 -0.052937604 -0.051566347 0.010274146 0.13874257 0.11257494 0.14167653 -0.0648562
0.028501272 0.17519921 -0.016501676 -0.104862966 0.06914938 -0.13269815 0.1700754 0.022584418

mlp.4.weight f4 [1, 64]
00000000: 2516 afbd d9b5 08bd 95e4 e1bc b3d8 d8bd
00000010: 6fde 693e 4a94 5e3e 7248 babd 1a3c f03d
00000020: 3719 323e 322d 5ebc 3ebc 973e 4002 c3bd
00000030: cbe0 9f3e 7fff 813e 321c 5b3e e3b8 913e
00000040: 460a dbbd 1b3f ccbd 8f6b 853e 8fe7 993e
00000050: 7463 2abd 8b74 893e b120 eaba a87a 7ebd
00000060: 58ee b5bc 2cdb 313e b8ad 303e 96ea 893e
00000070: 2e9b 07bc aeb5 11bd 5ec5 3c3e 1a25 93bd
00000080: 549f 7d3e 3306 853e 6a4b 7b3e 48ac a8bd
00000090: 96c1 de3d 2af6 363e acca 413d 3569 8c3e
000000a0: 3a5c 803e 102b 733e 6bb0 7f3e 6913 973e
000000b0: 54c0 2c3e e512 b1bd 66ca 863e dc36 743e
000000c0: edd8 813e 8da0 b4bc c2ab a7bd 2004 823e
000000d0: f2f4 5b3e 1cd2 623e 10df 523e da40 95bd
000000e0: b02e 64bb 7aa3 483e 3631 573e d4d1 053c
000000f0: 90b1 4cbd f50a f73c ebe0 8b3e 9ef1 acbd
-0.085491456 -0.03337655 -0.027574817 -0.10588207 0.22838758 0.21736255 -0.09095849 0.117302135
0.17392431 -0.01356058 0.29635805 -0.095219135 0.3122619 0.2539024 0.21397474 0.2846137
-0.10695319 -0.09972974 0.26058623 0.30059478 -0.041598752 0.26846728 -0.0017862526 -0.062128693
-0.022208378 0.17368764 0.17253768 0.26936787 -0.008276744 -0.035573654 0.18434665 -0.07184811
0.2476781 0.25981292 0.24540487 -0.08235985 0.10876767 0.17867342 0.047312424 0.27424017
0.25070363 0.23746896 0.24969642 0.29506996 0.16870242 -0.08646182 0.26326293 0.23849052
0.25360814 -0.022049213 -0.08187057 0.25393772 0.21480158 0.22150463 0.20592904 -0.0728776
-0.0034817867 0.19593611 0.21014866 0.008167703 -0.049974024 0.030156592 0.27320036 -0.08444522
