forecasting/midroll/dnn_model/model_1_ofac2022.ckpt (torch, 42527 bytes, 5 tensors)

mlp.0.weight f4 [64, 90]
0	0x3bbf2b4d	0.0058340193
1	0x3bbc2f0a	0.005742912
2	0x3d44c53f	0.04803967
3	0x3d703304	0.058642402
4	0x3dd98858	0.10621709
5	0x3c85fafb	0.016355028
6	0xbe0cb3c2	-0.13740447
7	0x3dfae184	0.12250045
8	0xbe05da83	-0.13071637
9	0xbdc348f7	-0.09535401
10	0xbd8a5fb2	-0.06756534
11	0x3d28cf26	0.041213177
12	0x3c87830a	0.016541976
13	0xbc94625a	-0.018113304
14	0xbdd45988	-0.10368639
15	0xbdf2d89d	-0.11857722
16	0x3c83304c	0.01601424
17	0x3dc92614	0.09821716
18	0x3caa2a95	0.020772258
19	0xbdd981fa	-0.10620494
20	0x3e4729dc	0.19449562
21	0x3ddf5a13	0.10905852
22	0x3e162361	0.14661933
23	0x3c65ea59	0.014032924
24	0xbdb9bdcf	-0.09069406
25	0xbc6be98f	-0.014398946
26	0x3d91cda4	0.07119301
27	0xbdb18901	-0.086687095
28	0xbd9fdc96	-0.07805745
29	0x3ccef81b	0.02526479
30	0xbd3b1e75	-0.045683343
31	0xbe0fde1b	-0.1404957
32	0x3dd1330e	0.10214816
33	0xbde7c060	-0.113159895
34	0xbd1416d6	-0.03615459
35	0x3cc9c700	0.024631023
36	0x3d12616b	0.035737436
37	0xbabe9a77	-0.0014541884
38	0x3d95a625	0.0730708
39	0xbd90a8a9	-0.07063419
40	0xbd902ff9	-0.070404
41	0xbaf16ace	-0.0018418671
42	0x3d1a7200	0.037706375
43	0x3d697805	0.056999225
44	0x3e01361c	0.12618297
45	0xbd6794a3	-0.056538235
46	0xbda37a41	-0.079823025
47	0x3d102ad0	0.03519708
48	0xbdd02534	-0.10163346
49	0xbe0fb0a7	-0.14032231
50	0x3b8c0973	0.0042735874
51	0x3d0506b6	0.032477103
52	0xbc9b3e2d	-0.018950546
53	0xbbb77387	-0.0055984887
54	0xbdb8d6e2	-0.09025361
55	0xbda63fcf	-0.08117639
56	0x3d4a8d1d	0.049450982
57	0xbd2cc4f5	-0.04218002
58	0x3de230cd	0.11044464
59	0xbdb051e0	-0.086093664
60	0x3b505945	0.003179149
61	0xbdb31a91	-0.087453015
62	0xbcb00bc4	-0.021489985
63	0xbdb1ba30	-0.086780906
64	0xbd746e46	-0.059675477
65	0xbcea9fbc	-0.02864062
66	0x3dd83dda	0.10558672
67	0xbcb78eb1	-0.022406908
68	0x3d332847	0.043739583
69	0xbd81615e	-0.063173994
70	0xbd09601f	-0.033538934
71	0xbda780bc	-0.08178851
72	0x3d425e78	0.047453374
73	0x3ca73da7	0.02041514
74	0x3cba699b	0.022755435
75	0x3d9ed710	0.07755864
76	0x3deb859f	0.115000956
77	0x3ca3608d	0.0199435
78	0x3dd9399d	0.10606692
79	0x3da1cbc6	0.07900195
80	0x3d534c2f	0.051586326
81	0x3da8ade2	0.082362905
82	0xbcd72396	-0.026262086
83	0x3ca36a6d	0.019948209
84	0x3d593822	0.053032048
85	0xbd5c768b	-0.05382399
86	0x3ba978f1	0.005171888
87	0xbd2bbe5d	-0.04192959
88	0xbd7feb49	-0.062480245
89	0x3d016f05	0.031600017
90	0x3d898894	0.06715503
91	0xbe0dccc4	-0.13847643
92	0x3d918aad	0.071065284
93	0xbe0b090a	-0.13577667
94	0xbe833ab6	-0.2563073
95	0xbd44be58	-0.04803309
96	0x3e2b1ca6	0.16710147
97	0x3d4b3ab0	0.049616516
98	0xbe019a7b	-0.12656586
99	0xbddd9635	-0.10819665
100	0x3e8f78dc	0.28021896
101	0x3d999bfe	0.07500456
102	0xbd1e26c0	-0.038611174
103	0xbcaaf526	-0.020868849
104	0x3d79e125	0.06100573
105	0x3bbec701	0.005822063
106	0x3de8e3b6	0.113715574
107	0x3dcf7723	0.101301454
108	0xbe491097	-0.19635235
109	0xbc02fd2d	-0.007994932
110	0x3b67b005	0.0035352719
111	0xbda6d3aa	-0.081458405
112	0x3d59ed5b	0.053204875
113	0xbd206506	-0.039158843
114	0x3e16f600	0.14742279
115	0xbdeb77d5	-0.114974655
116	0x3cef0b49	0.029180186
117	0xbc496d69	-0.012294152
118	0x3df2b9ca	0.11851843
119	0x3d533cd6	0.05157169
120	0xbc88aecc	-0.016684912
121	0x3d8589c8	0.0652042
122	0xbce6f047	-0.028190745
123	0xbd4f8fdb	-0.0506743
124	0x3cb2adba	0.021811355
125	0xbd17b011	-0.037033144
126	0xbd7ac6dd	-0.061224807
127	0x3d700c01	0.058605198
128	0xbca9bfa5	-0.020721266
129	0xbd4ed8ad	-0.050499607
130	0x3d1d00ed	0.03833096
131	0xbd167d93	-0.03674085
132	0x3de6fd38	0.112787664
133	0x3dc6b56b	0.097025715
134	0x3c072b14	0.008250017
135	0xbdb1a392	-0.08673777
136	0x3d3ae729	0.045630608
137	0x3d25e8e5	0.04050531
138	0x3da35047	0.07974296
139	0x3d4ac9ca	0.049508847
140	0x3d2086e0	0.039191127
141	0xbd6e3aab	-0.05816142
142	0x3a41b7d3	0.00073897577
143	0xbc81f619	-0.015864419
144	0x3e2ab35d	0.16669984
145	0xbec0e75c	-0.37676513
146	0xbcb9dd04	-0.022688396
147	0x3d8c0c6f	0.06838309
148	0xbe226a0f	-0.1586077
149	0xbda9b4a7	-0.0828641
150	0x3e8828ee	0.26593727
151	0x3e9f3976	0.31098527
152	0xbd8b7e6d	-0.06811223
153	0x3ad66ce2	0.0016359354
154	0xbe824703	-0.25444803
155	0xbdff9c1a	-0.12480946
156	0x3dc60250	0.0966841
157	0x3c64e7f5	0.0139713185
158	0xbdcf3f72	-0.10119523
159	0x3d891453	0.0669333
160	0xbda9c86a	-0.08290179
161	0xbd336dfb	-0.043806057
162	0xbe64fb43	-0.22361474
163	0x3d84d2da	0.06485529
164	0x3e0706b5	0.13186152
165	0x3c63d0b2	0.013904737
166	0x3d0ec209	0.034853015
167	0x3ba7896a	0.0051128166
168	0x3d3be6f4	0.04587455
169	0xbd9a1e09	-0.0752526
170	0xbe203d3d	-0.1564836
171	0x3dbce936	0.09224169
172	0xbdd8efc9	-0.105926104
173	0x3d610b2b	0.05494229
174	0x3de74da5	0.112941064
175	0xbd7ea961	-0.06217325
176	0xbde0de82	-0.1097994
177	0x3c5858e3	0.013204786
178	0x3c78777f	0.015165209
179	0x3d6fe4a2	0.05856765
180	0xbdc3ee73	-0.09566965
181	0xbcf364ab	-0.029711088
182	0xbb3e96be	-0.0029081549
183	0xbd291ce7	-0.04128733
184	0x3dad6421	0.08466364
185	0x3da97533	0.08274307
186	0x3bfa3289	0.007635419
187	0xbc7a9d29	-0.015296259
188	0xbadd4864	-0.0016882536
189	0xbbf2e80a	-0.007412915
190	0x3dc45376	0.095862314
191	0xbdebbe65	-0.11510924
192	0x3d73b1e2	0.059495814
193	0xbe38a433	-0.18031387
194	0xbd8a0604	-0.06739429
195	0x3e4e51d3	0.20148401
196	0xbdeb6d80	-0.11495495
197	0x3d1f1081	0.0388341
198	0x3e82db02	0.25557715
199	0x3d6a1ac5	0.057154436
200	0xbe82237a	-0.2541769
201	0x3e5bda7d	0.21470065
202	0xbdfbb00e	-0.12289439
203	0x3e57b91f	0.21066712
204	0xbe26fbe0	-0.1630702
205	0x39727a76	0.00023124539
206	0x3dad2274	0.08453837
207	0xbd8a4a52	-0.06752457
208	0xbda48037	-0.080322675
209	0xbdd2b7c8	-0.1028896
210	0x3ce059a9	0.027386503
211	0x3d60cd83	0.05488349
212	0x3c656cdd	0.014003006
213	0x3e095eb1	0.13415028
214	0xbdd5ffe8	-0.10449201
215	0x3d338fe2	0.04383839
216	0xbe6f5931	-0.23373868
217	0x3e61e778	0.22060955
218	0xbca76f55	-0.02043883
219	0x3cb1a8e7	0.021686984
220	0xbdefcfbe	-0.117095456
221	0x3d81a006	0.0632935
222	0xbe1f64b3	-0.15565757
223	0xbcc8e9aa	-0.024525482
224	0xbe3fa26c	-0.18714303
225	0x3dd5790a	0.10423477
226	0x3ad3ea51	0.0016167854
227	0xbd72e01e	-0.059295766
228	0x3d0def8c	0.034652278
229	0xbd9a93d2	-0.07547726
230	0x3d648ac0	0.055796385
231	0x3e15987f	0.14608954
232	0xbd3a10ba	-0.045426108
233	0x3d520fb5	0.05128451
234	0x3cd750c1	0.026283624
235	0x3e0a97d4	0.1353448
236	0xbda35bbc	-0.07976481
237	0xbd27803a	-0.04089377
238	0x3de83443	0.11338093
239	0x3c9df5f5	0.01928232
240	0x3e5ecf79	0.21758832
241	0x3cc690e0	0.024239004
242	0xbb3fef9a	-0.00292871
243	0x3ddc19b3	0.10747089
244	0x3d41f4a8	0.047352463
245	0x3d8b06ee	0.06788431
246	0xbcb47f49	-0.02203335
247	0x3e54ee0d	0.20793934
248	0x3e688344	0.22706324
249	0x3e167a20	0.14695024
250	0x3e068f90	0.13140702
251	0x3c32a3fd	0.010903356
252	0xbdf7ad55	-0.12093607
253	0x3e6af3dd	0.22944589
254	0x3e737d77	0.2377833
255	0x3e138d07	0.14409266

mlp.0.bias f4 [64]
0	0x3cd453ff	0.025918959
1	0x3db17858	0.08665532
2	0x3d9d29cb	0.07673987
3	0x3cbb3023	0.022850102
4	0x3d9c9df9	0.076473184
5	0x3d447981	0.047967438
6	0xbcf11c4a	-0.029432435
7	0x3c79aa11	0.015238301
8	0xbd1169ca	-0.03550128
9	0x3e06eda1	0.13176586
10	0xbde051b9	-0.10953087
11	0xbbf98be6	-0.007615554
12	0xbc691f5f	-0.014228671
13	0xbdaebeb5	-0.08532468
14	0x3d5aa37a	0.05337856
15	0x3d82deb6	0.06390135
16	0x3c2f0d9d	0.010684398
17	0xbcd1d582	-0.025614504
18	0xbcbd1dd8	-0.02308552
19	0x3d1c0848	0.038093835
20	0xbdbfdd66	-0.093684
21	0x3d243d20	0.040097356
22	0x3c7e1c82	0.0155097265
23	0x3d663fb5	0.0562131
24	0x3d4058ba	0.046959616
25	0xbd909405	-0.070594825
26	0x3cb83392	0.022485528
27	0xbb66392e	-0.0035129297
28	0x3d9f22c2	0.077703014
29	0x3d88a1a1	0.06671453
30	0xbd21926e	-0.039446287
31	0x3d051ad6	0.032496296
32	0x3dcc9146	0.09988646
33	0xbd1543a7	-0.03644147
34	0xbd28cd65	-0.041211504
35	0x3bc6c80e	0.006066329
36	0xbdac1b35	-0.08403627
37	0xbdc3362a	-0.09531815
38	0x3c25ddc8	0.010123678
39	0xbd93e614	-0.07221618
40	0x3dc866e3	0.09785249
41	0x3dab28a8	0.08357364
42	0x3d36abb9	0.04459736
43	0xbdd58bb4	-0.10427037
44	0xbd20f47e	-0.039295666
45	0x3dcf6fe2	0.10128762
46	0xbdb2aacd	-0.08723984
47	0x3da257fd	0.07926939
48	0xbc82adfb	-0.015952101
49	0x3d826a72	0.06367959
50	0x3db346b7	0.08753722
51	0xbd9ab33e	-0.07553719
52	0xbd690ee0	-0.05689895
53	0xbcef95db	-0.029246261
54	0xbcee538e	-0.029092576
55	0xbda349d2	-0.079730645
56	0xbd99aa73	-0.07503214
57	0xbd300e1d	-0.04298221
58	0xbdf257da	-0.118331626
59	0xbc777ef7	-0.015105954
60	0x3cc2669d	0.02373057
61	0x3dcaaf46	0.09896712
62	0xbcd3daf6	-0.025861245
63	0xbd806aac	-0.06270346

mlp.2.weight f4 [64, 64]
0	0x3d03173c	0.03200458
1	0x3ccd5768	0.025066093
2	0xbdc8af2c	-0.097990364
3	0xbdbd769a	-0.09251137
4	0xbcc73ec8	-0.024321929
5	0xbd94c528	-0.07264167
6	0x3c0ee8c0	0.008722484
7	0xbd2fcfa8	-0.042922646
8	0xbd9a6042	-0.07537891
9	0x3d5a7004	0.053329483
10	0x3d690b48	0.056895524
11	0xbdce83ae	-0.1008371
12	0xbdecdeca	-0.11565931
13	0xbdf6c7ce	-0.120498285
14	0x3c39f3a0	0.011349589
15	0x3d6c1f04	0.057646766
16	0x3dcc7594	0.09983364
17	0xbd40405c	-0.046936378
18	0xbc536850	-0.012903288
19	0x3d260224	0.040529385
20	0xbdab39b8	-0.08360618
21	0xbdbe3f18	-0.09289378
22	0x3bc98ba0	0.006150678
23	0x3d36dcd4	0.04464419
24	0x3cfd0870	0.030887812
25	0x3de37c90	0.11107743
26	0xbd94c7cc	-0.07264671
27	0xbcaa9b28	-0.020825937
28	0x3dc7593a	0.097338155
29	0x3dbc7464	0.09201887
30	0xbdf1a956	-0.117998764
31	0x3dec800c	0.115478605
32	0xbdffdbb8	-0.1249308
33	0xbdaddf4c	-0.08489856
34	0x3d148164	0.03625621
35	0x3db5ed4e	0.08883153
36	0x3d6b535c	0.057452545
37	0xbd26cbe8	-0.040721804
38	0xbcca3c58	-0.024686977
39	0xbcc3e260	-0.023911655
40	0xbdbb5da0	-0.09148717
41	0xbd1599d8	-0.03652367
42	0xbd12b5c4	-0.035817876
43	0x3d8eef36	0.069792196
44	0x3da8ba74	0.08238688
45	0xbdf5a88c	-0.119950384
46	0xbdb23894	-0.08702198
47	0x3b6374c0	0.003470704
48	0x3d4dc3c8	0.05023554
49	0xbcde44a8	-0.027132347
50	0xbd03b008	-0.0321503
51	0x3d106ae0	0.035258174
52	0xbcf8b508	-0.03035976
53	0x3d69d024	0.057083264
54	0x3d362800	0.04447174
55	0x3d6ab600	0.057302475
56	0x3d61769c	0.055044755
57	0xbdd70c7e	-0.105004296
58	0x3da959b2	0.08269061
59	0xbd9cce16	-0.07656495
60	0xbdaaec62	-0.08345868
61	0xbd4dd824	-0.050254956
62	0xbda99106	-0.08279614
63	0xbcfe8dc0	-0.031073451
64	0xbdff048d	-0.1245204
65	0xbd08d2ed	-0.03340428
66	0x3e206ca4	0.15666443
67	0x3dca057f	0.098643295
68	0x3c76f558	0.015073143
69	0x3e95e861	0.29278854
70	0x3e8942a7	0.26808664
71	0x3d72ae33	0.05924816
72	0xbe9f825c	-0.31154144
73	0xbd7655c3	-0.060140382
74	0xbf230d4c	-0.63692164
75	0xbdd9c3a6	-0.1063302
76	0xbd9272df	-0.07150816
77	0x3e668d3a	0.22514811
78	0x3eb25ad7	0.3483493
79	0xbdddece3	-0.10836198
80	0x3e9d1f08	0.30687737
81	0x3dde4241	0.10852481
82	0x3d005445	0.031330366
83	0xbd20f10b	-0.039292376
84	0x3e6ee5af	0.23329805
85	0x3dabf21d	0.08395789
86	0x3da9e457	0.082955055
87	0x3e98b9d2	0.2982927
88	0x3e5ee2c0	0.21766186
89	0x3e7011a9	0.23444237
90	0x3e25847d	0.16163822
91	0x3e82eb9b	0.25570378
92	0x3dd5f098	0.1044628
93	0xbc74c07e	-0.014938472
94	0x3eb3882e	0.35064834
95	0x3e3b7525	0.18306406
96	0x3c150cfc	0.009097334
97	0xbda1390c	-0.07872209
98	0x3eb2ec8f	0.34946105
99	0x3de531b2	0.11191119
100	0x3e28566b	0.16439216
101	0x3dec750d	0.11545763
102	0x3d6ac5b6	0.057317458
103	0xbc6dd56d	-0.014516217
104	0xbc58e97a	-0.013239259
105	0xbd55a5a2	-0.052159913
106	0x3da7f8be	0.08201741
107	0x3d2bb7bf	0.04192328
108	0xbd5e0e16	-0.054212652
109	0xbc1a3cce	-0.009413911
110	0x3e310845	0.17288311
111	0x3e5ad3fd	0.2136993
112	0x3f120490	0.5703821
113	0x3e890784	0.26763546
114	0xbd1c4d33	-0.03815956
115	0x3eaef1db	0.34168896
116	0x3e744d6b	0.23857658
117	0x3eb78073	0.35840186
118	0x3ec27858	0.3798244
119	0x3ea598ed	0.32343236
120	0x3e58793c	0.21139997
121	0x3e448463	0.19191127
122	0x3e3b4635	0.182885
123	0x3d36028b	0.04443602
124	0x3c601fde	0.013679473
125	0x3dea1f0b	0.11431702
126	0xbc799d2f	-0.015235229
127	0x3dd53f9f	0.104125254
128	0xbdf820f1	-0.12115658
129	0x3e1594c4	0.14607531
130	0x3d0ea915	0.034829218
131	0x3d3a2a04	0.045450225
132	0x3d89e776	0.06733601
133	0x3c4bb588	0.012433417
134	0xbddb196b	-0.106982075
135	0x3dbbca62	0.09169461
136	0xbcb61dd5	-0.022231022
137	0xbe054c82	-0.13017467
138	0x3e35b5d4	0.17745143
139	0x3d4af100	0.04954624
140	0x3c9a1c70	0.018812388
141	0xbd0ce46f	-0.03439754
142	0xbc16ad08	-0.009196527
143	0xbd43cde6	-0.047803782
144	0x3dce0df4	0.10061255
145	0x3da8ed27	0.08248358
146	0xbde81cc2	-0.1133361
147	0x3d33a330	0.0438568
148	0xbdb8697f	-0.09004497
149	0x3c278949	0.010225602
150	0xbe0eace9	-0.13933147
151	0x3db4ce8c	0.08828458
152	0x3d7d8021	0.06188977
153	0xbd829f89	-0.06378085
154	0xbdcdc046	-0.10046439
155	0x3d4a194b	0.049340528
156	0xbcf7d908	-0.030254856
157	0x3cec845c	0.028871708
158	0xbcfd0fb5	-0.030891279
159	0xbd9427eb	-0.07234176
160	0xbdab455d	-0.08362839
161	0xbd1cc052	-0.03826935
162	0x3d8b7afc	0.06810567
163	0xbd4d48aa	-0.050118126
164	0xbddb6cdb	-0.10714122
165	0x3cfd94b0	0.030954689
166	0x3db4ccb0	0.088281035
167	0x3dd91925	0.10600499
168	0x3d0686ae	0.032843284
169	0x3dd899f3	0.105762385
170	0xbd16d03c	-0.03681968
171	0xbdb58f75	-0.08865253
172	0xbbaea5d2	-0.005329826
173	0xbe0fe9c4	-0.14054018
174	0x3cee76b4	0.029109336
175	0x3cc8df6f	0.024520604
176	0x3d3cc4a5	0.046085972
177	0x3c54da61	0.012991519
178	0xbdbf2f28	-0.09335166
179	0x3db8e5ef	0.09028231
180	0xbdcdfb9a	-0.10057755
181	0xbddf1a19	-0.108936496
182	0xbd35dc5a	-0.044399597
183	0x3b7ca5d2	0.0038550985
184	0xbd761242	-0.060076006
185	0xbe3c6b60	-0.18400335
186	0xbdf89e25	-0.12139539
187	0xbd1cafa7	-0.038253453
188	0xbde39c09	-0.11113746
189	0xbe0a5d2b	-0.13512103
190	0x39cc8447	0.00039008466
191	0x3dd3835f	0.103277914
192	0xbcc5fffc	-0.024169914
193	0xbd8b11c8	-0.06790501
194	0x3b9b3916	0.00473703
195	0x3de7b6a0	0.1131413
196	0xbca955c0	-0.020670772
197	0xbbe595e0	-0.007006392
198	0x3dbc257c	0.09186837
199	0xbc9480ce	-0.018127825
200	0x3d1b63dc	0.03793703
201	0xbdc4d817	-0.09611528
202	0xbde6a183	-0.11261275
203	0xbca50858	-0.02014558
204	0xbdd4b61f	-0.10386299
205	0x3da648ec	0.081193775
206	0xbd9b3cca	-0.07579954
207	0xbda20496	-0.07911031
208	0xbd69ef89	-0.057113204
209	0xbc45015f	-0.012024253
210	0xbe2c5ed2	-0.16833046
211	0xbe0a4658	-0.13503397
212	0xbe305a74	-0.17222005
213	0xbdb59cc3	-0.088677905
214	0xbdafc1e9	-0.08581907
215	0x3ce0c81e	0.027439173
216	0xbe047d98	-0.12938535
217	0xbd6fdcda	-0.05856023
218	0xbbcd5d20	-0.006267205
219	0x3ccb6918	0.024830386
220	0x3d95df9d	0.073180415
221	0xbdbafe97	-0.091305904
222	0xbde46729	-0.11152489
223	0xbdb90f01	-0.09036065
224	0x3d51841d	0.051151384
225	0xbcc628e5	-0.024189422
226	0xbcaf302d	-0.021385277
227	0xbdfb3010	-0.122650266
228	0xbda7972e	-0.08183132
229	0xbe0712b5	-0.1319073
230	0xbd4b7930	-0.04967612
231	0x3d88ce75	0.066800036
232	0x3c124d0d	0.008929503
233	0x3baf8896	0.0053568585
234	0x3d51f336	0.051257335
235	0xbcba39b4	-0.022732593
236	0x39d694de	0.00040928175
237	0xbd8cde24	-0.068783075
238	0xbe05a2fd	-0.13050456
239	0xbd503f5d	-0.050841678
240	0x3d1f04a8	0.0388228
241	0x3d983032	0.074310675
242	0xbe0f6040	-0.1400156
243	0x3c675b75	0.014120926
244	0x3d311425	0.043232102
245	0xba9e7be9	-0.0012091371
246	0xbd0411b0	-0.03224343
247	0x3d698acd	0.057017136
248	0xbda1bc58	-0.07897252
249	0xbde8ec51	-0.11373199
250	0x3d977fa1	0.0739739
251	0xbcda07d5	-0.026615063
252	0xbcca7509	-0.02471401
253	0xbdb3ba78	-0.087758005
254	0x3d8a86de	0.06764005
255	0xbd82b31c	-0.06381819

mlp.2.bias f4 [64]
0	0xbda6be12	-0.08141722
1	0xbcf00101	-0.029297354
2	0xbdfa3d7e	-0.1221876
3	0xbe32936e	-0.17439052
4	0xbdc4b457	-0.096047096
5	0xbe1abdd8	-0.15111482
6	0x3d0b5240	0.034013987
7	0xbe535311	-0.20637156
8	0x3dd4e491	0.10395158
9	0xbcd556ca	-0.02604236
10	0x3d3b739a	0.045764543
11	0xbd96a01e	-0.07354759
12	0xbd1d6033	-0.03842182
13	0x3d4d0b86	0.050059818
14	0x3e0f0d57	0.13969932
15	0xbc9ab612	-0.018885646
16	0x3df6bafb	0.120473824
17	0xbdd718cb	-0.10502776
18	0x3da1b24f	0.07895338
19	0x3e231fd3	0.15930109
20	0x3e1c5208	0.15265667
21	0xbb582a0a	-0.0032984042
22	0x3e311ca4	0.17296082
23	0xbd8a5d6d	-0.06756101
24	0xbd250f25	-0.040297646
25	0x3d9a1dd5	0.07525221
26	0xbc6ba626	-0.014382875
27	0x3e347255	0.17621739
28	0x3e418e66	0.18901977
29	0x3cb05fda	0.02153008
30	0xbd98e56c	-0.07465634
31	0xbe03eaab	-0.12882487
32	0x3df9f289	0.12204463
33	0x3bb8222c	0.005619308
34	0x3e0ead35	0.1393326
35	0x3e0c7512	0.13716534
36	0x3e602185	0.21887787
37	0xbddbb68c	-0.107281774
38	0xbdadd1bf	-0.084872715
39	0x3e569bef	0.20957921
40	0x3d4df8c1	0.05028606
41	0xbe093675	-0.1339968
42	0x3db0d682	0.08634664
43	0xbe08b6f9	-0.13351049
44	0x3e312cd3	0.17302255
45	0x3d52f1a8	0.051499993
46	0x3d0bfa07	0.03417399
47	0xbd2ac422	-0.041690953
48	0x3e5ed309	0.21760191
49	0xbda7c9a5	-0.081927575
50	0xbdaf49db	-0.08559009
51	0xbd9636d7	-0.073346786
52	0xbd9d094e	-0.0766779
53	0x3e310e42	0.17290595
54	0x3e44c6d4	0.19216472
55	0xbd16e505	-0.036839504
56	0x3e48368b	0.19552056
57	0x3db81ffc	0.089904755
58	0xbce3c000	-0.027801514
59	0xbb843af8	-0.00403535
60	0xbd9700f4	-0.07373229
61	0x3c8672d9	0.016412186
62	0x3d52faee	0.051508836
63	0x3d3f97b0	0.04677552

mlp.4.weight f4 [1, 64]
0	0xbdf3154c	-0.118692964
1	0x3e9f31e4	0.3109275
2	0xbd03e02c	-0.03219621
3	0xbd4d3786	-0.05010178
4	0xbc55637a	-0.013024205
5	0x397e91de	0.00024277667
6	0x3e83a936	0.25715035
7	0x3e809301	0.25112155
8	0x3e6732df	0.22578
9	0xbdb2b612	-0.087261334
10	0x3e903a6d	0.28169575
11	0xbdb469b5	-0.088092245
12	0x3e9679fb	0.2938994
13	0xbed8b0d7	-0.42322418
14	0x3e3d2f6c	0.18475121
15	0xbc486d68	-0.012233116
16	0x3e80e689	0.25175884
17	0x3e8ff835	0.28119054
18	0x3e88318e	0.26600307
19	0x3e7fd3f5	0.24983199
20	0x3e86e978	0.26349998
21	0x3e35c775	0.17751868
22	0x3e4c8954	0.19974262
23	0x3ea305ce	0.31840366
24	0xbdaf297f	-0.085528366
25	0xbdc6d115	-0.09707848
26	0xbb04d154	-0.002026637
27	0x3e6ef77d	0.23336597
28	0x3e3b8fac	0.18316525
29	0xbd3f51cd	-0.04670887
30	0xbf007566	-0.50179136
31	0xbdbc7625	-0.09202222
32	0x3ea8f15f	0.32996652
33	0x3eb8aa76	0.3606755
34	0x3e7dbf53	0.24780016
35	0x3e5c135e	0.21491763
36	0x3e3cdc3b	0.18443386
37	0xbd73f5ee	-0.05956071
38	0xbe837157	-0.2567241
39	0x3e6594eb	0.22420089
40	0xbc0e1a55	-0.00867327
41	0xbd94a323	-0.07257678
42	0xbd5e490e	-0.05426889
43	0xbd8474d1	-0.064675935
44	0x3e790329	0.24317612
45	0xbd04c3d0	-0.032413304
46	0x3e556913	0.20840864
47	0xbdae58ce	-0.08513032
48	0x3e84e853	0.259585
49	0xbd3fc204	-0.046815887
50	0x3e89c2d0	0.26906443
51	0xbd7a59ee	-0.06112092
52	0xbd17c934	-0.037057117
53	0x3e6c21ae	0.23059723
54	0x3e565a4a	0.2093288
55	0xbc1c2339	-0.009529882
56	0x3e76aac7	0.24088584
57	0xbc19d8b0	-0.009390041
58	0xbdabe310	-0.08392918
59	0xbcac2392	-0.021013055
60	0xbcf3265c	-0.029681377
61	0x3ea6cfb8	0.32580352
62	0x3e251b94	0.16123801
63	0xbd01f65c	-0.031729087
