forecasting/midroll/dnn_model/model_0_ofwc2023.ckpt (torch, 42527 bytes, 5 tensors)

mlp.0.weight f4 [64, 90]
0	0x3ce6b95e	0.028164562
1	0x3d480a73	0.04883809
2	0x3c2ef1a4	0.010677729
3	0x3e4a75e6	0.19771537
4	0xbd162253	-0.036653828
5	0x3dece965	0.11567954
6	0x3c45b381	0.012066723
7	0x3dad18ea	0.084520176
8	0xbd8c17c4	-0.068404704
9	0xbdf92a7b	-0.12166306
10	0x3d205a4b	0.03914861
11	0xbcaac708	-0.020846859
12	0x3cddd42d	0.027078712
13	0x3d57b990	0.0526672
14	0xbdc92d2f	-0.09823071
15	0xbd8c48d3	-0.068498276
16	0xbd31acda	-0.043377735
17	0x3d220730	0.039557636
18	0x3def8684	0.11695579
19	0x3dd8ac32	0.10579719
20	0xbdceca2c	-0.10097155
21	0xbd457861	-0.048210505
22	0x3dfb949f	0.122842066
23	0xbe314574	-0.1731165
24	0x3e01eb16	0.12687334
25	0x3d2674a8	0.040638596
26	0xbe1b9692	-0.15194157
27	0xbcb73572	-0.022364352
28	0xb916782d	-0.00014349884
29	0xbd815ee2	-0.063169256
30	0xbc74e9c4	-0.014948312
31	0xbcddd990	-0.027081281
32	0xbd3d9d81	-0.046292786
33	0xbdc9ae63	-0.09847715
34	0xbc60dce2	-0.013724538
35	0x3cb96cb4	0.022634842
36	0xbde36e3c	-0.1110501
37	0xbe84369f	-0.25822923
38	0xbd0d776b	-0.034537714
39	0x3df24918	0.11830348
40	0xbd501dab	-0.050809544
41	0x3d872fd9	0.06600923
42	0xbd898734	-0.06715241
43	0x3da5c106	0.08093457
44	0x3cf4af40	0.029868722
45	0xbda064e6	-0.07831745
46	0xbc7546af	-0.014970466
47	0x3d0316c8	0.032004148
48	0x3dca60df	0.09881758
49	0xbcc8ba74	-0.02450297
50	0xbdde305c	-0.108490676
51	0x3da7a51a	0.081857875
52	0xbe239dfe	-0.15978238
53	0xbc7bf765	-0.015378808
54	0xbe2daf4f	-0.16961406
55	0xbdaa3fe8	-0.083129704
56	0xbe05b7d8	-0.13058412
57	0x3d623e84	0.0552354
58	0x3bd896c9	0.006609772
59	0x3d8c447b	0.06848999
60	0xbe590486	-0.21193132
61	0x3bba5d85	0.005687418
62	0xbceeee7f	-0.029166458
63	0x3d02b778	0.03191325
64	0xbd87622a	-0.0661052
65	0x3dc84842	0.09779407
66	0xbdffb36b	-0.12485393
67	0x3e58ca23	0.21170859
68	0xbd824e4b	-0.063625894
69	0x3cb147e6	0.02164073
70	0x3cf45ce2	0.029829446
71	0xbd20a4a3	-0.03921951
72	0x3d02c149	0.031922612
73	0xbce7b3cd	-0.028283978
74	0x3d98c59b	0.07459565
75	0x3d394cf0	0.04523939
76	0xbd1e234d	-0.038607884
77	0x3dc63fbe	0.096801266
78	0x3dcccc4e	0.099999055
79	0x3dad1973	0.0845212
80	0xbc973e63	-0.018462365
81	0x3db57114	0.088594586
82	0x3b9f0776	0.0048531843
83	0x3c06fe5e	0.008239357
84	0xbd6ce517	-0.057835665
85	0xbd37cae4	-0.044871226
86	0x3c3bd6df	0.0114648035
87	0xbd63beee	-0.055602007
88	0x3d289c0c	0.041164443
89	0xbb90f0a1	-0.0044232165
90	0x3dd913e5	0.10599498
91	0x3cda282b	0.026630482
92	0x3daf3462	0.08554913
93	0x3d6d2203	0.057893764
94	0x3dab534b	0.08365496
95	0xbda001e2	-0.07812859
96	0x3bfbd285	0.007685008
97	0x3c8fc4d4	0.01754991
98	0x3d8ebc38	0.06969494
99	0x3d94b949	0.07261903
100	0xbdc7b81d	-0.09751914
101	0xbc9244d9	-0.017855095
102	0xbd962eb8	-0.0733313
103	0xbd890bb1	-0.06691683
104	0xbdca9dd5	-0.09893385
105	0xbd6074dd	-0.05479895
106	0xbd477fbc	-0.0487058
107	0x3d87b29e	0.066258654
108	0xbd987458	-0.07444066
109	0xbdd33b41	-0.10314036
110	0x3df0bce5	0.11754779
111	0x3c5372e7	0.012905813
112	0xbdaa03a2	-0.08301474
113	0x3ac00462	0.0014649744
114	0xbd836074	-0.06414881
115	0xbd9e0b42	-0.07716991
116	0x3c5a4b8d	0.013323677
117	0xbd7adbce	-0.06124478
118	0x3ca6698b	0.020313999
119	0x3cdc8acf	0.026921658
120	0xbd873df6	-0.06603615
121	0xbd960f28	-0.073271096
122	0xbdf400c0	-0.119142056
123	0x3d17b1a9	0.037034664
124	0xbda77d26	-0.08178167
125	0xbda02ac3	-0.07820656
126	0xbd07848b	-0.033085387
127	0x3ba6f68b	0.005095308
128	0xbc64caf9	-0.013964408
129	0xbaf789c9	-0.0018885668
130	0x3d830b4f	0.06398641
131	0x3b51568a	0.003194245
132	0xbdb10a81	-0.086445816
133	0xbc7ded42	-0.015498461
134	0x3cb23d08	0.021757618
135	0xbde312ef	-0.11087596
136	0x3cf44f1b	0.029822877
137	0x3cb0b59f	0.021570979
138	0x3d01b807	0.031669643
139	0xbc9113ec	-0.017709695
140	0x3d14684f	0.03623229
141	0x3ddc5481	0.10758305
142	0xbb0680ec	-0.002052362
143	0x3de0b992	0.10972895
144	0x3d1c7cfc	0.038205132
145	0xbbe24c42	-0.0069060633
146	0x3d8a0188	0.06738573
147	0x3dbc0246	0.09180121
148	0x3cbd5a5d	0.023114378
149	0x3d7cc867	0.061714556
150	0x3cb32cfd	0.021872038
151	0x3cd429cf	0.025898842
152	0xbcf90394	-0.030397214
153	0xbc1e96ef	-0.00967954
154	0x3d8bddb6	0.068293974
155	0x3c80688a	0.015674848
156	0x3d3e8289	0.046511207
157	0x3dd8e103	0.105897926
158	0xbd13ef0f	-0.036116656
159	0xbdb297f8	-0.08720392
160	0xbb6ae8ac	-0.003584425
161	0x3dc05620	0.09391427
162	0x3bb2a2e7	0.0054515484
163	0x3d70016f	0.058595117
164	0x3d8fe64f	0.0702635
165	0x3dab3a68	0.083607495
166	0x3c5a9c3c	0.013342913
167	0x3c324033	0.010879564
168	0xbd5bf237	-0.05369779
169	0xbd0f1ead	-0.034941364
170	0xbd824dca	-0.06362493
171	0x3d8977fe	0.0671234
172	0xbb795e83	-0.0038050718
173	0x3c924f79	0.017860161
174	0xbc8b31c0	-0.016991496
175	0xbcb79fac	-0.022415005
176	0xbd85594a	-0.06511171
177	0x3d8c1564	0.068400174
178	0xbc1c436e	-0.009537561
179	0xbdd1d787	-0.10246187
180	0x3c9c8581	0.019106628
181	0xbb885aa6	-0.0041611968
182	0x3d9f7b0d	0.07787142
183	0xbd700dd7	-0.05860695
184	0x3d84aece	0.06478654
185	0xbc1f5641	-0.009725154
186	0x3d6523e6	0.05594244
187	0x3ddfa7c8	0.109206736
188	0x3d32a216	0.04361161
189	0x3cda7d5d	0.026671106
190	0xbe04e872	-0.12979296
191	0xbd0493ab	-0.03236739
192	0xbd41356d	-0.04717009
193	0xbd0bfc5b	-0.03417621
194	0x3ba22e4b	0.004949366
195	0xbdca75bb	-0.098857366
196	0xbd2dfd4a	-0.042477883
197	0x3dd0b3b9	0.101905294
198	0xbbb9d8fd	-0.005671619
199	0xbddc3354	-0.107519776
200	0xbdaf074a	-0.08546312
201	0x3d8c2fde	0.068450674
202	0x3d5d7932	0.05407066
203	0xbd01610c	-0.03158669
204	0x3cef7585	0.029230842
205	0xbd82208a	-0.063538626
206	0xbcd90570	-0.02649185
207	0xbc7b7bdb	-0.015349354
208	0xbc63000b	-0.013854991
209	0x3d895a8c	0.067067236
210	0x3cce8c83	0.025213486
211	0x3dfdebf2	0.123985186
212	0xbde1ce51	-0.1102568
213	0xbcf4a882	-0.029865507
214	0x3d88783d	0.06663559
215	0x3e03f589	0.12886633
216	0xbc05317f	-0.008129477
217	0x3dcbe396	0.09955518
218	0xbdebf7ad	-0.1152185
219	0x3c9a35f8	0.018824562
220	0xbc5d5ead	-0.013511342
221	0x3d7ad248	0.061235696
222	0x3e14dfe2	0.1453853
223	0xbd89eb87	-0.067343764
224	0x3e432bce	0.19059679
225	0x3d281cd1	0.041043106
226	0x3e1418e7	0.14462624
227	0x3da6268d	0.08112822
228	0x3d48fc98	0.049069017
229	0xbdb897d9	-0.09013338
230	0xbbddcd29	-0.0067688418
231	0xbd86b66a	-0.065777615
232	0x3dae3810	0.08506787
233	0x3d2730c9	0.04081801
234	0x3e2cc407	0.16871653
235	0x3e22a3c7	0.15882789
236	0x3e011b6c	0.12608117
237	0x3d36696d	0.044534136
238	0xbdbad15b	-0.09121963
239	0xbdfc0f26	-0.12307577
240	0xbdd568eb	-0.10420402
241	0x3dce6aa5	0.100789346
242	0xbd106641	-0.035253767
243	0x3d9e94c6	0.0774322
244	0xbc7b121c	-0.015324142
245	0x3db706da	0.08936854
246	0xbd28d77e	-0.041221134
247	0x3d9e5a48	0.077320635
248	0xbdd06683	-0.101758026
249	0xbbebec8e	-0.0071998304
250	0x3d1ac1ff	0.037782665
251	0x3d6df068	0.058090597
252	0x3da9b10f	0.08285724
253	0xbdb74356	-0.0894839
254	0x3d85d4f4	0.06534758
255	0x3dbddf87	0.0927115

mlp.0.bias f4 [64]
0	0xbc4eb9d7	-0.01261755
1	0x3a7a5f7f	0.0009550973
2	0xbdfa16ac	-0.122113556
3	0x3d788abb	0.06067918
4	0x3dc617c2	0.096725
5	0xbc1b1775	-0.009466042
6	0x3d8c53c7	0.06851917
7	0xbafc8b1d	-0.0019267533
8	0x3c73a506	0.014870888
9	0xbd830ead	-0.063992836
10	0xbd54722f	-0.051866706
11	0xbd94ffd2	-0.07275356
12	0xbdb447af	-0.08802735
13	0x3dbe027a	0.09277816
14	0xbbe2621b	-0.0069086677
15	0x3d516894	0.051125124
16	0xbc83c042	-0.016082887
17	0xbd67c9c6	-0.05658891
18	0xbd7f4b17	-0.06232747
19	0xbd5d5ed3	-0.05404551
20	0x3d838294	0.0642139
21	0x3dbb6249	0.09149606
22	0xbdd9ccbd	-0.10634754
23	0x3da8c51a	0.08240719
24	0x3b804a43	0.0039151027
25	0xbd9db7e7	-0.07701092
26	0x3d7c8a4c	0.061655328
27	0xbc0c2b47	-0.00855524
28	0xbdadb441	-0.08481646
29	0xbc819a3e	-0.015820619
30	0xbdd1749e	-0.10227321
31	0x3be2dc75	0.006923253
32	0x3d82a185	0.06378464
33	0xbcc854cd	-0.024454499
34	0x3d139300	0.036028862
35	0xbbfc025c	-0.007690711
36	0xbd861efe	-0.0654888
37	0xbcb7d27b	-0.022439232
38	0x3c08d486	0.008351451
39	0x3d3aa447	0.045566823
40	0xbde5e9d8	-0.11226243
41	0xbd8bc49e	-0.06824611
42	0x3b2f599f	0.00267563
43	0xbdb50ced	-0.08840356
44	0x3d7e166b	0.0620331
45	0x3dae24f7	0.08503144
46	0xbc01cfb8	-0.007923059
47	0x3d7ef8ab	0.062248867
48	0xbdd3a990	-0.10335076
49	0xbdc444cb	-0.09583434
50	0xbd80f035	-0.06295816
51	0xbde4e175	-0.11175815
52	0xbd6fa2a6	-0.058504723
53	0xbd119742	-0.03554464
54	0xbd81da2f	-0.06340443
55	0xbc95fe63	-0.018309778
56	0xbdbcffe7	-0.09228497
57	0x3b82d2fd	0.003992437
58	0x3cf5909c	0.029976182
59	0x3c9de05a	0.019272018
60	0x3ca86b1f	0.020558892
61	0x3db9e883	0.09077551
62	0xbd72f022	-0.05931104
63	0xb9a0feee	-0.00030707516

mlp.2.weight f4 [64, 64]
0	0xbdbca06f	-0.09210288
1	0xbd28598b	-0.04110102
2	0xbdd87e4b	-0.105709635
3	0x3d99f040	0.07516527
4	0xbdfc746d	-0.12326894
5	0x3ddf7413	0.10910811
6	0x3d648619	0.055791948
7	0xbce31337	-0.027719123
8	0x3e011d53	0.12608843
9	0x3b95683d	0.0045595453
10	0xbde89207	-0.113559775
11	0x3da5377a	0.08067222
12	0xbda4ae28	-0.0804103
13	0x3d9752cc	0.07388839
14	0xbd15afa7	-0.03654447
15	0xbcb2a7be	-0.021808501
16	0xbd925012	-0.071441785
17	0x3d967671	0.0734681
18	0xbc6824b3	-0.014168906
19	0x3d81525d	0.06314538
20	0x3db3ed2f	0.087854736
21	0x3d6603ef	0.056156095
22	0xbc744fb0	-0.014911577
23	0xbd8bd1ca	-0.068271235
24	0x3ce627e3	0.028095191
25	0xbcc03023	-0.023460453
26	0x3d65f7be	0.05614447
27	0xbd2eae7f	-0.04264688
28	0x3b0576ae	0.0020364928
29	0x3e0046ef	0.12527059
30	0x3e1b4d30	0.15166163
31	0x3e3fa1c5	0.18714054
32	0xbccaf4d7	-0.024774952
33	0xbc764ac8	-0.015032478
34	0xbda88704	-0.08228877
35	0x3dba73e4	0.09104136
36	0xbd30eafb	-0.043192845
37	0xbd4178d1	-0.04723436
38	0xbd987235	-0.07443658
39	0x3afa785c	0.0019109356
40	0x3e04ed5c	0.1298117
41	0x3d27a26a	0.040926374
42	0xbdc154b9	-0.09439988
43	0x3daa16cc	0.083051294
44	0x3cdc9b96	0.026929658
45	0x3dc7ba6a	0.097523525
46	0x3dbaf4fd	0.09128759
47	0x3d9af1db	0.075656615
48	0x3d8fbc17	0.07018297
49	0xbd0b78d7	-0.03405079
50	0xbd9a8ff4	-0.07546988
51	0x3d06bf8b	0.032897513
52	0xbd652965	-0.05594768
53	0x3cab73a9	0.020929174
54	0xbcb28420	-0.021791518
55	0x3d82ce58	0.06387013
56	0x3d2e33f4	0.042530015
57	0x3d1d8c1e	0.038463704
58	0xbd887197	-0.066622905
59	0xbe0a4146	-0.13501462
60	0x3ca1ad6b	0.019736012
61	0xbd300757	-0.04297575
62	0x3d067095	0.03282221
63	0x3d8afd92	0.06786646
64	0xbdd75ae8	-0.10515386
65	0xbd32b383	-0.043628227
66	0x3dd31ece	0.1030861
67	0x3d4a90b8	0.04945442
68	0x3c9332a9	0.017968493
69	0xbc8def12	-0.017325912
70	0xbd74008a	-0.059570827
71	0xbe21994b	-0.15781133
72	0xbd4964aa	-0.049168266
73	0x3d3add3d	0.045621146
74	0x3dbf5452	0.09342255
75	0x3d243da1	0.040097836
76	0xbd547789	-0.05187181
77	0xbce9181e	-0.028453883
78	0x3da34781	0.07972623
79	0x3dd285a4	0.10279396
80	0xbd3314bb	-0.043720942
81	0xbd072554	-0.032994583
82	0x3d4460c9	0.047943864
83	0xbb549132	-0.0032435176
84	0x3e0e4f21	0.13897373
85	0xbd8f4947	-0.069963984
86	0xbda83232	-0.08212699
87	0x3d5fd252	0.054643936
88	0x3d82566b	0.06364139
89	0x3d8b9c6e	0.06816946
90	0x3defc6bf	0.1170783
91	0xbdd8823e	-0.10571717
92	0xbdd4a535	-0.10383073
93	0x3d99dd69	0.07512934
94	0xbda52bdc	-0.08065006
95	0xbe3a1d36	-0.18175206
96	0x3ddf0f60	0.108916044
97	0xbba146e3	-0.0049217804
98	0x3db0eb8c	0.08638677
99	0x3bfd27ef	0.0077257077
100	0xbe2dbf5e	-0.16967532
101	0xbdf2170a	-0.118208006
102	0xbb5d0043	-0.003372208
103	0xbdbe1eb0	-0.09283197
104	0xbe403eed	-0.18774004
105	0xbdb235c0	-0.08701658
106	0xbcac3908	-0.021023288
107	0xba1912e3	-0.0005839301
108	0xbc53f277	-0.012936226
109	0x3bcbcc93	0.0062194555
110	0x3dc2016a	0.09472926
111	0x3e044830	0.12918162
112	0x3cf7371c	0.030177645
113	0x3cfce889	0.0308726
114	0x3dfcfb6d	0.12352643
115	0x3da14b4a	0.078756884
116	0x3de51e01	0.111873634
117	0x3cfe1f61	0.031020822
118	0x3d074523	0.03302492
119	0xbe1f7a18	-0.15573919
120	0x3c6fe32e	0.014641566
121	0x3d867961	0.0656612
122	0x3d98a0d8	0.074525535
123	0xbd802432	-0.06256904
124	0x3cc357fb	0.023845663
125	0x3d2cceed	0.042189527
126	0x3da38caa	0.07985814
127	0x3d978d27	0.073999695
128	0x3c5511ba	0.013004715
129	0xbdcb1f34	-0.09918061
130	0xbd264332	-0.040591426
131	0xbd184ebc	-0.037184462
132	0xbd82744d	-0.06369839
133	0xbd2d3462	-0.042286284
134	0x3c2c0788	0.010499842
135	0xbdbe6dce	-0.09298287
136	0x3e24e8e1	0.16104461
137	0x3e123019	0.1427616
138	0xbe934ff8	-0.2877195
139	0xbdab9019	-0.08377094
140	0xbd2eab4c	-0.04264383
141	0x3ddb1635	0.10697595
142	0x3da93e51	0.08263839
143	0xbb59adf0	-0.0033215247
144	0x3d03b4d1	0.03215486
145	0xbe3bac48	-0.18327439
146	0xbe8a0588	-0.26957345
147	0x3daf43fc	0.08557889
148	0x3da8b545	0.082376994
149	0xbc6bba29	-0.014387646
150	0xbc7ea31e	-0.01554182
151	0x3d8b460b	0.06800469
152	0x3d859f40	0.06524515
153	0xbdd5b29c	-0.10434458
154	0xbd2a93b2	-0.04164476
155	0x3db843b8	0.08997291
156	0xbbb21884	-0.0054350514
157	0xbce26c37	-0.027639491
158	0xbdc6de8b	-0.097104155
159	0x3e81bf5a	0.25341302
160	0x3db7c2ae	0.08972679
161	0xbe60069a	-0.21877518
162	0xba0a6835	-0.000527981
163	0x3dbd05f2	0.092296496
164	0xbe3758a6	-0.1790491
165	0xbe853f9b	-0.2602509
166	0xbc9d5b00	-0.019208431
167	0x3db963b3	0.09052219
168	0xbd289105	-0.041153926
169	0x3c9b50c7	0.018959416
170	0xbebfba0f	-0.3744664
171	0x3dd802a2	0.10547377
172	0xbe272aaf	-0.16324876
173	0xbd158596	-0.03650435
174	0x3c1eedcb	0.009700249
175	0xbe4bc4c3	-0.19899277
176	0x3dafd015	0.085846104
177	0xbc922e07	-0.017844213
178	0x3de96fb4	0.11398259
179	0xbd1a00ae	-0.037598304
180	0xbdc5f2f1	-0.09665478
181	0x3d664fd5	0.056228478
182	0x3d4b33b6	0.049609862
183	0xbe295633	-0.16536789
184	0x3cd53d0f	0.026030092
185	0xbe1d5eec	-0.15368241
186	0x3c54db10	0.012991682
187	0xbd60b740	-0.05486226
188	0xbe30a351	-0.172498
189	0xbd2e0389	-0.04248384
190	0xbd250762	-0.040290244
191	0x3dab1b80	0.083548546
192	0x3db8449d	0.08997462
193	0xbd767759	-0.060172413
194	0xbd356112	-0.044282027
195	0x3c7af9d0	0.015318349
196	0xbd2c7b7c	-0.04210995
197	0x3d17243b	0.036899786
198	0x3d48b4a1	0.049000386
199	0xbd59f5c9	-0.053212915
200	0x3ddad19f	0.10684513
201	0xbd3e484f	-0.046455678
202	0x3dc4d767	0.09611397
203	0xbd708efa	-0.058730103
204	0x3db0fe12	0.0864221
205	0x3d05ffbb	0.032714587
206	0x3d9cdb39	0.07659001
207	0x3dfab31b	0.12241193
208	0x3cc92b49	0.024556773
209	0xbe000a49	-0.12503923
210	0xbe237f71	-0.15966584
211	0x3db87b67	0.09007912
212	0x3ded526a	0.11587985
213	0x3df4c5ed	0.11951814
214	0x3de98b7a	0.11403556
215	0x3d91c213	0.07117095
216	0xbc00aa25	-0.007853066
217	0xbcb31ef7	-0.021865351
218	0x3db514e5	0.08841876
219	0xbcdb59d2	-0.026776228
220	0x3da2581c	0.07926962
221	0x3d4a7e0d	0.049436618
222	0xbd3f295a	-0.046670295
223	0x3e1bbeb6	0.15209469
224	0x3c238116	0.009979507
225	0xbca6509f	-0.020302115
226	0xbdc61967	-0.09672814
227	0x3c4a8d5a	0.012362802
228	0x3d180c38	0.037121028
229	0xbcf87e6b	-0.030333718
230	0x3d818b33	0.06325378
231	0x3e098ce1	0.13432647
232	0xbdad6861	-0.08467174
233	0x3daa343f	0.083107464
234	0x3d31e737	0.043433394
235	0xbd8ec7c3	-0.06971695
236	0x3dac1147	0.08401733
237	0x3c068fb9	0.008212977
238	0xbde1a00b	-0.11016854
239	0x3def141c	0.116737574
240	0xbdfc1702	-0.12309076
241	0x3de4fbdc	0.11180851
242	0x3cd9b9e1	0.026577892
243	0xbca11926	-0.019665312
244	0x3da491c7	0.08035617
245	0x3da781b1	0.081790335
246	0xbd90a196	-0.0706207
247	0x3de0ca6f	0.10976111
248	0xbd9e4fb9	-0.0773005
249	0xbda7b90d	-0.081895925
250	0xbe1bfb8f	-0.1523268
251	0xbcbb2718	-0.02284579
252	0x3d952968	0.07283288
253	0xba8c5685	-0.0010706937
254	0xbdf34801	-0.11878968
255	0xbd7a3a1e	-0.06109058

mlp.2.bias f4 [64]
0	0x3e122d9b	0.1427521
1	0xbd44e2a7	-0.048067715
2	0xbd05876a	-0.032599844
3	0x3e06e932	0.13174894
4	0x3d03346f	0.032032426
5	0xbda9978c	-0.082808584
6	0xbbbfe9de	-0.0058567366
7	0x3e2171fc	0.15766138
8	0xbdd52948	-0.104082644
9	0xbdc9ff28	-0.0986312
10	0x3def8d45	0.11696867
11	0xbe0095b5	-0.12557109
12	0xbdc3233c	-0.09528205
13	0xbb7a57c0	-0.0038199276
14	0xbdb852c1	-0.09000159
15	0x3d9646f4	0.07337752
16	0x3da51958	0.080614746
17	0xbd2a407c	-0.041565403
18	0xbd121079	-0.03566024
19	0xbd8dfdd7	-0.06933182
20	0x3dcad47a	0.09903808
21	0xbcd0810b	-0.025452157
22	0xbd5faea3	-0.054609906
23	0xbd05681a	-0.032569982
24	0xbcc9776d	-0.02459308
25	0xbdb8a68f	-0.090161435
26	0xbd86a42f	-0.06574284
27	0x3b8e4a44	0.0043423492
28	0x3d29c500	0.04144764
29	0xbc7dadb0	-0.015483305
30	0xbe13cccb	-0.14433591
31	0x3cb9f162	0.022698108
32	0x3db1b35d	0.08676789
33	0xbd324a9e	-0.04352819
34	0xbdb6d2b2	-0.08926906
35	0xbc12e089	-0.008964666
36	0xbdd42c12	-0.10359968
37	0xbdc0227a	-0.09381576
38	0x3dc3ed83	0.09566786
39	0xbc127d33	-0.008940983
40	0x3bfa6796	0.007641743
41	0xbdba1ca1	-0.09087492
42	0x3b3f7486	0.002921374
43	0x3caecf5e	0.021339115
44	0xbda42f25	-0.080168046
45	0x3a20a9b2	0.0006128802
46	0x3dfa03c5	0.1220775
47	0xbd8f8a92	-0.07008852
48	0xbd490feb	-0.049087446
49	0x3d224b7d	0.039622772
50	0x3d853202	0.06503679
51	0xbda79309	-0.081823416
52	0x3db58985	0.088641204
53	0xbd73cc45	-0.05952098
54	0xbdfe3116	-0.12411706
55	0x3da86ec1	0.0822425
56	0x3dbfc80a	0.09364326
57	0xbd1f9772	-0.03896279
58	0x3c7f5cf8	0.01558613
59	0x3d4c040f	0.049808558
60	0x3d94a9e3	0.07258966
61	0x3c897520	0.016779482
62	0x3da26c5d	0.07930825
63	0xbdabcc1b	-0.083885394

mlp.4.weight f4 [1, 64]
0	0x3de1ad08	0.11019331
1	0xbd3623bc	-0.044467673
2	0x3db3fbcf	0.08788263
3	0x3d2a59bd	0.041589487
4	0x3a7f92dd	0.00097493624
5	0xbaa399e6	-0.0012481778
6	0x3e572855	0.21011479
7	0x3d778274	0.060427144
8	0xbdcfc9f7	-0.101459436
9	0xbe266ecf	-0.16253208
10	0x3ded424a	0.11584909
11	0xbd6538eb	-0.055962484
12	0xbaaf624e	-0.0013380738
13	0x3c9458c6	0.018108737
14	0x3b00b58e	0.0019639465
15	0x3d6a57a7	0.057212498
16	0xbde2139e	-0.11038898
17	0xbd5a9d1e	-0.053372495
18	0x3dfda96a	0.12385829
19	0x3d39a1a5	0.045320172
20	0x3d89e6e9	0.06733496
21	0x3d3b2dd4	0.045698002
22	0xbe0a5024	-0.13507134
23	0x3dc2bb07	0.09508329
24	0xbcb94f20	-0.022620738
25	0x3d3b196d	0.045678545
26	0xbda9ff65	-0.08300666
27	0x3a434af4	0.00074498286
28	0x3defaf85	0.117033996
29	0xbdc3016b	-0.09521755
30	0xbbebfe41	-0.0072019403
31	0x3d16b6ae	0.03679531
32	0x3d81c60a	0.06336601
33	0x3e8d0f77	0.2755086
34	0x3c98fd52	0.01867548
35	0xbdae680c	-0.08515939
36	0x3db27adf	0.08714842
37	0x3d10808b	0.035278838
38	0xbd867cbd	-0.06566761
39	0x3db4374b	0.08799609
40	0xbd849823	-0.0647433
41	0x3db61444	0.08890584
42	0xbe0c488f	-0.13699554
43	0xbdf72adb	-0.12068721
44	0xbc8a253d	-0.01686346
45	0xbb37f592	-0.0028069955
46	0x3d05e9cd	0.032693673
47	0x3c445a9c	0.011984494
48	0x3da07c12	0.078361645
49	0x3dd06269	0.1017502
50	0x3d402955	0.046914417
51	0x3e31dd84	0.17369658
52	0x3ccecd4a	0.025244374
53	0xbe0e1e45	-0.13878734
54	0xbdb8e27f	-0.09027576
55	0x3b731f1d	0.0037097402
56	0x3dae88f4	0.085222155
57	0x3c97656c	0.018480979
58	0xbd33104a	-0.043716706
59	0x3cf8d24b	0.030373713
60	0xbbea596d	-0.0071517737
61	0xbd63d030	-0.055618465
62	0x3dca0cfb	0.09865757
63	0xbd372608	-0.044714004
