forecasting/midroll/dnn_model/model_2_ofwc2022.ckpt (torch, 42527 bytes, 5 tensors)

mlp.0.weight f4 [64, 90]
0	0x3c266b35	0.010157396
1	0x3bffe335	0.0078090676
2	0xbda0d4a0	-0.07853055
3	0xbdb5c8d9	-0.08876199
4	0xbdc5471b	-0.09632703
5	0x3cfb0045	0.030639777
6	0x3db34f48	0.08755356
7	0x3e26c40f	0.16285728
8	0xbe1fb43a	-0.15596095
9	0xbe545994	-0.20737296
10	0xbe009335	-0.12556155
11	0xbd6d39dc	-0.057916507
12	0x3da4e000	0.08050537
13	0x3c90ac83	0.017660385
14	0xbdab0224	-0.08350018
15	0xbc1191e8	-0.008884884
16	0xbdd0f503	-0.10202982
17	0x3c6415ec	0.013921242
18	0xbc16c159	-0.009201371
19	0x3dc83ff1	0.09777821
20	0x3d93e8d7	0.07222145
21	0xbdc0b342	-0.09409191
22	0x3da70cec	0.081567615
23	0xbc8303d8	-0.015993044
24	0xbbba16bf	-0.005678981
25	0x3cdf18a1	0.027233424
26	0xbcbc888e	-0.023014333
27	0xbdf18443	-0.11792805
28	0xbda8bbc2	-0.08238937
29	0x3ddd73f7	0.10813134
30	0x3d2f4821	0.042793397
31	0x3c9e6bc0	0.019338489
32	0xbd03f08e	-0.032211833
33	0x3e8d0c56	0.27548474
34	0xbc765be0	-0.015036553
35	0x3cd4d01e	0.025978144
36	0x3d65af57	0.05607542
37	0xbcf75c3b	-0.030195346
38	0xbb3bd07e	-0.0028658207
39	0x3d3ad024	0.045608655
40	0x3d925a05	0.07146076
41	0x3d4baa80	0.04972315
42	0x3d99639d	0.07489703
43	0x3bdfe35d	0.0068325237
44	0x3d9e6756	0.077345535
45	0xbcaf6e41	-0.021414878
46	0x3cdc519b	0.026894381
47	0x3da170d3	0.07882848
48	0x3c5eba34	0.013594199
49	0xbdfc23d5	-0.12311522
50	0x3c36ce6a	0.011157611
51	0x3deb5391	0.114905484
52	0x3d23d889	0.040001426
53	0x3c8fbb79	0.017545449
54	0x3dd1864e	0.10230695
55	0xbbd654f1	-0.0065408875
56	0x3e1686c6	0.1469985
57	0x3e2b1817	0.16708408
58	0x3e4ae2f9	0.19813146
59	0x3e0d6ae7	0.13810311
60	0xbdec725f	-0.11545252
61	0x3dcbbf9b	0.09948655
62	0xbe089097	-0.13336407
63	0x3e076889	0.13223471
64	0x3dc1a090	0.09454453
65	0xbd6aafbf	-0.05729651
66	0xbc384d48	-0.011248894
67	0x3dad35ce	0.08457528
68	0x3d9fbe78	0.07800001
69	0xbc116c62	-0.008875938
70	0x3da607bc	0.08106944
71	0x3ddae46b	0.106880985
72	0x3d2f5d99	0.04281387
73	0xbd506316	-0.050875746
74	0x3ac05fd2	0.0014676994
75	0x3e09028d	0.1337988
76	0xbd8fec4f	-0.07027494
77	0x3d2452c6	0.040118
78	0xbd8dfa3d	-0.06932495
79	0x3d93834b	0.072027765
80	0xbd9c71f4	-0.07638922
81	0x3c8b3c70	0.016996592
82	0xbca40331	-0.020021053
83	0xbac9fc63	-0.00154103
84	0x3dba1ace	0.09087144
85	0xbdbd6b85	-0.09249023
86	0x3d3eaf35	0.04655381
87	0xbd13164a	-0.03590993
88	0xbd19d965	-0.03756084
89	0xbd2f5a09	-0.042810474
90	0xbd4cb9b0	-0.049981773
91	0x3daff451	0.085915215
92	0x3c6cbb95	0.01444902
93	0xbc9cbf69	-0.01913424
94	0x39f965a8	0.0004756872
95	0xbdc2cbb0	-0.095115066
96	0xbb509607	-0.0031827705
97	0xbcee3a3a	-0.029080499
98	0x3d940d65	0.07229117
99	0xbe16cc7e	-0.14726445
100	0x3d05d4f7	0.032673802
101	0x3d9ee064	0.07757643
102	0xbd276f5c	-0.040877685
103	0xbd2f7f7a	-0.04284618
104	0x3b42300a	0.0029630684
105	0x3d0b195b	0.033959728
106	0x3e1a324c	0.15058249
107	0xbe02f04e	-0.12786981
108	0xbca0a6e2	-0.019610826
109	0x3c7225c2	0.01477951
110	0x3e2a8778	0.1665324
111	0xbd5d0038	-0.053955287
112	0xbca008a0	-0.019535363
113	0xbda5c5e8	-0.08094388
114	0xbcd41cc4	-0.025892623
115	0x3d234fcd	0.039871026
116	0x3d20013a	0.03906367
117	0xbdfba33a	-0.12286992
118	0xbd99820b	-0.07495507
119	0x3df9273f	0.12165689
120	0x3cf731b5	0.03017507
121	0x3cb22586	0.021746408
122	0x3df3dc04	0.11907199
123	0xbe2c5bd8	-0.1683191
124	0xbd345709	-0.044028316
125	0x3d10e072	0.035370298
126	0x3dd1e552	0.102488175
127	0x3e08f9a0	0.13376474
128	0x3d3c4387	0.045962837
129	0x3d8e9c34	0.06963387
130	0xbcdce6ea	-0.026965577
131	0xbd89b387	-0.06723695
132	0xbdff3b98	-0.124625385
133	0x3ca050ab	0.019569715
134	0xbd22a2a9	-0.039705906
135	0x3cfcd246	0.030861985
136	0x3d998b64	0.0749729
137	0xbd6e83a7	-0.058231022
138	0xbdf855cb	-0.12125739
139	0xbd1b37ea	-0.03789512
140	0xbc95aeec	-0.018271886
141	0xbd17e255	-0.03708108
142	0x3d32c3a5	0.043643612
143	0x3d2a75e1	0.041616324
144	0x3c62c540	0.013840973
145	0x3d31e67b	0.043432694
146	0xbb3fe295	-0.002927934
147	0x3ddb40d7	0.107057266
148	0x3e9dbcfa	0.3080824
149	0xbca269e4	-0.019825883
150	0x3d0c7acf	0.034296807
151	0xbc91423d	-0.01773178
152	0xbc8f2846	-0.017475259
153	0x3e3da5fa	0.18520346
154	0x3d03e647	0.03220203
155	0xbe3c9ed1	-0.18419959
156	0x3de0a0b1	0.109681495
157	0x3db697c7	0.08915668
158	0x3d467a72	0.048456617
159	0x3ddaf888	0.10691935
160	0xbc85983b	-0.01630794
161	0xbd28b159	-0.041184757
162	0xbd3f9451	-0.046772305
163	0x3de33efb	0.11095997
164	0xbdca5ecf	-0.098813646
165	0x3b35011c	0.002761907
166	0x3de0c17c	0.10974404
167	0x3df26c4b	0.118370615
168	0xbc87ef31	-0.016593548
169	0xba10ef08	-0.00055287825
170	0xbd8877cf	-0.06663477
171	0x3df8da97	0.12151068
172	0xbdac5344	-0.08414319
173	0x3d076a9f	0.033060666
174	0x3cbc362f	0.022975056
175	0xbd915be3	-0.07097604
176	0xbd219cdf	-0.039456245
177	0x3c02ab47	0.007975406
178	0xbdda3848	-0.10655266
179	0xbd058826	-0.032600544
180	0xbdf26b59	-0.11836881
181	0x3daab1d3	0.083346985
182	0xbc0ca910	-0.0085852295
183	0x3cb1c119	0.021698521
184	0x3b1f2ac5	0.0024286967
185	0x3d267eb1	0.040648166
186	0x3da1d1ab	0.07901319
187	0x3c94e382	0.01817489
188	0x3d8fbe0b	0.0701867
189	0x3da06470	0.07831657
190	0xbb9dc9da	-0.0048153223
191	0x38244362	3.9163402e-05
192	0x3db09991	0.086230405
193	0x3dab51f2	0.08365239
194	0xbd0b03cf	-0.03393918
195	0xbc3cc0e6	-0.0115206
196	0x3b4ad30d	0.003094855
197	0x3ccb3601	0.024806025
198	0x3db8b2df	0.09018492
199	0xbb9b27da	-0.0047349753
200	0x3c9b7bf9	0.018980013
201	0xbdce3e88	-0.10070521
202	0xbd7925c4	-0.06082703
203	0x3ce76b06	0.028249275
204	0x3ce6feed	0.02819773
205	0x3c1c22e0	0.009529799
206	0xbbc503c2	-0.006012411
207	0x3d184af7	0.037180867
208	0x3dae86ac	0.0852178
209	0xbc9db2c8	-0.019250289
210	0x3dbc5821	0.09196497
211	0x3d282361	0.041049365
212	0x3d73c0cf	0.05951005
213	0x3a53b275	0.00080756034
214	0x3cd8a14f	0.026444105
215	0x3c24c1a3	0.010055932
216	0xbd9d520d	-0.076816656
217	0x3d7c5afe	0.061610214
218	0xbb82a943	-0.0039874627
219	0x3c5d6654	0.013513166
220	0xbdd6c0d5	-0.104859985
221	0xbcd049e9	-0.025425868
222	0x3d0bce27	0.03413215
223	0x3d98c80a	0.074600294
224	0xbda2ce4d	-0.07949505
225	0xbd85c25e	-0.06531213
226	0x3d243c34	0.040096477
227	0xbd72082e	-0.059089832
228	0x3d8ebbfe	0.069694504
229	0xbd78c83d	-0.060737837
230	0x3db7f876	0.08982937
231	0xbd973b42	-0.073843494
232	0x3c27e596	0.010247609
233	0xbdd1f184	-0.102511436
234	0xbd6ff819	-0.058586214
235	0xbcd88ff0	-0.026435822
236	0x3d9c7895	0.07640187
237	0xbd1f934c	-0.038958833
238	0x3d280adb	0.041025978
239	0x3d8e9b7f	0.06963252
240	0xbc5ee981	-0.013605476
241	0x3c6c6cd7	0.014430246
242	0xbc4ec5f1	-0.012620435
243	0x3d48a52d	0.04898565
244	0x3c0d7296	0.008633276
245	0xbcb32eef	-0.021872966
246	0xbdea1689	-0.114300795
247	0xbd8b214e	-0.06793462
248	0x3d8bc1b0	0.06824052
249	0x3d63fdad	0.055661846
250	0xbb438500	-0.0029833913
251	0x3d1e1d1e	0.038601987
252	0xbca52d83	-0.020163303
253	0xbd99a2c4	-0.07501748
254	0x3d67f3df	0.056629058
255	0x3d936dad	0.07198653

mlp.0.bias f4 [64]
0	0x3d703e31	0.05865306
1	0xbcc81692	-0.024424825
2	0xbdaf8011	-0.085693486
3	0xbcf89365	-0.03034372
4	0xbd8e7e3f	-0.06957673
5	0x3d0bf370	0.034167707
6	0x3c485e3e	0.0122295
7	0xbd8685b4	-0.065684706
8	0x3d118c5f	0.03553426
9	0x3d8a9a0d	0.06767664
10	0x3dbbbe74	0.091671854
11	0xbcb779a1	-0.022396864
12	0x3dcc16e8	0.099653065
13	0xbdbcbbdb	-0.09215518
14	0xbd905cf5	-0.0704898
15	0x3ce37abd	0.027768487
16	0x3d4c39f0	0.04985994
17	0xbd5e9017	-0.054336634
18	0xbd39402d	-0.04522722
19	0xbcd6c662	-0.026217643
20	0x3dc38bcf	0.09548151
21	0xbd4d2250	-0.05008155
22	0x3d3085fa	0.04309652
23	0x3d923423	0.071388505
24	0xbd1b2be4	-0.037883654
25	0x3be8acaa	0.0071006613
26	0xbd9e637c	-0.07733819
27	0x3d3ac453	0.045597386
28	0x3b617cd5	0.003440668
29	0xbdb53de8	-0.08849698
30	0x3d8381a3	0.064212106
31	0xbd9adb88	-0.075614035
32	0x3dab511d	0.083650805
33	0x3d1b0dfd	0.037855137
34	0xbd94a6c9	-0.07258374
35	0xbbf985e3	-0.0076148375
36	0x3d89ca7a	0.067280725
37	0x3d988126	0.07446508
38	0x3bcdf162	0.0062848786
39	0x3d8c73e1	0.0685804
40	0xbdc1bc8d	-0.09459791
41	0x3dac8a10	0.08424771
42	0xbdda60e1	-0.106630094
43	0xbd447d6e	-0.04797118
44	0x3caf70e4	0.021416135
45	0x3d004865	0.03131904
46	0xbd8c357d	-0.068461396
47	0xbc1f4c84	-0.009722833
48	0x3c30b56f	0.010785445
49	0xbd537bbd	-0.051631678
50	0xbd5ae37a	-0.053439595
51	0xbcd7f4e8	-0.026361898
52	0x3c15c49b	0.009141113
53	0xbd90836b	-0.07056316
54	0xbdda9b9f	-0.106742136
55	0xbba51fd7	-0.005039196
56	0xbdc38437	-0.09546702
57	0xbd907ef3	-0.07055464
58	0xbd978e45	-0.07400183
59	0xbdef7e7e	-0.11694048
60	0xbd806105	-0.06268505
61	0x3cbbed48	0.022940293
62	0x3d67aff4	0.056564286
63	0x3d14d976	0.0363402

mlp.2.weight f4 [64, 64]
0	0xbcf77743	-0.030208236
1	0x3d386878	0.045021504
2	0x3d120013	0.035644602
3	0x3da1a12a	0.07892068
4	0xbcdcb9a4	-0.02694399
5	0xbd880437	-0.06641429
6	0x3d1f6612	0.0389157
7	0xbd8cce3d	-0.06875274
8	0x3d94a70e	0.07258426
9	0x3cbe295a	0.023213077
10	0x3ca811ed	0.02051636
11	0x3dce75fc	0.100810975
12	0xbdb7a1ae	-0.08966385
13	0xbd81a88b	-0.06330975
14	0xbda741ba	-0.08166833
15	0x3c9d15ef	0.019175498
16	0xbbc7917c	-0.006090341
17	0xbd88a73b	-0.06672522
18	0x3dda963a	0.10673185
19	0x3de135e9	0.10996611
20	0x3d08434b	0.0332673
21	0x3d2dc8f7	0.042427983
22	0x3dda531c	0.10660383
23	0x3e02626c	0.12732857
24	0x3d1282a9	0.03576914
25	0x3ba5d2cd	0.00506053
26	0x3d21d456	0.03950914
27	0xbd905bef	-0.07048785
28	0x3d9bcf13	0.07607856
29	0x3d0be5d3	0.034154724
30	0x3d93025f	0.071781866
31	0x3d82a8ba	0.06379838
32	0xbde554b7	-0.11197799
33	0x3db0f0ec	0.08639702
34	0x3dc4f050	0.096161485
35	0x3c882fa9	0.016624289
36	0x3d76243a	0.060093142
37	0x3da3bd04	0.07995036
38	0xbc85172d	-0.016246403
39	0xbd721eb5	-0.059111316
40	0x3da0ce87	0.07851892
41	0xbbfab1ae	-0.0076505756
42	0x3d81fc90	0.063470006
43	0xbdeca4ee	-0.11554895
44	0x3d17bdae	0.037046127
45	0x3d35648a	0.044285335
46	0xbd4c59ed	-0.049890447
47	0x3d9d43d6	0.07678954
48	0x3d49bbf0	0.049251497
49	0xbd102e2c	-0.035200283
50	0x3d8ed250	0.06973708
51	0x3e073b25	0.13206156
52	0x3d44597b	0.047936898
53	0x3d8a68e9	0.06758291
54	0x3dd024b7	0.10163253
55	0xbdb6a272	-0.08917703
56	0xbc2d17ac	-0.010564726
57	0xbe1df04c	-0.15423697
58	0x3ca0f6fc	0.019649021
59	0xbe43b838	-0.19113243
60	0x3cc3f8a3	0.02392227
61	0xbd9cb0d6	-0.07650916
62	0x3dba86c5	0.091077365
63	0x3d68776a	0.056754507
64	0xbd956121	-0.072939165
65	0xbd8630c2	-0.065522686
66	0x3dd7399e	0.105090365
67	0x3dfe3de4	0.124141484
68	0x3da7fbca	0.08202322
69	0x3d4a5cf6	0.04940506
70	0x3e04a5bd	0.12953849
71	0x3d479ce9	0.048733626
72	0xbdef41d0	-0.116824746
73	0x3d7c3a06	0.061578773
74	0x3de509e5	0.11183528
75	0xbdd129c9	-0.10213048
76	0x3d7ebf98	0.062194437
77	0x3d8a7326	0.06760244
78	0xbcca0dc1	-0.024664761
79	0xba8c70af	-0.0010714735
80	0xbc6a0435	-0.01428323
81	0x3db6ab63	0.08919408
82	0xbd11546c	-0.0354809
83	0x3c2b7f1a	0.010467315
84	0x3dd460a9	0.10369999
85	0xbd00fd8a	-0.031491794
86	0xbc60c9cf	-0.01371999
87	0x3d4fab27	0.050700333
88	0x3dea6896	0.114457294
89	0xbd7c40d8	-0.061585277
90	0x3cd0d0dc	0.025490217
91	0xbd283b12	-0.04107196
92	0x3da292b2	0.07938136
93	0xbe00e30e	-0.12586614
94	0xbd0cf93c	-0.034417376
95	0xbc380734	-0.011232186
96	0x3db661bc	0.0890536
97	0xbd1bc7fa	-0.03803251
98	0x3dfad23a	0.12247129
99	0xbc6de526	-0.014519965
100	0x3de234c2	0.11045219
101	0x3d105594	0.035237864
102	0x3e1eeb75	0.15519507
103	0xbd9b144d	-0.075722314
104	0x3d64fcc8	0.055905133
105	0xbd8ad5de	-0.06779073
106	0x3db6ff8b	0.0893546
107	0x3d2fe259	0.04294047
108	0xbde50a00	-0.11183548
109	0x3dda211d	0.10650847
110	0x3e09f226	0.13471279
111	0xbe04e61e	-0.12978408
112	0xbdf99f1b	-0.1218855
113	0xbc1ee123	-0.009697231
114	0x3cf3934b	0.02973332
115	0x3d06e5ec	0.032934114
116	0x3dbccba3	0.09218528
117	0xbb484d5f	-0.0030563695
118	0x3dcfd868	0.10148698
119	0xbdd67d1f	-0.10473084
120	0xbb0255e4	-0.001988762
121	0xbb20c21b	-0.0024529758
122	0xbdccced1	-0.100003846
123	0xbe141d48	-0.14464295
124	0x3cf82dde	0.030295309
125	0x3db94a97	0.0904743
126	0x3d817276	0.0632066
127	0x3dd271a9	0.10275585
128	0xbd11628d	-0.035494376
129	0x3d6e4394	0.058169916
130	0xbd86389c	-0.06553766
131	0xbd9db07a	-0.07699676
132	0x3d18cdd9	0.037305687
133	0x3dc280e4	0.0949724
134	0xbe0ff8bf	-0.14059733
135	0xbdf793bc	-0.12088725
136	0xbd2254f6	-0.039631806
137	0xbe083a1b	-0.13303415
138	0xbd458132	-0.048218913
139	0xbdf7751b	-0.12082883
140	0xbd920242	-0.07129337
141	0xbddd0290	-0.107915044
142	0xbdcd0fbb	-0.10012766
143	0x3dda096d	0.10646329
144	0xbd50b0fc	-0.050950035
145	0x3d3d5495	0.04622324
146	0xbd53ed63	-0.05174006
147	0x3dc5bf96	0.09655683
148	0x3cb59855	0.022167364
149	0xbca24760	-0.019809425
150	0xbd98e5bc	-0.07465693
151	0xbd2da786	-0.04239609
152	0xbd9ecc5a	-0.07753821
153	0xbe039f72	-0.12853792
154	0x3d9f088b	0.07765301
155	0xbdc7bffc	-0.09753415
156	0x3d56723b	0.052355032
157	0xbe226dc8	-0.1586219
158	0xbd672596	-0.05643233
159	0x3d8061db	0.062686644
160	0x3c6c0d4c	0.014407467
161	0x3d152e7f	0.036421295
162	0xbd50ffe4	-0.051025286
163	0xbdb70c55	-0.08937899
164	0x3da16fe2	0.07882668
165	0xbdd4741b	-0.10373708
166	0xbdad1655	-0.08451525
167	0x3c6a5de2	0.01430461
168	0xbdd2ff77	-0.10302632
169	0xbdc52cba	-0.096276715
170	0xbcdccbf8	-0.026952729
171	0xbd47ba0a	-0.048761405
172	0x3d05a520	0.03262818
173	0x3bc11e41	0.005893499
174	0x3d9969a9	0.07490856
175	0xbc20081d	-0.009767559
176	0x3c7a985d	0.015295115
177	0x3cccc917	0.02499823
178	0xbceefdfa	-0.02917384
179	0xbd7e6a0d	-0.062112857
180	0x3d4965e1	0.049169425
181	0x3d9982db	0.07495662
182	0x3e032349	0.12806429
183	0xbcbc96ab	-0.023021063
184	0x3d62016e	0.055177145
185	0xbccba314	-0.024858035
186	0xbde1e2a3	-0.11029556
187	0xbcb42284	-0.021989115
188	0xbd2af7ed	-0.041740347
189	0x3cf9c7c6	0.030490767
190	0x3ddcebaf	0.107871406
191	0xbe0e2fb9	-0.13885392
192	0xbd0ddfa9	-0.034637127
193	0xbddc7093	-0.10763659
194	0xbd86b665	-0.06577758
195	0x3dc9a325	0.098455705
196	0x3deb3f8d	0.11486731
197	0xbd879993	-0.06621089
198	0xbca5eeee	-0.020255532
199	0xbe10868f	-0.1411383
200	0x3dc47994	0.09593502
201	0x3d9a9e14	0.07549682
202	0xbd80f56f	-0.06296813
203	0xbd0896af	-0.033346828
204	0x3e165e20	0.14684343
205	0x3dbeea41	0.09322024
206	0x3da0a55b	0.07844039
207	0xbd92e8a7	-0.07173281
208	0x3df3b82c	0.11900362
209	0x3c47a55a	0.012185419
210	0x3dba9347	0.09110122
211	0x3cd96ab3	0.026540136
212	0xbcf04bd8	-0.02933304
213	0xbda27f89	-0.07934482
214	0x3def522e	0.116855964
215	0x3d2f1df5	0.04275318
216	0x3dc7ac67	0.0974968
217	0xbd06892b	-0.032845657
218	0x3d26e258	0.040743202
219	0xbd812305	-0.063055076
220	0xbc6c53f6	-0.014424315
221	0xbdcadbe8	-0.09905225
222	0xbca0296d	-0.019551003
223	0x3dc24f65	0.094877996
224	0xbcc3f650	-0.023921162
225	0x3d85d909	0.06535537
226	0x3d056f29	0.032576714
227	0x3dc5db28	0.09660941
228	0x3dd0c94a	0.10194643
229	0xbc872546	-0.016497266
230	0xbceab480	-0.028650522
231	0x3dfd1673	0.123577975
232	0x3dc3b0cb	0.09555205
233	0xbdeb4dec	-0.11489472
234	0xbde2a9bd	-0.11067531
235	0x3da4a47c	0.080391854
236	0x3dae64f6	0.085153505
237	0x3d13307c	0.03593491
238	0xbc2633a9	-0.010144153
239	0xbe107a20	-0.14109087
240	0xbdf64b6f	-0.120261066
241	0xbdc4351d	-0.09580443
242	0x3e0ceae3	0.13761477
243	0x3cf15c49	0.02946295
244	0x3dc98517	0.09839838
245	0x3dd82de3	0.10555627
246	0xbcb7fc4d	-0.022459174
247	0xbd9814d0	-0.07425845
248	0xbdbea438	-0.09308666
249	0xbcd382ad	-0.025819147
250	0x3dfc45b0	0.12317979
251	0xbe1c6901	-0.15274431
252	0x3dfca040	0.12335253
253	0xbbceab6c	-0.006307056
254	0x3c856804	0.01628495
255	0x3d3b3b20	0.045710683

mlp.2.bias f4 [64]
0	0x3dc7a672	0.09748544
1	0x3e3bd8ed	0.1834447
2	0xbd09e585	-0.033666153
3	0x3e19b1d9	0.1500925
4	0xbd217dc3	-0.039426576
5	0xbd1bbfae	-0.038024597
6	0x3e30ddf2	0.17272165
7	0x3dcb188b	0.099167906
8	0xbd17a178	-0.037019223
9	0xbdec51f4	-0.11539069
10	0xbdc7a630	-0.097484946
11	0x3c80ed9b	0.0157383
12	0x3d80d954	0.06291452
13	0xbd90c6e7	-0.070691876
14	0x3d9cfc1d	0.07665274
15	0xbd2e18d5	-0.04250415
16	0x3d8dcdcc	0.06924018
17	0xbdcfe49d	-0.101510264
18	0xbd5d202f	-0.05398577
19	0x3cb82192	0.022476945
20	0xbb97ebac	-0.0046362486
21	0xbdc784b4	-0.09742108
22	0xbbb32293	-0.005466768
23	0x3d00bf81	0.031432632
24	0xbdd5ab63	-0.1043308
25	0xbdb686c3	-0.089124225
26	0xbcc8e5a9	-0.024523573
27	0x3dcfc1b2	0.10144366
28	0x3d56f5df	0.052480575
29	0x3df803a9	0.12110073
30	0xbca129eb	-0.019673308
31	0xbd33abde	-0.043865077
32	0xbcaf27ca	-0.021381278
33	0x3e19bd5e	0.15013644
34	0xbe072a54	-0.1319974
35	0x3e2761c1	0.16345884
36	0xbc10d7a1	-0.008840472
37	0x3d914601	0.0709343
38	0x3da589f1	0.08082951
39	0xbd7373bf	-0.059436556
40	0x3cba4ff5	0.022743205
41	0x3d5ee01d	0.05441295
42	0x3d13f662	0.03612364
43	0xbd06e2bb	-0.03293107
44	0xbd496d1d	-0.049176324
45	0x3ba754f5	0.005106563
46	0xbd39978d	-0.045310546
47	0x3c790d64	0.0152009465
48	0x3daae3ff	0.08344268
49	0xbc85eba2	-0.01634771
50	0x3d8cd66f	0.068768375
51	0xbda6a5e0	-0.08137107
52	0x3d24c771	0.040229265
53	0xbdf58374	-0.11987963
54	0x3cf9921a	0.030465174
55	0x3daf4576	0.085581705
56	0xbd2d9066	-0.042374037
57	0xbdedf066	-0.11618118
58	0xbdf256b3	-0.11832943
59	0x3c9e3e93	0.019316947
60	0x3dac8d78	0.084254205
61	0xbdf50eb5	-0.11965696
62	0xbd16528c	-0.036699817
63	0xbd4c83b8	-0.049930304

mlp.4.weight f4 [1, 64]
0	0x3d1d015d	0.03833138
1	0x3d8ffcf6	0.0703067
2	0xbd850a1e	-0.0649607
3	0x3df33c65	0.11876754
4	0x3b53f274	0.0032340558
5	0xbc61fde9	-0.013793447
6	0x3dae1c21	0.08501459
7	0x3dabbcd2	0.08385624
8	0xbdc54ca6	-0.0963376
9	0x3d29ce65	0.0414566
10	0x3d034052	0.032043763
11	0x3dd6f4bd	0.10495899
12	0xbe1cf3d6	-0.15327391
13	0xbe0d8563	-0.13820414
14	0xbd8fa775	-0.07014362
15	0xbdaf6cdd	-0.08565686
16	0x3cb4ec36	0.02208529
17	0xbe09918d	-0.1343443
18	0xbd8dd2ce	-0.069249734
19	0x3c136781	0.008996845
20	0xbe1cec7f	-0.15324591
21	0xbe32e4e1	-0.17470123
22	0xbbcb9e61	-0.0062139486
23	0x3d69859e	0.057012193
24	0x3da3cc55	0.079979576
25	0xbe400894	-0.18753272
26	0x3d6c9fb4	0.057769492
27	0x3d8a2652	0.0674559
28	0xbd2ef7a3	-0.042716634
29	0x3d9a0a00	0.075214386
30	0x3da37f9b	0.07983323
31	0xbd54ad0c	-0.051922843
32	0xbd7126c8	-0.058874875
33	0x3dc4f845	0.09617666
34	0x3d9b6008	0.07586676
35	0x3dc646c9	0.0968147
36	0xbd6728a4	-0.056435242
37	0x3e2fb54b	0.17159002
38	0x3df6894b	0.12037905
39	0xbd4db989	-0.05022577
40	0xbd97f72c	-0.07420191
41	0xbd9cfb93	-0.076651715
42	0xbdc18706	-0.09449582
43	0xbbf776f7	-0.0075520235
44	0x3db7a79f	0.08967518
45	0xbe01227a	-0.12610808
46	0xbbe02d41	-0.006841332
47	0x3d227288	0.039660007
48	0x3d9d96ca	0.07694776
49	0x3be4879c	0.0069741737
50	0x3dc63f8c	0.09680089
51	0x3b1f7564	0.0024331445
52	0x3d625a7f	0.055262085
53	0xbe116886	-0.14200029
54	0x3d25e476	0.04050108
55	0x3bff80dd	0.007797344
56	0x3d702026	0.05862441
57	0xbe0e99a4	-0.13925797
58	0xbd746bee	-0.059673242
59	0x3ceff72d	0.029292667
60	0x3c93c1c4	0.01803673
61	0xbdc97d8a	-0.09838398
62	0x3d7e8b6f	0.062144693
63	0xbe2cbe80	-0.16869545
