forecasting/midroll/dnn_model/model_2_ofac2022.ckpt (torch, 42527 bytes, 5 tensors)

mlp.0.weight f4 [64, 90]
0.02788119 -0.092004105 -0.055759735 0.012427989 0.07241592 -0.08870926 0.15057242 0.05248888
0.039438944 -0.1047782 -0.019838931 0.04473985 0.040330242 -0.08248331 0.07547848 0.048107363
0.08365279 -0.011645797 -0.013030254 0.019149065 0.06244308 0.029026486 -0.09257001 0.02792887
0.038966723 -0.12979063 0.19961117 0.07612024 0.023390668 0.05951199 -0.25788116 -0.096354775
0.11834435 0.024479335 0.09585498 -0.004346273 0.15173626 -0.10236969 -0.030151092 0.034252305
-0.06517103 -0.0409596 -0.038104117 0.08202838 0.077567644 0.068096384 -0.09560614 -0.02574729
-0.048881512 -0.014554568 0.055373643 -0.05336344 -0.12550464 0.07223642 -0.06776745 -0.027903913
-0.018337354 -0.15611973 0.07988484 0.09386534 0.07169329 -0.13762368 0.16293733 0.18726696
0.023096468 -0.05171999 0.027877001 -0.08893485 0.035528462 0.05182623 0.073728405 -0.038351137
0.01441851 -0.06591185 0.010977892 0.03384217 -0.08653481 0.10565628 0.028358951 0.013174299
-0.05028064 0.023349583 0.02847445 -0.11485282 0.089967586 0.10392261 0.10616886 -0.073665306
-0.0373487 0.03360284 0.011486238 -0.015887722 0.02144947 -0.060679633 -0.08453506 0.11688671
0.19171496 -0.12123966 0.032979473 -0.062082294 0.018857002 0.0075603514 0.12102885 -0.09841708
-0.015015718 0.024279581 -0.08680688 0.014746351 -0.11648556 -0.06516516 0.025146207 -0.0376537
-0.03796505 -0.17672656 0.052374855 -0.067656964 -0.00024201183 -0.0133517785 0.10572651 0.092227
-0.024445137 0.026254289 0.06395592 -0.0068118013 -0.02771034 0.049725186 -0.15324984 -0.035975575
0.07302658 -0.2344652 0.2052974 -0.008081749 0.09650839 -0.050669577 -0.04174137 -0.031588655
0.09526136 -0.05863373 -0.03674832 0.017416047 -0.11530738 -0.024126997 0.03556441 -0.057760924
0.07180672 0.06407713 0.10637307 -0.025956174 -0.11834916 -0.026920656 -0.09908588 -0.009986098
0.07027403 0.042426173 -0.1267649 -0.11783211 0.09631519 -0.029843604 -0.08728023 -0.035845943
-0.062141795 -0.019340852 0.053610574 0.11806509 -0.016160693 0.09195069 -0.03334417 -0.040980306
0.046346392 -0.027374301 0.0024722593 -0.07109984 -0.10749011 0.08518551 0.09446008 -0.05609933
-0.07927905 0.039266758 -0.106465735 0.016243288 0.054819576 0.051202178 -0.054777246 0.02442001
0.10177133 0.050761234 0.10922319 0.05014782 -0.081733 -0.017598627 -0.063125566 0.049838025
0.08594281 -0.11041384 0.013412876 -0.13127595 -0.054315016 0.111977994 0.11463517 0.027276516
0.039738316 -0.004489738 0.014582913 -0.2239372 0.006565535 -0.172121 0.04271288 -0.038965017
0.14221168 -0.052372698 0.06561311 -0.08328628 0.040155623 -0.032017197 -0.033517446 0.04661948
0.086673364 0.064679444 -0.04262649 0.10340028 -0.1298696 0.07595038 -0.050079897 0.10513358
-0.051720113 0.044540044 0.07419844 -0.09227821 -0.1323443 -0.01336074 -0.02326792 -0.053481396
0.042554587 0.022083674 0.07443512 0.14399092 0.10623171 -0.19404247 -0.08932245 0.09066472
-0.102820456 -0.08367739 -0.12450331 -0.21960184 -0.018367987 0.25822362 -0.053301748 -0.003361869
-0.016227579 -0.019646889 0.04554216 0.010450413 0.07476643 0.028615167 -0.047500774 -0.042474173
00000000: 1867 e43c a66c bcbd 5264 64bd c49e 4b3c
00000010: cc4e 943d 33ad b5bd a82f 1a3e 94fe 563d
00000020: bb8a 213d f495 d6bd 4185 a2bc 2241 373d
00000030: 5331 253d 02ed a8bd 7694 9a3d 3a0c 453d
00000040: 2752 ab3d 03ce 3ebc d97c 55bc 80de 9c3c
00000050: 51c4 7f3d f4c8 ed3c 5895 bdbd 16cb e43c
00000060: 929b 1f3d d6e7 04be df66 4c3e eee4 9b3d
00000070: c99d bf3c d8c2 733d 0009 84be a755 c5bd
00000080: 865e f23d e388 c83c 9e4f c43d 2e6b 8ebb
00000090: c060 1b3e 33a7 d1bd 6cff f6bc 254c 0c3d
000000a0: 6478 85bd 41c5 27bd 1013 1cbd 7ffe a73d
000000b0: c9db 9e3d 1e76 8b3d 27cd c3bd fbeb d2bc
000000c0: fb37 48bd 4876 6ebc 79cf 623d 9f93 5abd
000000d0: 4a84 00be b0f0 933d a9c9 8abd bf96 e4bc
000000e0: 3838 96bc dadd 1fbe aa9a a33d 793c c03d
000000f0: eed3 923d 39ed 0cbe 0bd9 263e e9c2 3f3e
00000100: ce34 bd3c 57d8 53bd 4f5e e43c 7a23 b6bd
00000110: 4b86 113d be47 543d ebfe 963d 1516 1dbd
00000120: 9d3b 6c3c cbfc 86bd 9edc 333c 169e 0a3d
00000130: 2a39 b1bd 5262 d83d 0851 e83c 04d9 573c
00000140: 13f3 4dbd a047 bf3c 4043 e93c f537 ebbd
00000150: ed40 b83d 61d5 d43d 0f6f d93d d6dd 96bd
00000160: f3fa 18bd 22a3 093d c630 3c3c f826 82bc
00000170: cdb6 af3c 358b 78bd b820 adbd 4d62 ef3d
00000180: ed50 443e 804c f8bd 7c15 073d 014a 7ebd
00000190: 007a 9a3c d3bc f73b f9dd f73d e58e c9bd
000001a0: 7c04 76bc f9e5 c63c cec7 b1bd ae9a 713c
000001b0: fb8f eebd 5075 85bd 6bff cd3c c43a 1abd
000001c0: 3e81 1bbd cff7 34be 0487 563d bc8f 8abd
000001d0: 8ec4 7db9 6bc1 5abc 2487 d83d 82e1 bc3d
000001e0: 2b41 c8bc 3c13 d73c 52fb 823d 8835 dfbb
000001f0: cc00 e3bc a3ac 4b3d 87ed 1cbe 205b 13bd
00000200: f68e 953d a517 70be 7b39 523e 5069 04bc
00000210: 31a6 c53d e78a 4fbd 00f9 2abd 1b63 01bd
00000220: 6318 c33d ec29 70bd 6885 16bd 19ac 8e3c
00000230: 4726 ecbd fba5 c5bc fdab 113d b896 6cbd
00000240: 670f 933d df3a 833d 20da d93d 0ba2 d4bc
00000250: 0b61 f2bd b588 dcbc 8aed cabd bb9c 23bc
00000260: d5eb 8f3d 11c7 2d3d a8ce 01be f651 f1bd
00000270: e640 c53d 937a f4bc fabf b2bd 32d3 12bd
00000280: 6588 7ebd b570 9ebc c396 5b3d 1ccc f13d
00000290: 6e63 84bc a550 bc3d e593 08bd f7da 27bd
000002a0: b7d5 3d3d 1240 e0bc a105 223b cb9c 91bd
000002b0: c623 dcbd be75 ae3d 4974 c13d 69c8 65bd
000002c0: 0e5d a2bd 2ed6 203d b50a dabd a510 853c
000002d0: 7e8a 603d 60b9 513d 1b5e 60bd 790c c83c
000002e0: 7d6d d03d 03eb 4f3d 68b0 df3d cd67 4d3d
000002f0: a263 a7bd ff2a 90bc fa47 81bd f522 4c3d
00000300: c902 b03d a720 e2bd aec1 5b3c 346d 06be
00000310: 6c79 5ebd b854 e53d d8c5 ea3d 0073 df3c
00000320: a5c4 223d a71e 93bb 2ced 6e3c cb4f 65be
00000330: b323 d73b 7d40 30be b3f3 2e3d c899 1fbd
00000340: f09f 113e c184 56bd 2b60 863d ff91 aabd
00000350: 397a 243d 7724 03bd 9749 09bd 11f4 3e3d
00000360: ce81 b13d a876 843d 1d99 2ebd 87c3 d33d
00000370: 89fc 04be df8b 9b3d 9420 4dbd 4650 d73d
00000380: 78d8 53bd 9f6f 363d 5af5 973d 5cfc bcbd
00000390: 4485 07be 01e7 5abc 5d9c bebc 4f0f 5bbd
000003a0: b84d 2e3d d2e8 b43c 7171 983d 5b72 133e
000003b0: 0390 d93d 12b3 46be b0ee b6bd 6dae b93d
000003c0: 8893 d2bd 0d5f abbd 97fb febd 4edf 60be
000003d0: 7678 96bc e335 843e ef52 5abd cd52 5cbb
000003e0: b3ef 84bc 83f2 a0bc 6a8a 3a3d 3638 2b3c
000003f0: 241f 993d 5b6a ea3c 2c90 42bd 66f9 2dbd

mlp.0.bias f4 [64]
0.043991238 -0.07543302 0.030001357 0.0071506933 0.036955494 0.08453607 -0.029650098 -0.08912189
0.048123144 -0.0348464 0.04092359 -0.005089379 0.08742668 0.059200894 -0.08433614 -0.06437248
0.016222728 0.0034593295 -0.076070465 -0.08557472 0.07386662 0.062969685 0.043216623 -0.06447984
-0.121186405 -0.02301986 -0.04633733 0.03990088 -0.058493562 -0.06980899 -0.017831631 0.012670182
0.032255057 0.010867821 -0.026616609 0.009899459 0.061751068 -0.053329993 0.064761885 -0.001984767
-0.009999094 0.08637577 0.08898519 -0.065946296 -0.02409282 -0.0428131 -0.036097232 -0.050939012
-0.0045568706 -0.033698816 0.036567252 0.0151719 0.067228794 0.071812116 -0.11718954 0.06317146
-0.026877657 -0.060793836 0.07184596 0.0038659924 -0.078104876 0.029901078 -0.01039979 0.058830176
00000000: 2830 343d a17c 9abd 68c5 f53c 5d50 ea3b
00000010: a55e 173d 3f21 ad3d c3e4 f2bc 8a85 b6bd
00000020: c61c 453d 19bb 0ebd 7f9f 273d cec4 a6bb
00000030: c20c b33d a37c 723d 6db8 acbd b8d5 83bd
00000040: 87e5 843c ebb5 623b d5ca 9bbd cc41 afbd
00000050: 6247 973d 40f6 803d ea03 313d 020e 84bd
00000060: 9430 f8bd 2594 bcbc 36cc 3dbd 1b6f 233d
00000070: f296 6fbd 04f8 8ebd a413 92bc 9896 4f3c
00000080: e11d 043d f20e 323c 130b dabc 5731 223c
00000090: b0ee 7c3d 8d70 5abd e1a1 843d dd12 02bb
000000a0: 3dd3 23bc c8e5 b03d de3d b63d da0e 87bd
000000b0: 4e5e c5bc ca5c 2fbd b1da 13bd 6da5 50bd
000000c0: cd51 95bb c507 0abd 8bc7 153d 9093 783c
000000d0: 40af 893d 3b12 933d 1201 f0bd 0a60 813d
000000e0: 882e dcbc f502 79bd fa23 933d 975c 7d3b
000000f0: 73f5 9fbd 1bf3 f43c e163 2abc e9f7 703d

mlp.2.weight f4 [64, 64]
0.10328205 0.07312983 0.057805907 -0.10547131 0.07375601 -0.058498584 0.014305624 -0.13352731
0.0066540237 -0.113947876 -0.11448653 -0.09944201 0.054093268 -0.052903473 0.0025564616 0.07140116
0.0333748 -0.090400904 0.06519035 0.08910299 0.0760668 -0.07735914 -0.17530578 0.08406813
-0.08947623 0.073294275 0.0076506766 -0.10036613 0.007042746 0.15435013 0.026286134 0.07827503
0.04584962 0.012094463 -0.008833155 0.105898894 -0.17004552 -0.16762367 0.11530033 0.008136923
0.09025641 0.039887637 -0.13748756 0.0649994 -0.023072375 0.09010409 0.0723229 0.10140952
0.04936642 -0.101162404 0.038292896 0.08000818 0.051277146 -0.07812842 0.11325005 -0.13873425
-0.049689207 0.118802056 0.10077272 -0.02327179 -0.08307564 0.071724124 -0.11487902 -0.17876446
-0.024790823 0.040301926 0.05146111 -0.0065590143 -0.10732595 0.0017258674 0.045148175 -0.13982886
-0.08221118 -0.07651043 -0.03911779 -0.052090824 -0.04299134 -0.065566234 -0.020034153 -0.02144847
-0.0033188611 -0.0926455 -0.10795748 -0.02215071 0.020644808 0.023297057 -0.14039202 -0.14096487
0.04356685 -0.089248225 -0.09684997 0.09082554 -0.110360205 -0.025173172 -0.13507465 0.07199544
-0.1293644 -0.113390416 -0.06396706 -0.076722465 -0.033954922 0.09327601 0.0674799 0.027977481
0.019241806 -0.059606127 0.020751752 -0.11286769 -0.0046826005 -0.028602999 -0.05198595 -0.10947652
-0.15648708 -0.051459014 -0.08399061 0.07476253 -0.039865784 -0.046249405 0.09382992 -0.00019893517
0.05158232 -0.078378126 -0.08999308 -0.035139274 0.07105392 -0.042029083 0.10241194 -0.1007349
-0.029550174 -0.20976023 -0.14200152 -0.13222109 -0.09820095 -0.03112043 0.06509444 0.0055881864
0.10602416 0.08639197 0.025905982 0.03332273 -0.08933379 0.042572834 0.048268028 -0.10506333
0.11723622 -0.07321081 -0.13621862 -0.099600896 -0.0409286 -0.015520198 0.08200396 -0.14834443
0.04427777 0.0015104264 0.09638301 -0.050055407 0.067888364 0.045084026 -0.011174662 0.034441695
0.12318104 -0.12856649 0.017717691 -0.09625978 0.062022243 -0.009836858 0.010941722 -0.11771328
-0.10235818 -0.016855475 0.024282599 -0.18509562 -0.34289974 -0.12860027 0.0025782634 0.09439584
-0.08296748 -0.0515162 -0.08865807 -0.14128225 0.005323965 -0.11816293 -0.051758815 0.14889815
-0.1886543 -0.11136358 -0.13015121 0.029627306 -0.067474216 0.13048247 0.07592163 -0.09613104
-0.080204755 -0.10065928 0.07302888 0.010378627 -0.118340075 0.06544969 -0.06260022 0.0002814066
-0.11529816 -0.11518238 -0.08946386 -0.14238147 -0.067258194 -0.09512842 -0.02453789 -0.02463099
-0.09118617 -0.0005024704 0.04161063 0.11119404 -0.07717221 -0.02501426 0.06605607 0.036237
-0.067713425 0.059308607 -0.12146919 -0.060723986 -0.040374532 0.0514828 0.058525607 -0.07309297
-0.087430954 0.060274612 -0.012891402 -0.13653131 0.041763093 -0.035999026 -0.060842827 0.06712644
0.09403419 -0.10434882 -0.020797618 -0.114349864 -0.047123943 -0.12174122 0.06399387 -0.06447282
0.017501652 -0.11147562 -0.064687 -0.12416092 -0.050685134 0.045737874 0.065009795 0.038022745
-0.10779127 -0.10236275 0.07522638 -0.058513407 0.073196776 -0.1062653 -0.056465436 0.09118083
00000000: 8a85 d33d 18c5 953d e3c5 6c3d 5801 d8bd
00000010: 640d 973d 369c 6fbd 2362 6a3c 62bb 08be
00000020: ff09 da3b 815d e9bd ea77 eabd 41a8 cbbd
00000030: e790 5d3d 50b1 58bd 4f8a 273b c53a 923d
00000040: 04b4 083d 1c24 b9bd 8582 853d a17b b63d
00000050: e9c8 9b3d 786e 9ebd 5c83 33be e92b ac3d
00000060: 503f b7bd 4f1b 963d 87b2 fa3b c28c cdbd
00000070: d6c6 e63b f60d 1e3e 0556 d73c a94e a03d
00000080: d0cc 3b3d db27 463c f0b8 10bc 85e1 d83d
00000090: 6a20 2ebe 8aa5 2bbe 9422 ec3d bb50 053c
000000a0: 5ad8 b83d 3861 233d 8ac9 0cbe 681e 853d
000000b0: 4702 bdbc 7e88 b83d 071e 943d cbaf cf3d
000000c0: 7134 4a3d 3c2e cfbd 03d9 1c3d 54db a33d
000000d0: fc07 523d cb01 a0bd a4ef e73d 5a10 0ebe
000000e0: e986 4bbd 7e4e f33d ee61 ce3d 7ba4 bebc
000000f0: 9023 aabd 19e4 923d b145 ebbd 080e 37be
00000100: 2016 cbbc a213 253d e3c8 523d 00ed d6bb
00000110: b5cd dbbd 8036 e23a 4bed 383d 4c2f 0fbe
00000120: 565e a8bd 80b1 9cbd fa39 20bd 305d 55bd
00000130: b017 30bd 9747 86bd aa1e a4bc b4b4 afbc
00000140: 4081 59bb edbc bdbd d018 ddbd 6875 b5bc
00000150: 4d1f a93c 78d9 be3c edc2 0fbe 1859 10be
00000160: 2773 323d c6c7 b6bd 4759 c6bd be02 ba3d
00000170: 8804 e2bd f837 cebc 0251 0abe 5872 933d
00000180: 1a78 04be 3c39 e8bd 2901 83bd ab20 9dbd
00000190: 5114 0bbd 7e07 bf3d e732 8a3d 0831 e53c
000001a0: fea0 9d3c 8e25 74bd 94ff a93c 2d27 e7bd
000001b0: 8070 99bb d650 eabc 38ef 54bd 3a35 e0bd
000001c0: 263e 20be b0c6 52bd 4503 acbd 191d 993d
000001d0: 4e4a 23bd 0470 3dbd e729 c03d 4199 50b9
000001e0: fc47 533d b684 a0bd 4b4e b8bd 33ee 0fbd
000001f0: b884 913d b026 2cbd 5abd d13d 194e cebd
00000200: 3513 f2bc 63cb 56be d968 11be f764 07be
00000210: 941d c9bd 46f0 febc 3c50 853d 1b1d b73b
00000220: 3223 d93d 46ee b03d c838 d43c 6a7d 083d
00000230: a2f4 b6bd da60 2e3d b2b4 453d 712b d7bd
00000240: 8b19 f03d 8def 95bd e57c 0bbe 8efb cbbd
00000250: bfa4 27bd 6e48 7ebc b1f1 a73d 9ae7 17be
00000260: 9b5c 353d 80f9 c53a 7564 c53d e606 4dbd
00000270: 0e09 8b3d 07aa 383d ee15 37bc bc12 0d3d
00000280: 5746 fc3d efa6 03be b124 913c d923 c5bd
00000290: 090b 7e3d c62a 21bc e944 333c a913 f1bd
000002a0: 2aa1 d1bd 7e14 8abc 4dec c63c b589 3dbe
000002b0: 8e90 afbe caaf 03be 15f8 283b 9b52 c13d
000002c0: dbea a9bd a702 53bd 5d92 b5bd 4bac 10be
000002d0: a874 ae3b 68ff f1bd 0d01 54bd c278 183e
000002e0: 982e 41be 9712 e4bd 5c46 05be f7b4 f23c
000002f0: ec2f 8abd 329d 053e cd7c 9b3d 5ae0 c4bd
00000300: 6442 a4bd 7426 cebd 2a90 953d 1e0b 2a3c
00000310: 485c f2bd 7d0a 863d 8b34 80bd c189 9339
00000320: 7121 ecbd bde4 ebbd d438 b7bd 73cc 11be
00000330: aabe 89bd b0d2 c2bd af03 c9bc eec6 c9bc
00000340: d1bf babd 38b8 03ba e86f 2a3d b3b9 e33d
00000350: 770c 9ebd b5ea ccbc 6848 873d 406d 143d
00000360: 56ad 8abd 95ed 723d d7c4 f8bd b7b9 78bd
00000370: c45f 25bd a1df 523d 8cb8 6f3d c4b1 95bd
00000380: 000f b3bd 83e2 763d 7536 53bc ddce 0bbe
00000390: c70f 2b3d b773 13bd 5436 79bd 9679 893d
000003a0: ff94 c03d d6b4 d5bd c45f aabc 4330 eabd
000003b0: 0905 41bd 7653 f9bd 380f 833d 530a 84bd
000003c0: a05f 8f3c 544d e4bd 9e7a 84bd 1548 febd
000003d0: 379b 4fbd a357 3b3d db23 853d bdbd 1b3d
000003e0: abc1 dcbd 90a3 d1bd 4a10 9a3d c1ab 6fbd
000003f0: 31e8 953d 9fa1 d9bd 4d48 67bd 04bd ba3d

mlp.2.bias f4 [64]
0.0012417261 -0.074504584 -0.042442657 -0.101404496 -0.063197695 0.16060661 -0.087036714 -0.110640496
0.05298298 -0.09118174 0.034186017 0.064463556 0.02352053 0.028220205 -0.04312227 0.009435805
-0.062274944 0.08374157 0.049278002 0.017396616 -0.15518454 0.1805389 0.10076373 -0.021486405
0.08426289 0.04159438 -0.09720903 0.07812 -0.12996401 -0.14082743 0.008264913 0.16586362
0.018331012 -0.02153068 -0.100813106 0.026520496 0.14250411 -0.10276964 -0.021201465 -0.029265976
0.05986621 -0.026787687 0.1049193 -0.1084671 -0.009488792 0.008458754 -0.0040055276 0.04959602
-0.11475207 -0.0622426 -0.15294144 0.009205882 -0.108864956 0.038256854 0.12912318 -0.116253205
-0.048131235 -0.040711086 0.0030627868 0.15853514 0.07368025 0.013141402 -0.11256369 -0.12000172
00000000: 6ac1 a23a dc95 98bd 5ad8 2dbd 29ad cfbd
00000010: cb6d 81bd 0f76 243e 4e40 b2bd 7c97 e2bd
00000020: ae04 593d 7ebd babd a306 0c3d 7805 843d
00000030: 20ae c03c 0f2e e73c faa0 30bd a298 1a3c
00000040: 0314 7fbd b380 ab3d bbd7 493d 5983 8e3c
00000050: b2e8 1ebe 30df 383e 375d ce3d 4204 b0bc
00000060: 0692 ac3d de5e 2a3d 8715 c7bd 61fd 9f3d
00000070: 4915 05be 1135 10be 8f69 073c 27d8 293e
00000080: eb2a 963c 1c61 b0bc 1a77 cebd 8341 d93c
00000090: 99ec 113e e478 d2bd b2ae adbc 33bf efbc
000000a0: 4536 753d da71 dbbc eedf d63d 0024 debd
000000b0: e176 1bbc 9696 0a3c cd40 83bb 3225 4b3d
000000c0: 2203 ebbd 19f2 7ebd ae9c 1cbe 45d4 163c
000000d0: 97f4 debd 38b3 1c3d de38 043e 2916 eebd
000000e0: 4225 45bd abc0 26bd 09b9 483b 0957 223e
000000f0: ace5 963d 094f 573c cb87 e6bd 76c3 f5bd

mlp.4.weight f4 [1, 64]
0.018822765 0.06891871 -0.06893681 -0.085903674 0.0062982705 0.078428656 -0.11471969 -0.10186146
-0.037668172 -0.16027288 0.014956243 0.037733454 0.009419271 0.12960276 0.058279987 -0.10046504
-0.0988814 -0.046949554 0.025626045 0.04020888 -0.0023433822 0.1169643 0.109725624 -0.08390886
0.07830455 -0.08916154 -0.093204595 0.102635555 -0.019700212 -0.14459285 -0.060248993 0.048720706
-0.13029343 0.06974048 -0.008545538 -0.05589967 0.030300679 -0.07113071 0.056288734 -0.006916132
-0.12151859 0.0153228 0.096681565 0.017839296 -0.057112228 -0.008254441 0.00048759885 -0.04179493
-0.15877742 0.007543035 -0.051822383 0.017048534 0.00971392 0.08517402 0.018346472 -0.11099865
0.043750048 0.03286536 -0.015738701 0.109479204 0.03111835 0.074668705 -0.043089632 -0.0017184502
00000000: 3332 9a3c 4125 8d3d be2e 8dbd 44ee afbd
00000010: b961 ce3b 349f a03d 28f2 eabd be9c d0bd
00000020: f149 1abd 931e 24be 080b 753c 658e 1a3d
00000030: 4953 1a3c 96b6 043e ffb6 6e3d 9dc0 cdbd
00000040: 5582 cabd 2d4e 40bd b6ed d13c 11b2 243d
00000050: 6e93 19bb fb8a ef3d d4b7 e03d 69d8 abbd
00000060: 235e a03d 539a b6bd 0de2 bebd 9732 d23d
00000070: 5762 a1bc 2610 14be a6c7 76bd 5d8f 473d
00000080: a46b 05be 19d4 8e3d 9602 0cbc 0df7 64bd
00000090: 2139 f83c faac 91bd 048f 663d b8a0 e2bb
000000a0: bdde f8bd 7b0c 7b3c fc00 c63d b723 923c
000000b0: 83ee 69bd a33d 07bc 69a4 ff39 2931 2bbd
000000c0: 8c96 22be 902b f73b b543 54bd 5ea9 8b3c
000000d0: 2227 1f3c b76f ae3d 574b 963c 4353 e3bd
000000e0: 4033 333d d49d 063d 73ee 80bc a236 e03d
000000f0: e9eb fe3c e8eb 983d c17e 30bd 9f3d e1ba
