forecasting/midroll/dnn_model/model_0_ofipl2022.ckpt (torch, 42535 bytes, 5 tensors)

mlp.0.weight f4 [64, 90]
000000 93 83 b8 3d f5 2b 10 3e ad f3 15 be dc 0d 79 bd
       0.09009471 0.14079268 -0.14643736 -0.060804233
000010 f3 2b 82 bd 2b 48 04 bc 45 8d 44 3e de 9a fc 3b
       -0.06356039 -0.008073847 0.19194515 0.0077088913
000020 94 1b 06 be cf f0 4d be fa ed c3 bc b7 3b 36 3e
       -0.13096458 -0.20111392 -0.023917187 0.17796217
000030 a4 45 2c 3d 38 e1 bd bd 7e aa 86 bd 52 a2 a2 bd
       0.042058602 -0.09271473 -0.065754876 -0.079411164
000040 17 a0 36 3b 4b 46 a1 3d 32 b9 56 3d 6d eb a1 3d
       0.0027866417 0.078747354 0.05242271 0.07906232
000050 c5 ef 76 3d ab 10 bc 3d 60 76 22 bd 79 24 88 3c
       0.060287256 0.09182867 -0.039663672 0.016618954
000060 6f 4a d6 3d 7e 67 ab 3d e5 16 0b bb e1 54 77 3d
       0.10463416 0.08369349 -0.0021223363 0.06038368
000070 d1 cc b6 3d b3 d8 21 3d fb c0 bb bd a6 50 f7 bc
       0.089257844 0.0395133 -0.091676675 -0.030189823
000080 e3 d2 97 3b 63 c2 89 3a b8 ec 05 3c c7 8b 13 3e
       0.004633294 0.0010510202 0.008174114 0.1440879
000090 7c 85 2c 3d 55 e1 df 3c b7 13 c9 3d a7 2e c6 3d
       0.042119488 0.027329126 0.098182134 0.09676867
0000a0 6b c2 f7 bc 6c ff c8 bd 58 01 09 3d c7 ea 43 bd
       -0.030244073 -0.09814343 0.033448547 -0.047831323
0000b0 eb a0 07 3d c9 e3 8d 3d 41 ee b4 bc e1 5a d4 bd
       0.033112448 0.06928212 -0.022086265 -0.10368896
0000c0 0b 27 2d bd d3 f8 32 bd 1a eb c7 bd c3 0d 31 bd
       -0.042273562 -0.04369433 -0.09761639 -0.043226015
0000d0 e0 f1 bb bc 04 19 81 bd 6b ad 03 be 76 26 81 bd
       -0.022942483 -0.063035995 -0.12859122 -0.06306164
0000e0 ba 42 ef bd 4c fd c7 bd 2e 35 75 bd e6 dd 36 bd
       -0.11682649 -0.097651094 -0.05986517 -0.044645213
0000f0 09 51 38 be 35 0b 37 3e d7 69 bf 3d 0d 88 81 3d
       -0.17999662 0.17875369 0.09346359 0.06324778
000100 f9 c9 fb bd e3 10 ac bd af 93 5a bd f8 f8 95 bd
       -0.122943826 -0.084016584 -0.0533635 -0.07322878
000110 4b 81 8c 3d 40 14 ae bd a5 0a 9e 3d 6b 45 a4 bd
       0.06860598 -0.08499956 0.07716874 -0.08021053
000120 e0 69 94 bd 6a 86 87 bd 07 d1 43 3d 0e 7f a7 bd
       -0.072467566 -0.06617434 0.047806766 -0.08178531
000130 a8 2e d1 3d e8 e4 33 bd 75 fc b6 3d 41 e0 6f bd
       0.10213977 -0.043919474 0.08934871 -0.058563475
000140 5d 7d 1b bc 00 d6 e7 bd aa 20 fa 3c 07 81 d6 bc
       -0.009490338 -0.11320114 0.030533154 -0.026184572
000150 8d c0 0c bd 45 b4 a8 3d ca ce 58 3d fd 94 ec 3d
       -0.03436332 0.08237509 0.052931584 0.11551855
000160 01 5f 8a 3d 47 13 19 bd 61 20 e6 bd c7 39 d9 3c
       0.06756402 -0.0373719 -0.112366445 0.026516808
000170 3d 05 12 bd ef c8 e8 bc 67 3c b1 3d 64 41 1a bb
       -0.035649527 -0.028416125 0.08654099 -0.002353751
000180 94 2a a4 bd 1d 0e c5 3d 35 81 0a bd 1a fc a2 bd
       -0.08015934 0.096218325 -0.033814628 -0.07958241
000190 1b 20 97 bc 03 6d d2 3d 73 d7 ec bc 4a 90 94 3d
       -0.018447926 0.102746986 -0.028911328 0.072540835
0001a0 68 d5 95 bd f2 db 12 bd 78 20 ad 3d 82 97 2e 3c
       -0.07316095 -0.035854287 0.084534585 0.010656239
0001b0 3f ba 86 3d 31 68 d8 bd 1a 95 54 bc d0 40 c7 bd
       0.065784924 -0.10566748 -0.012975002 -0.09729159
0001c0 2a da 59 bd 01 54 12 bd f8 90 c3 3d 4a d4 03 bd
       -0.053186573 -0.035724644 0.09549135 -0.032184877
0001d0 21 d5 6f bc 66 c6 cb bd e0 32 91 3d 38 10 8f 3c
       -0.014638216 -0.09949951 0.07089782 0.017463788
0001e0 dc ee 21 3c cd 4e ad 3d b9 10 be bb ee df ec bc
       0.009883609 0.08462296 -0.0058003333 -0.028915372
0001f0 ed 2a a9 3d 9a d1 a0 3d 46 e7 8a bd 7b ae 66 bd
       0.082601406 0.07852478 -0.06782393 -0.05631874
000200 ae 5d a2 b9 e3 d9 33 bc a5 2f 98 3d 37 f4 9d 3c
       -0.00030968845 -0.010977241 0.074309625 0.01928149
000210 00 21 c3 3d d3 6a a5 3d 59 bc fa 3d 2a bb a2 3a
       0.095277786 0.08077016 0.12242956 0.0012415398
000220 54 f6 88 3d 74 99 bd bb b1 94 1b bd 7a a9 ab bc
       0.06687608 -0.0057861153 -0.0379836 -0.020954836
000230 73 31 d6 bc fb 26 d2 3c 85 16 6f 3d 1b 42 cf bc
       -0.026146626 0.025653353 0.058371086 -0.025300076
000240 d3 91 17 be 1c ac 1e bd de 0e 9c 3d f9 3d 20 be
       -0.14801721 -0.038738355 0.07620023 -0.1564864
000250 83 08 8f bc f2 42 ba bd 77 b3 f4 3d 01 44 20 3d
       -0.017460113 -0.090948 0.11948293 0.039127354
000260 dc 91 b3 3c 09 5c f4 bd 25 b2 8c bd f3 e9 8f bd
       0.021920137 -0.11931617 -0.06869916 -0.07027044
000270 3c 7f 89 bd 4a 8e ba 3c 9d 5e 20 bc 3b 68 b6 3b
       -0.06713721 0.022772927 -0.009788183 0.0055666245
000280 54 fa bc bd c5 c0 f8 3d 74 ed 92 3d b4 d3 48 3d
       -0.09227434 0.12146143 0.07174197 0.04903002
000290 74 84 b4 bd f6 8e b5 3c 40 dc bc bc cf 34 81 bd
       -0.08814326 0.022162896 -0.023054242 -0.063089006
0002a0 c8 2a dc 3c ef ba c7 3c e6 8e 89 3d 21 73 26 bc
       0.026875868 0.02438113 0.06716709 -0.010159285
0002b0 e6 1e d5 3c 18 03 00 3c 48 65 d0 bd 9e 63 0c 3d
       0.02601571 0.007813238 -0.10175568 0.03427469
0002c0 46 d0 22 3e 5f 61 2b bd 64 6c be 3d af b3 f3 3c
       0.15899763 -0.041840907 0.092980176 0.029748766
0002d0 bd 0c 1b bd 68 4b 9a bd fd 6a cc bd c8 75 ec 3d
       -0.037853945 -0.07533914 -0.09981344 0.115459025
0002e0 a8 da 7f bd 43 8c a4 bd ef 79 48 3d f5 04 16 3d
       -0.062464386 -0.08034565 0.04894441 0.03662582
0002f0 04 c3 33 bd c2 9f dd 3d 4b c8 17 3d ec 69 68 bd
       -0.043887153 0.10821487 0.03705625 -0.05674164
000300 44 9e 8e 3d 2e 86 de 3d 72 d7 d7 3c f5 c8 16 bd
       0.069637805 0.108654365 0.02634785 -0.03681274
000310 ce ac 03 3d 84 58 d4 3d 8a 90 68 3d a1 23 a9 bd
       0.03214722 0.103684455 0.05677847 -0.08258749
000320 82 83 93 bd 88 53 d2 bc 4d d4 3b 3d 04 d5 43 bd
       -0.072028175 -0.025674596 0.045856763 -0.04781057
000330 fe f4 42 bd 53 24 a6 bb 4c 4e 8b 3d f6 da c9 bc
       -0.047596924 -0.005070248 0.06802043 -0.024640542
000340 e3 ee 11 3d 4b 1b 03 be 1d 2d a7 bd 5b 39 d7 3d
       0.03562821 -0.1280338 -0.081629016 0.105089866
000350 1f 70 fe 3d f6 13 a3 3d cb be 2f bd 48 6e 2a be
       0.12423729 0.079627916 -0.042906564 -0.16643631
000360 84 29 11 3d 58 8d b6 bc d8 f0 f2 b9 6f 09 a0 bc
       0.035439983 -0.022284195 -0.0004633728 -0.019535748
000370 36 bc df 3d 7f 68 a8 3d a9 f5 de 3d 63 0d 95 bd
       0.1092457 0.08223056 0.108867 -0.07277944
000380 25 8c 70 bd 17 2e c2 bc 0a 60 fc bc d1 9d 0b bd
       -0.058727402 -0.023703618 -0.030807514 -0.034086052
000390 31 41 84 bc fc 9b d7 bd e0 b2 05 bd cb 85 a2 bc
       -0.016144367 -0.105277985 -0.03264129 -0.019839188
0003a0 b5 f3 89 3d 5a cc cc 3d 28 86 a1 3c 14 a5 a2 3d
       0.067359366 0.099999145 0.019717291 0.079416424
0003b0 d8 3b 74 bd e5 59 81 bd 99 ee d8 3c f0 80 a2 bd
       -0.059627384 -0.06315974 0.02648096 -0.07934749
0003c0 4d d0 0a 3e f0 ea 26 be 09 7f 9f 3d 77 cd 8a bc
       0.13556023 -0.16300559 0.07787902 -0.016943676
0003d0 17 c3 ce 3c 3e 49 0a be 3d 5b 6c bb 26 19 cf 3c
       0.02523951 -0.13504502 -0.0036065124 0.025280546
0003e0 2f c2 a2 bc 9d 27 08 3c 38 6d 8e 3d c6 e9 9d 3d
       -0.019867985 0.008310226 0.069544256 0.07710604
0003f0 6a 77 48 3d 9c 5c 9b 3d c3 d2 22 3e 4d 01 c1 bb
       0.048942007 0.07586023 0.15900712 -0.0058900476

mlp.0.bias f4 [64]
000000 3c 52 c4 bd a1 d9 7d 3d 23 63 9e 3d 8b 17 bf bd
       -0.095859975 0.061975125 0.077337526 -0.09330662
000010 f0 1c b3 bd c6 4e 93 bb b5 ec a4 3d e8 55 1d bd
       -0.08745754 -0.0044954745 0.08052961 -0.038412005
000020 ea 29 35 ba 68 62 95 3b b6 2f cc bd a5 c2 0c 3d
       -0.0006910848 0.00455885 -0.09970038 0.034365315
000030 42 59 37 3d f2 cb 4d bd e2 91 ce 3b b6 ac a6 bd
       0.044762857 -0.050243326 0.0063040117 -0.08138411
000040 f3 a2 9e bc 47 ee c4 bd a9 ab 47 3c 32 c5 8e 3c
       -0.01936481 -0.0961576 0.012186923 0.017428014
000050 e2 94 2f bc 46 9d 05 bd c8 fc 39 bd 1d 7c b9 3b
       -0.010716649 -0.03262069 -0.045407087 0.0056605474
000060 25 a1 8f 3c 8a 8a 65 bd da d2 7e 3d d7 17 71 3c
       0.017532894 -0.056040324 0.062212802 0.0147151565
000070 9d ee e7 3c 8b 54 ee bc 92 f9 b3 3d 23 b5 94 bd
       0.028312022 -0.029093048 0.08787836 -0.072611116
000080 23 1a 89 3d 40 02 9d bd 1f 6e 1f 3d a7 2b 6f bc
       0.06694438 -0.07666445 0.03892338 -0.01459781
000090 84 bc 8b 3d 72 c5 95 3c 76 47 42 bd f4 bb 99 3d
       0.06823066 0.018282626 -0.04743143 0.07506552
0000a0 6c 1c d5 ba c1 24 78 3d 0a 0f 7c ba 96 ce 83 bd
       -0.0016259081 0.060581926 -0.0009615278 -0.064358875
0000b0 49 27 2f bd 5d e7 8a bd 88 d8 8c bd 30 87 5e 3d
       -0.042762075 -0.0678241 -0.068772376 0.054328144
0000c0 e9 bb 1e 3d 8b 07 3e 3c 10 8e dc 3c d5 bd 62 3d
       0.038753424 0.011598478 0.02692321 0.05535682
0000d0 46 1e 8c bd d1 6a 41 3d 53 6d 0a bc 73 e0 b9 3d
       -0.06841712 0.04722101 -0.0084489165 0.090760134
0000e0 bc 27 35 bd 01 14 14 3c 40 36 c7 3c 19 35 f0 bd
       -0.044227347 0.009037972 0.02431786 -0.117288776
0000f0 4f 70 4e bd 78 42 79 bd ef 2c 48 3d 53 91 d5 3c
       -0.050400075 -0.060854405 0.048870977 0.026070273

mlp.2.weight f4 [64, 64]
000000 81 21 0e bd 75 8c 87 3b e7 14 82 bd 05 99 a0 3d
       -0.03469992 0.004136617 -0.06351643 0.07841686
000010 e2 7e 67 be 3f 9a 03 be 02 89 0f bb 01 99 19 bd
       -0.22606996 -0.12851809 -0.0021901731 -0.03749943
000020 8d 7e 15 bd 86 70 9c bd ce 7f c9 3c 4f 94 86 bc
       -0.03649764 -0.0763865 0.024597075 -0.01642814
000030 25 10 aa bb 17 a5 1f bc c6 e7 b3 3c 71 6b 77 bd
       -0.005189913 -0.00974395 0.021961104 -0.0604052
000040 aa a0 0c 3e dc 36 32 3e e1 3c 58 bd 30 c6 7e 3d
       0.13733163 0.1740374 -0.052792434 0.062200725
000050 5b 79 f9 bd 4e 5c d2 bd 39 97 c3 3c a5 bf 1f be
       -0.1218135 -0.10271512 0.02387582 -0.1560045
000060 e7 37 b0 3d 41 3d 0f 3e d3 68 a4 3d 1e 3d 52 3b
       0.086044125 0.1398821 0.08027806 0.0032079886
000070 bb b0 bf bd 16 41 9c 3d 18 3c e1 bc b6 d5 2a be
       -0.093598805 0.07629602 -0.027494475 -0.16683087
000080 8e 49 a5 bb f4 c4 92 bd 9b 25 69 bd 7b f4 a2 bc
       -0.005044169 -0.07166472 -0.05692063 -0.019891968
000090 1f e1 85 3c b8 5e b8 3d 97 e6 f3 ba 13 c0 24 be
       0.016342698 0.09002441 -0.001860815 -0.16088895
0000a0 3a 26 a6 bd 16 9d 1c be 5c 02 7c bd 0d c6 b6 bd
       -0.0811276 -0.15294299 -0.061525688 -0.08924494
0000b0 1c 4a 36 3c e1 37 f3 3d a0 93 21 3d b5 04 7b 3d
       0.0111260675 0.118758924 0.039447427 0.061283786
0000c0 10 48 67 bd 6d ce cd bd 6b 79 ba 3d b8 b5 df 3d
       -0.05646521 -0.10049138 0.0910519 0.10923332
0000d0 99 57 14 3d 98 eb a4 bd 7d c7 75 be 61 06 23 be
       0.036216352 -0.080527484 -0.2400188 -0.15920402
0000e0 61 73 63 be 87 67 c8 3d e6 7f b0 bd 0d 7e 60 3d
       -0.22211982 0.09785371 -0.08618145 0.05480771
0000f0 ea 56 83 bd e7 13 de bc 3f c6 c9 3d e5 fd 1b 3e
       -0.06413062 -0.0271091 0.098522656 0.15233572
000100 d8 f6 8b 3d 72 d3 11 3e bd 40 aa 3c 5a 0b 1d be
       0.06834191 0.14240816 0.020782823 -0.15336362
000110 a2 de d4 3d 38 71 6e bd 10 e4 ac 3d a9 66 8e bc
       0.10394026 -0.058213443 0.08441937 -0.017382937
000120 af 1f fb bd 96 28 3c 3d 96 bc 38 be 93 dd 4d be
       -0.122619025 0.045937143 -0.1804069 -0.20104055
000130 bc 26 be bd 76 9b db bd f9 64 b9 3c 16 ea 80 3d
       -0.09284732 -0.10723011 0.022631155 0.06294648
000140 67 2c f5 3d 7a fb de bd a7 8a 59 3d c1 15 1a bd
       0.1197136 -0.10887809 0.053110745 -0.037618402
000150 d6 4e 8d bd 2a b6 43 3c 98 78 db bd 0a 05 a5 3d
       -0.068998024 0.011945287 -0.10716361 0.08057602
000160 06 06 df bd 16 7e 60 3c 80 ba 4a 3e d4 be 24 3d
       -0.10889821 0.013701936 0.19797707 0.04022105
000170 63 79 5a bd 2f d6 c4 bd df 16 b6 bd 2f ff 40 bd
       -0.05333842 -0.09611165 -0.08891081 -0.047118362
000180 2e b5 0c be e5 0f 73 3d af d0 22 bd 24 ea a7 3c
       -0.1374099 0.05934133 -0.039749797 0.02049739
000190 a3 26 ad 3d d6 cf 2b 3d 0c 66 8e 3d 8e cb 96 bc
       0.08454635 0.041946255 0.06953058 -0.01840761
0001a0 d7 6a 88 3c 59 ea a0 3d cc 43 97 3d b4 52 29 be
       0.016652508 0.07857198 0.07385978 -0.16535455
0001b0 e9 20 4f bd 64 db 41 bd 35 df df 3d da aa 99 3d
       -0.050568495 -0.047328368 0.10931245 0.075032905
0001c0 01 00 1b bd 26 f2 7d 3d 69 64 d7 bd df 35 5c bd
       -0.0378418 0.06199851 -0.105171986 -0.053762313
0001d0 69 d9 00 be e2 13 b3 bc 9f f3 17 be 0e 77 c0 3d
       -0.12582935 -0.021860067 -0.14839028 0.09397708
0001e0 3f 2f 24 3d 1a fc 32 3e b6 c5 2b 3d ae 57 3f be
       0.04008412 0.17478982 0.0419366 -0.18685791
0001f0 20 43 62 bc d0 0d ce 3c 20 2d f7 3d b8 ed 4a be
       -0.013809949 0.02515307 0.12069154 -0.19817245
000200 22 9d a0 3c 92 bc 64 ba 89 37 da bd 33 7b d1 3d
       0.019606177 -0.0008725609 -0.10655124 0.102285765
000210 19 e8 09 be 5b c9 0f 3d 0f 23 0f be 6c 76 b0 3c
       -0.13467444 0.035104137 -0.13978218 0.021540843
000220 5d f2 c1 bd 00 4b 5d bc d2 3c 75 3d cf 6e 55 3c
       -0.09470055 -0.013506651 0.059872456 0.013026907
000230 28 f7 8a bd 0e 2b d3 3c 67 9f 05 3e d8 c8 ac 3c
       -0.067854226 0.025777366 0.13049088 0.021091864
000240 89 c6 81 bd 15 24 35 be 92 64 a5 3d 95 95 a1 3d
       -0.06336696 -0.17689545 0.08075823 0.07889859
000250 a0 2e 70 bd 57 5a 94 3d 2d 6b da bc 52 40 9c 3d
       -0.058638215 0.072437935 -0.026662434 0.076294556
000260 c9 42 0c bd 22 c1 6a bd 07 5e af bd f8 3b a1 bc
       -0.03424338 -0.057313092 -0.08562856 -0.019681916
000270 19 52 b5 3d 10 79 9e bc 97 c8 b3 3d 8d 31 f5 bd
       0.088535495 -0.019344836 0.08778494 -0.11972342
000280 af 82 62 3a b9 81 3e 3d 49 e3 5c 3d b0 38 9f 3c
       0.0008640689 0.046510432 0.053927694 0.01943621
000290 e3 66 3f bd b2 2e 0c bd a2 c7 ad bd 63 ca 02 37
       -0.04672898 -0.03422422 -0.084853426 7.795726e-06
0002a0 29 05 96 bd 8c de 0f 3e 6b 50 22 bd 13 f5 a7 bd
       -0.07325203 0.14049739 -0.039627474 -0.08201041
0002b0 df da 39 bd a4 45 a6 bd e0 27 95 be 09 8f b4 bb
       -0.045374747 -0.08118752 -0.29131985 -0.005510215
0002c0 bf 3a 99 3c d5 73 b5 bd ee 4f 1c bd 4c 0e 9c 3c
       0.01870477 -0.08859984 -0.038162164 0.019049786
0002d0 d7 09 04 3a 6b 72 84 3d ac 4f f7 3d 9b 40 b9 3c
       0.00050368666 0.06467136 0.12075743 0.022613814
0002e0 6f dc 07 3e 49 47 04 3e 94 09 25 3d 97 b2 3b 3c
       0.13267682 0.12917818 0.040292338 0.011456153
0002f0 4d e5 a9 3d 5c a1 08 be 7d 48 87 bb 08 eb 19 bd
       0.08295689 -0.13342804 -0.0041285143 -0.03757766
000300 b0 05 22 bd d8 30 bd bc 06 9d 82 3d da b8 f9 3d
       -0.039556205 -0.02309458 0.06377606 0.12193461
000310 10 06 87 3c 90 9a e8 bc 00 92 6d ba 80 30 08 3b
       0.016482383 -0.028394014 -0.0009062588 0.0020780861
000320 18 6e 9a bc a0 42 c1 3c f4 4f 69 bd c2 d2 cf 3d
       -0.018851325 0.02359134 -0.056961015 0.10147621
000330 28 f6 a9 bd 54 98 a6 3d a2 98 fb bd b0 3b b5 bc
       -0.08298904 0.08134523 -0.12284972 -0.022123188
000340 08 db a5 bc ea 58 de 3d 04 4c c7 bd f0 95 25 3c
       -0.020246044 0.10856803 -0.09731296 0.010106549
000350 08 f7 ad bc f0 d1 a7 bc 46 2c c6 bd 6c 4b a0 bd
       -0.021235958 -0.020485848 -0.09676413 -0.078268856
000360 12 a3 fa bd fc 22 17 bd 20 68 13 3d f8 aa a5 bc
       -0.122381344 -0.036898598 0.035987973 -0.020223126
000370 90 ef 3e 3d 10 0f e1 3c dc 34 91 bd c4 85 5c bd
       0.046615183 0.027473003 -0.0709016 -0.053838506
000380 94 55 80 bd ca 0e c4 3d 68 9a e1 3c 24 17 29 bd
       -0.06266323 0.09573133 0.027539447 -0.041281834
000390 b2 56 ba bd 30 7a 4a 3d 16 da 99 3d 88 fc b0 bd
       -0.09098567 0.049432933 0.075123 -0.086419165
0003a0 82 58 81 bd 50 ec ca 3d 8a c6 9e 3d 40 d9 fe 3c
       -0.0631571 0.09908354 0.07752712 0.031109452
0003b0 dc d6 27 3d b0 6b d3 3d 30 00 c7 bd 7e 52 9f bd
       0.04097639 0.10323274 -0.09716833 -0.07779406
0003c0 92 22 f7 bd dc 1a e1 3d 7e 6a b4 bd 88 28 90 bd
       -0.12067141 0.10991451 -0.08809374 -0.07038981
0003d0 b0 2e 87 3c 48 ab fe 3c f0 ed 67 bd 60 da 0a bc
       0.016501755 0.031087533 -0.0566234 -0.008474916
0003e0 cc 55 6f 3d 74 45 f6 3d 74 3b ca bd a2 47 96 bd
       0.05843143 0.12024966 -0.09874621 -0.073378816
0003f0 ba 1b fe bd 12 a9 ea 3d b0 a4 02 3c b0 99 c4 bc
       -0.12407632 0.11458029 0.007973835 -0.023999065

mlp.2.bias f4 [64]
000000 96 14 d3 bd 4c 15 b9 bd 06 82 08 3e 18 d6 f4 bd
       -0.10306661 -0.09037265 0.1333085 -0.11954898
000010 a4 99 ac 3d 22 5a 0a be a6 b2 e6 bc 18 ea 01 be
       0.08427742 -0.13510945 -0.028161358 -0.12686956
000020 84 93 eb bd f6 3d 48 bd dd 83 bc 3d 42 a5 4a bd
       -0.11502746 -0.048887216 0.092048384 -0.04947401
000030 6c 69 79 3c c9 e6 f7 3d dc e6 0f be 80 7a 39 bd
       0.015222888 0.12104566 -0.1405291 -0.04528284
000040 33 ca 0a 3e 8c 1e 94 3d 49 a6 e7 3d 2f d4 a4 bd
       0.13553695 0.07232389 0.11311013 -0.08048283
000050 80 78 36 bd 4e 5a e1 bd 00 15 2e 3d 9d 9f 50 3c
       -0.04454851 -0.110035524 0.042500496 0.012733367
000060 5e e6 b4 3c 8a 8c 8b bd 65 50 e5 bc a2 98 87 3d
       0.022082504 -0.06813915 -0.027992437 0.06620909
000070 4f 3f 8f bd 40 65 ed bd 30 0f 67 bc e7 f1 a7 3d
       -0.06994497 -0.115915775 -0.014102742 0.08200436
000080 fb fb 11 3e 3f e1 a6 bd f4 24 d0 bd 7f c9 3a 3d
       0.14256279 -0.08148431 -0.10163298 0.045602318
000090 88 cb 5f bd ee 42 af bc a4 15 81 3d 40 a5 1e bd
       -0.054637462 -0.02139422 0.06302956 -0.038731813
0000a0 8b 26 99 bd bf 38 c0 3c 7a e9 b9 bd f0 b9 58 3b
       -0.074780546 0.023464559 -0.09077735 0.0033069812
0000b0 b8 7c cf bc 9d 01 f0 3d 8b 14 23 bc 0e fe 9c bc
       -0.025328025 0.11719058 -0.009953628 -0.019164111
0000c0 37 e2 44 3c 20 8e bc 3d 29 83 fe bc 03 76 e5 bd
       0.012016824 0.09206796 -0.031068401 -0.112041496
0000d0 38 69 e7 bc c3 c0 29 bd ff 78 56 3d 1e e4 d1 bd
       -0.028248414 -0.041443598 0.052361485 -0.10248588
0000e0 e8 0b a8 3d 3c 0e 87 bd 4f e5 06 bd 13 d1 9b bd
       0.08205396 -0.06594512 -0.03293353 -0.07608237
0000f0 26 fa 10 be e5 88 3e bd 4a bb 83 3d 01 73 1e bd
       -0.14157924 -0.04651727 0.06432207 -0.038683895

mlp.4.weight f4 [1, 64]
000000 c0 31 d3 3d 35 85 80 bd 17 c6 db 3d f0 13 c1 3d
       0.103122234 -0.06275407 0.10731142 0.09427631
000010 bc 7d 39 bd fe 91 2f 3b dd c5 0d 3e 46 da 1d bd
       -0.045285925 0.00267899 0.1384501 -0.03853824
000020 1c de 80 bd 70 78 5d bd 8d 2e 21 3e f8 d4 97 bc
       -0.06292364 -0.054069936 0.15740414 -0.018534169
000030 37 26 de 3d 25 2e 81 3d 1b 2c 6b ba ce fc 7e be
       0.10847133 0.063076295 -0.0008971111 -0.24901125
000040 58 a8 d4 3d 23 e2 45 3d 43 52 07 3d 75 79 4e 3d
       0.103836715 0.048311364 0.033037435 0.0504088
000050 eb 10 21 bd 4b b3 e7 3c c8 49 46 bb 21 c8 e3 bb
       -0.039322775 0.028283736 -0.003025638 -0.0069513475
000060 3d e0 93 3d 21 c9 fa bd e4 ba 28 bd e7 7b aa 3d
       0.072205044 -0.122453935 -0.041193858 0.08324414
000070 24 92 24 3e 02 46 63 3d 77 8f 9e 3c 63 0f 01 3d
       0.16071373 0.055486687 0.019355519 0.031508815
000080 8e 7e d5 3d 01 49 a8 3e 53 5d 2b 3c 7b 90 bc 3d
       0.10424529 0.32868198 0.010459262 0.09207245
000090 e2 11 22 bd 71 3d 95 bd bf cb e2 bd d4 d1 33 3c
       -0.039567836 -0.0728711 -0.11074018 0.01097532
0000a0 67 a1 a0 bc 9b 6c ff bc 6a 03 ae bd 87 6f 0f 3d
       -0.019608213 -0.031179717 -0.08496745 0.03501847
0000b0 00 c9 a6 bd af d0 47 3d 8e 79 14 bd 35 79 d9 3c
       -0.081438065 0.048783 -0.036248736 0.026547054
0000c0 33 ca d3 3d 68 fc 97 3b c8 83 c9 bb d5 28 09 3e
       0.10341301 0.0046382435 -0.0061497428 0.13394482
0000d0 df 5e 18 3c ea 66 95 bd 56 40 ad 3c c5 d9 3a 3e
       0.009299963 -0.0729502 0.021148842 0.18247135
0000e0 0f 92 ae 3a e1 18 3f bd a1 05 16 3d ee 22 07 38
       0.0013318675 -0.046654586 0.036626462 3.221904e-05
0000f0 5d 5b 24 3b 60 70 83 bb 86 0a 19 3c 30 6f e0 3d
       0.002507887 -0.004011199 0.009340888 0.10958707
