forecasting/midroll/dnn_model/model_3_ofac2022.ckpt (torch, 42527 bytes, 5 tensors)

mlp.0.weight f4 [64, 90]
00000000: 4f77 bd3d 9d01 e43c 3963 bc3d e00c 473c
00000010: 403f 4a3d 635b 53bd e0a7 cebd f4dd 10be
00000020: 8843 2b3d 8dfa f1bc 672f 5dbd ea6a f6bd
00000030: 6da2 5a3d f5f4 abbc afdb 24be c733 973a
00000040: 7de6 9abd c159 e8bd 1f06 6fbe 4d26 333d
00000050: 813c cc3c 49c3 1dbe e66e 463d 135f 04be
00000060: 0e14 dd3d 8e53 98bd 2ed9 a03d 014d 99bd
00000070: 1244 20bd ecf9 f93d cf57 b1bc 0f81 bc3b
00000080: 55ab 0e3b 80f9 a4bc 02bf 9ebd dac6 abbd
00000090: b577 f4bd aa06 fabc 7b85 73bd 0d3f 6b3b
000000a0: a9e0 92bd 8ec3 d93c ce65 ee3c 9a02 ff3c
000000b0: 2fee 543d a300 2dbd 713b f83d acf3 d7bd
000000c0: 4b72 863d da7e 563d 5d8e 98bc d8bd bfbd
000000d0: 7d2e 3b3c 7efe 2bbd 04f0 a8bd 092f 62bc
000000e0: 245c d9bd bb6c 97bd c2f7 6e3e 31f1 133e
000000f0: fa81 533d a5f7 28be 5869 0abe 083e 83be
00000100: 57f3 2dbe 94f9 603e 5b83 1e3e d5b6 083e
00000110: eeee eb3b 8090 d73d 6619 46bd 06c0 ea3d
00000120: 86c7 a73c cd0a c83b 3b1e 72bd 6b67 77bd
00000130: 2bd2 cebd 52bb a4bc fcb6 f23d 3821 77bd
00000140: fe49 d23c 3ce0 f43d 9713 b9bc df1d 93bd
00000150: dc0e 093e eb49 fabd 350b 9c3d 9b32 1b3e
00000160: 86b4 adbd ee9f df3b 147e 68bd 643f 6d3d
00000170: 58ca f23d 8a4d 5d3d d20e 7fbd cbc5 71bd
00000180: 3655 8abd 2b81 3cbe f9cd 42bd 3c81 02be
00000190: 42c8 3bbd 2a65 d4bd 3f42 21bd 86f8 2d3e
000001a0: a42b 0dbe 3412 993c 8425 8b3b 1091 95bd
000001b0: 281f a8bd 0e13 463d 9a35 20be 62a0 debd
000001c0: a9df 7f3e 8428 9e3c c6ee c0bb b019 b4bb
000001d0: 385f 193e bea0 c2bc 0761 0a3d 6234 2cbd
000001e0: db69 32be 913d d6bd eac5 66bd e724 073e
000001f0: 69f8 263a bff7 a8bd ce23 d8bb 0065 35be
00000200: 1820 763b 9532 b43d 6693 29be 3855 4d3d
00000210: 5dcd d6bd 6abd 8f3c cfaa 56bd 1bd8 083e
00000220: c7a3 963d 9978 9fbd 8f6e fa3d c702 e03c
00000230: 90c9 9a3d 06b2 24be 38a5 61bc 4fc3 d5bd
00000240: 05b2 31bd 0bce e13d e67b b23d 500e f0bd
00000250: dbb6 e63d 1bb6 be3d fcec 413d a1d1 90bd
00000260: 7531 1cbe 3818 50be c5d9 71bd 9314 e23c
00000270: 4942 983d 5c15 5e3b a053 903c 8812 573d
00000280: 8db7 873c ea78 83bd 2a03 b53c 49be 6e3d
00000290: faeb 3fbc 5c76 f53d 12c7 b43c 7dd1 3d3e
000002a0: e57a 633d 94ec 463d 9185 263e 18c1 253e
000002b0: 02d9 40bd 78fa e73a b7ff e63d 68ad cebd
000002c0: b219 423e 7111 0f3e f3aa 18be 4661 563d
000002d0: f7bb fd3d 498f 47bd 1965 87bd 1514 93bd
000002e0: 998f a3bc 74d4 273d 6d7b 293c cd7b 63be
000002f0: ae4a a2bd 63db 01bd c0f2 a33d 28a2 043d
00000300: 339e 5c3d 031b a0bb 64d1 17be a813 e039
00000310: 49e8 393d c572 1fbe 9fef 58be a9a0 383c
00000320: 57cc 83bd 2ae4 a1bd 41aa da3d 3c9e 883d
00000330: 0efa 283d d767 97bc a4f3 9d3d 05d8 dfbd
00000340: 7dcc 3a3d 412a ae3d 5ecc 59bd bacc 11be
00000350: 7c0c e33a deae 1b3e 72ae 8abc e0f1 d13c
00000360: 86de 89bd e4fc a7bd 18b3 2bbd b165 b03c
00000370: 9493 88bd 5786 8a3d 76b4 9abc 3d1d 6dbd
00000380: df95 57bd d976 693d b889 a4b9 d12d ffbd
00000390: 95e8 b23d eba3 6e3d 30e0 1fbd b5e2 e3bd
000003a0: d6a6 353d 74cf 0cbe 4dd1 37bd 420c ee3d
000003b0: 7626 f9bd cddf 3abe 5f1c 8b3c edfe 0e3c
000003c0: 98e0 8cbd ef82 f1bc d0f5 91bd f6e0 5fbe
000003d0: ea87 3a3d ebf4 d93d 739c bd3d 0340 5abc
000003e0: 7f09 183e 6786 e03a 6d6f 803d 4941 bbbd
000003f0: bcd7 19bd 0343 9dbb f9c0 1d3d 0a3e db3c
0.09251272 0.0278328 0.09198613 0.012149066 0.049376726 -0.051600825 -0.10090613 -0.14147168
0.04181245 -0.029538417 -0.054000285 -0.12032111 0.053377558 -0.020990828 -0.16099428 0.0011535817
-0.075634934 -0.11345244 -0.23342179 0.0437377 0.024931194 -0.15406527 0.048445605 -0.12926893
0.10794841 -0.07437812 0.07853924 -0.074853905 -0.039127417 0.12205872 -0.021648316 0.0057526897
0.0021769602 -0.020138502 -0.077512756 -0.08387537 -0.11936895 -0.030520756 -0.05945347 0.0035895735
-0.07171757 0.026582506 0.029101279 0.03112917 0.051984962 -0.042236935 0.121207125 -0.105445236
0.065647684 0.05236707 -0.018622572 -0.09362382 0.011424658 -0.04199075 -0.08248904 -0.013805159
-0.106132776 -0.073937856 0.233367 0.14447476 0.051637627 -0.16500719 -0.13516748 -0.25633264
-0.16987358 0.21970206 0.15479796 0.13350995 0.0072001135 0.10525608 -0.048364066 0.11462407
0.020480882 0.006104803 -0.05911086 -0.06040136 -0.1009868 -0.020108853 0.11851308 -0.060334414
0.025670048 0.11956832 -0.022592349 -0.07183432 0.13384575 -0.1222113 0.07619325 0.15156023
-0.08481698 0.006824485 -0.056760862 0.057921782 0.11855 0.054029025 -0.062269993 -0.05902652
-0.06754534 -0.18408649 -0.047559712 -0.12744612 -0.045845278 -0.10370858 -0.039369818 0.16989335
-0.13786179 0.018685438 0.0042464156 -0.07303059 -0.082090676 0.048358016 -0.15645447 -0.10870434
0.24987663 0.019306429 -0.005887839 -0.0054962263 0.1497773 -0.023758288 0.03378394 -0.042042144
-0.17423193 -0.104609616 -0.05634109 0.13197671 0.00063694135 -0.08250379 -0.006596065 -0.1771431
0.003755575 0.0879871 -0.16560134 0.0501301 -0.10488389 0.017546374 -0.05240899 0.13363688
0.07355457 -0.07786674 0.12228119 0.027345074 0.07557976 -0.16083536 -0.013772301 -0.10437643
-0.043382663 0.11025628 0.08715038 -0.1172148 0.11265346 0.093120776 0.047345147 -0.070712335
-0.15253241 -0.20321739 -0.05904557 0.027597701 0.07434518 0.0033887243 0.017618 0.052507907
0.016567016 -0.06419547 0.022096235 0.05828694 -0.011713976 0.11985466 0.02206758 0.18536945
0.055537123 0.048565462 0.16261889 0.1618694 -0.047081955 0.0017698547 0.112792425 -0.10091668
0.18955114 0.13971497 -0.14908962 0.05233886 0.12389367 -0.04872063 -0.0661108 -0.07181565
-0.019965934 0.040974095 0.010344368 -0.22215195 -0.079244 -0.031703364 0.08005285 0.032381207
0.053861808 -0.0048860325 -0.1482597 0.00042739254 0.04538754 -0.15571125 -0.21185158 0.011268773
-0.06435459 -0.07904847 0.106770046 0.06670806 0.041254096 -0.018482132 0.077124864 -0.10929874
0.04560517 0.08504153 -0.053173415 -0.14238253 0.0017322446 0.15203425 -0.016928885 0.02562803
-0.06731896 -0.08202532 -0.041918844 0.021532865 -0.06668773 0.067639045 -0.018884879 -0.057889212
-0.052633163 0.056998108 -0.00031383126 -0.12459911 0.08735768 0.058261793 -0.03903216 -0.11127225
0.04434856 -0.13751012 -0.04487734 0.11623432 -0.12165539 -0.18249436 0.016981302 0.008727771
-0.06878775 -0.02948138 -0.07126963 -0.2186316 0.045539774 0.106424175 0.09258356 -0.013320926
0.14847372 0.0017129899 0.06271253 -0.091433115 -0.037559256 -0.004799248 0.03851411 0.026762981

mlp.0.bias f4 [64]
00000000: b37c 12bc 4ddf 9d3d 1390 b5bc 38fc ee3c
00000010: b81b a13d fcf8 a0bc c5b8 c53d 5613 da3c
00000020: 59f7 fabb c4ac 003e 626a 513d 6c64 043d
00000030: bb53 adbc 2151 c2bd 6cd9 613d 720d d93d
00000040: 6431 51bd f184 8e3d d549 0c3e 80f4 81bd
00000050: 3b05 523b 7b4c 073d 351c e23d 8873 ee3c
00000060: 076d f93d f4b3 cebd ae77 123d 71f9 09be
00000070: f2df e73d 491e 9cbd 1adf c93d 4a89 183c
00000080: 0338 843d 1858 9dbc 5c8e 2d3d e925 b03d
00000090: af82 bfbd 28c8 02bb 918f 17bc 5777 54bc
000000a0: 50ee ecbd 9f3b abbd d528 debb ca9b 213d
000000b0: 41ad 51bd 1c51 b0bd adb5 5d3d 1adf db3c
000000c0: 3cd2 f63d c31f e03d afed 8c3d 8be8 743d
000000d0: 90e0 e03d 10c4 89bc 0193 bb3d 0078 83bd
000000e0: e8f5 d9bc dfd1 8bbd 7974 f03d cdf7 323d
000000f0: 4cfd b5bd 9917 8ebd bcae 073e 6bb4 85bd
-0.008940863 0.07708607 -0.022163427 0.029173002 0.07866615 -0.019649975 0.096543826 0.026620548
-0.0076588807 0.12565905 0.051126845 0.032322332 -0.02115809 -0.0948813 0.05513899 0.105982676
-0.051072493 0.0695895 0.1370004 -0.06345463 0.0032046575 0.03303192 0.11040536 0.029107824
0.121789984 -0.10092917 0.035758667 -0.1347406 0.11322011 -0.07622964 0.09857006 0.009310076
0.06455996 -0.019207045 0.042372093 0.08600981 -0.09351098 -0.0019955728 -0.0092505375 -0.012967906
-0.11568892 -0.08360981 -0.00677977 0.039455213 -0.05119062 -0.086092204 0.054128338 0.026839782
0.12051818 0.10943558 0.06881272 0.059792083 0.10980332 -0.016817123 0.09158898 -0.064193726
-0.026606515 -0.06827139 0.117409654 0.043693352 -0.08886203 -0.06938095 0.1325025 -0.065285526

mlp.2.weight f4 [64, 64]
00000000: da8b 90bd 2c76 0e3e 00b8 043e d823 223d
00000010: bc7d 873e d267 813f 9540 f6bc 8577 ba3d
00000020: 5bca 4cbc f593 2f3e b2f6 6b3d 3fd9 c6bd
00000030: 44db a33e 01ac a63e a87a b5bc 80b6 243e
00000040: 2e99 c23e 789d ee3d 035a dd3c 7a6d b83e
00000050: c1b0 4a3c 41e3 183e e395 8b3d 3530 bebd
00000060: 568d 2dbd d43d a2bb 623b ee3d e137 423f
00000070: 34d9 e6bc 2bc5 e93c 1ccd 113e 547b 473d
00000080: 1e45 823e df54 533d bf5c 1abf 50ee bc3d
00000090: c00b 9dbd 5f19 f53d 26d9 2dbd 1ccb 6c3d
000000a0: da31 053f ee64 643e aa93 4e3d 9139 683d
000000b0: d2c1 823d 6026 bd3d 3dca 10bd 6ea3 13bd
000000c0: d38e 4c3d 7bb1 ab3c 7b94 273c d1c1 10bd
000000d0: 6954 293e e2b6 ab3d 8ff4 e03d 80f6 963d
000000e0: 7ae2 8ebc ca0a b53e 6a43 5bbd 7cd6 f03d
000000f0: 9122 aabd 5dda 683f ef20 283e 299f 4e3c
00000100: 6648 183e 1cdf 16bc 744d a4bc efc3 673d
00000110: a3e6 813e da61 603f 02ad 51bd 6a9f 50bd
00000120: 3b3c 133b ba2f 0abd 8479 c93d 5eaf 5e3d
00000130: 2c3b e23e 692d 793e 375d 953d 6f1f 3e3d
00000140: 2a04 8f3e cab6 0d3e 7d13 fe3d 8fb2 e03e
00000150: 962f fabc e8ea 8fbd 7f52 3bbd b315 093d
00000160: 6d27 adbd 6141 31bd 7dab 133e 40d8 4e3f
00000170: 172a 863d a957 ba3d b9d4 7a3e 340b fd3d
00000180: 5700 a23e 070f 103e 457a 08bf 9a4f 543e
00000190: cc61 ba3d 2557 77bd 3625 033e c575 8fbd
000001a0: 475f 013f b541 043e 237c 103d 6d92 99bd
000001b0: 4093 143e 6a4f fe3d 2eff d83d e3a4 8d3c
000001c0: c64f b53d c31b 89bb 027f 473d 1f22 b8bd
000001d0: ad9f 6c3d 7f59 f33d b264 22bc be5d f23d
000001e0: a293 bebc 07b4 c63e c8c3 e83c 6749 8c3c
000001f0: 6b78 8dbd 5ce4 543f 8c12 68bd 69f4 a53d
00000200: 2344 e4bc 337b 8dbd d46d 603d 7d7d 123d
00000210: c4cd 4f3e 70aa 743f 8b9b bc3d 1b96 213e
00000220: a336 bf3d 2862 ea3d 0a52 c3bd 58db f03d
00000230: a30b fa3e 116d c73e 3295 28ba f335 1a3c
00000240: a11b 823e 2c67 9ebd dc84 193e f023 d93e
00000250: 47a3 f23d 15c1 ec3d d4e1 013e 8836 3b3d
00000260: 74e2 343d c40c 543e 0996 ff3c ccfa 273f
00000270: 82ec 883d 1c4b a33d c962 cf3d d1d4 bbbc
00000280: 8f71 823e 2558 fb3c 7a69 0abf f118 2a3d
00000290: 5ccd dfbd cef2 113e 5be8 88bd a560 57bd
000002a0: ba3a f33e e78f 483e c4cf c0bc 3d84 a23c
000002b0: 9c03 d43c f3cd aabd 4de6 6ebd 7878 e9bc
000002c0: c9de 78bb dc9f cf3d 186e f33c d099 183d
000002d0: c07a bebc 0afc db3b 2c9f 94bd ed34 2d3c
000002e0: 8732 6fbd fadb 133f 4df8 d53a 34d5 df3d
000002f0: caca 67bc 16ee 3c3f 3264 bfbc a1d9 193e
00000300: ee7d 9fbb 2dcd 72bc 07b5 b53d 05c7 ab3d
00000310: e82f 343e 6e32 743f e9db f33c 6434 0e3e
00000320: 62d3 62bd 6c34 1c3e 2f81 0d3e 0727 0e3d
00000330: a482 f73e 090a b83e fc72 ef3d b2e6 073e
00000340: 73d9 923e 2c92 11bd 22db 78bc bf12 d63e
00000350: 13d3 9d3d 6aa0 5f3d 33d7 9c3d 4420 d8bd
00000360: 32bb 083e 473a 4a3e e14e 053e 59bc 1d3f
00000370: 065a 193e 1eb0 6d3c 50f1 453e 8880 d53d
00000380: 70db bf3e e137 3ebd 8cee 03bf f739 7f3e
00000390: 0001 e1ba c9a4 ffbc 4828 093e 1e4a fc3d
000003a0: dc80 063f 5b66 cb3d 40fd c63d e3af 1b3d
000003b0: 92f9 303e ccbf 93bd d7d2 d0bc c73c 123c
000003c0: ae11 63ba 8a2e 053e 9371 273d e5ca d13d
000003d0: 2103 833d 077e ed3d 05b6 933c 8dd8 953d
000003e0: d2ce a13d f93b 043f 65bf 693d d9e8 c23c
000003f0: e28b b2bc 2f83 513f 8bd9 023e aabf d13d
-0.070579246 0.13912266 0.12960815 0.039584965 0.26463115 1.0109808 -0.030060092 0.09104828
-0.012499417 0.17146285 0.057608314 -0.09709405 0.32003224 0.32553104 -0.022153214 0.16085243
0.38007492 0.116511285 0.02702046 0.36021024 0.012371243 0.1493044 0.06815698 -0.092865385
-0.042371117 -0.004951218 0.1163242 0.75866514 -0.028179742 0.0285364 0.142384 0.0487016
0.25443357 0.05159461 -0.6029777 0.09225142 -0.07668257 0.1196773 -0.042443417 0.057810888
0.5202919 0.22304127 0.050433792 0.056695525 0.063846245 0.09235835 -0.03534912 -0.03604453
0.049940895 0.020958653 0.010228272 -0.035341088 0.16536106 0.083844915 0.10984146 0.07371235
-0.017441977 0.35359794 -0.053531088 0.1175966 -0.08307374 0.90958196 0.16418813 0.012611189
0.14871368 -0.009208467 -0.020056464 0.05658334 0.25371274 0.8764931 -0.051190384 -0.05093328
0.002246632 -0.03373692 0.098376304 0.054366462 0.4418577 0.24333729 0.0729317 0.046416696
0.27932864 0.1383926 0.12406061 0.4388623 -0.030540269 -0.07027227 -0.04573297 0.03346796
-0.084547855 -0.04327524 0.14420886 0.8079872 0.06550997 0.09098751 0.2449521 0.123556525
0.31640884 0.14068232 -0.5331157 0.2073349 0.091006845 -0.060385842 0.12807164 -0.07004885
0.50536007 0.1291569 0.035274636 -0.074986316 0.14509296 0.12417491 0.10595547 0.017290538
0.08853106 -0.0041842177 0.04870511 -0.08990883 0.057769466 0.118823044 -0.009911703 0.11834286
-0.023263756 0.38809225 0.028413668 0.017124845 -0.069077335 0.8316095 -0.056658313 0.08103258
-0.027864521 -0.06908264 0.05479224 0.035764206 0.20293337 0.95572567 0.09209355 0.15779917
0.09336593 0.11444503 -0.09537132 0.117605865 0.48837003 0.389504 -0.0006430923 0.009412277
0.25411704 -0.07734522 0.14992088 0.4241023 0.11847549 0.11560265 0.12683803 0.045706302
0.044161275 0.20707995 0.031199472 0.6561706 0.06685735 0.0797331 0.10126264 -0.022928627
0.25477263 0.030681679 -0.54067194 0.041527692 -0.10927841 0.14252779 -0.06684943 -0.0525824
0.47505742 0.19586144 -0.02353657 0.019838447 0.025880627 -0.08340063 -0.0583251 -0.028499827
-0.0037974587 0.10137913 0.029715583 0.037256062 -0.023251891 0.006713395 -0.07256922 0.0105717005
-0.058397796 0.5775753 0.001632461 0.10929337 -0.01414747 0.7380079 -0.023363207 0.15024425
-0.004867307 -0.0148194255 0.08872419 0.08387569 0.175964 0.9538945 0.029767947 0.13887173
-0.05537737 0.15254372 0.13818811 0.034705188 0.48341858 0.35945156 0.116918534 0.13271597
0.28681526 -0.03553979 -0.015188964 0.41811177 0.07706275 0.054596342 0.076582335 -0.10553029
0.1335266 0.19748794 0.13018371 0.6161552 0.14975747 0.014507322 0.19330335 0.10424906
0.37472105 -0.04644001 -0.5153587 0.24924456 -0.0017166436 -0.031206505 0.13394272 0.12318824
0.52540374 0.09931632 0.09716272 0.038009536 0.17282704 -0.07214317 -0.025491161 0.008925623
-0.0008661997 0.13006034 0.040879797 0.10243777 0.06397081 0.115963034 0.01803113 0.073166944
0.07900776 0.5165401 0.057067294 0.023792671 -0.021795217 0.81840795 0.12778299 0.10241635

mlp.2.bias f4 [64]
00000000: 9be5 67bd 3fc3 1c3d cfee 133e 2c55 12bd
00000010: 371f a63d 924b 833d d320 82bd aa0d 0a3d
00000020: 0743 cbbd 854e 713d 0a36 c9bd 223b a03d
00000030: 748e b0bd f314 c0bc c4a8 e2bb 1676 f93d
00000040: b616 00be 6102 823d eb4c 9a3d 8081 b4bd
00000050: 1907 44bd 46b8 eabd b831 f6bd 30a5 de3d
00000060: 606e 503c 94ba fd3b 0571 9bbd f35f 813d
00000070: d248 353e edde 913d 947b febc 3671 f9bb
00000080: 9a45 023e d358 c03d 2bad 2dbb 89ab 3c3c
00000090: f649 383e cc91 8bbd 74f5 2e3d 9469 c9bd
000000a0: 3ad7 47bc 8fe1 123e eb0e 3b3d e49a 2f3e
000000b0: 6d90 94bc 981a e4bd 0cb2 ae3d 3075 823d
000000c0: 1091 01bd dc4f 4abc cfb0 77bd 555a 14bd
000000d0: c34a e5bb eacc 35bd 0c86 163e 397e 293e
000000e0: 1ea3 15bd 00c4 653e c506 00be 4705 95bd
000000f0: 7a4b 64bd 3877 9cbd 9d4f 073e 52e2 213e
-0.056615453 0.03827214 0.14446567 -0.035725757 0.081114225 0.06410898 -0.06353917 0.033704437
-0.09924894 0.058912773 -0.0982476 0.07823779 -0.08620921 -0.02344749 -0.006917091 0.12180726
-0.12508664 0.0634811 0.07534202 -0.08813763 -0.04785833 -0.114609286 -0.12021202 0.10871351
0.012721628 0.007743189 -0.07589916 0.06317129 0.1770356 0.07122598 -0.031064786 -0.0076123727
0.12721863 0.09391942 -0.0026500921 0.011515507 0.17996964 -0.06814918 0.04271455 -0.098345906
-0.01219731 0.14343856 0.045668524 0.1714893 -0.018135274 -0.11137885 0.085300535 0.06370008
-0.031632483 -0.0123481415 -0.060471352 -0.03621896 -0.0069974377 -0.044384874 0.14699572 0.16552056
-0.036532514 0.2243805 -0.12502582 -0.07276397 -0.055736043 -0.07639927 0.13213964 0.1580899

mlp.4.weight f4 [1, 64]
00000000: 3bea 483e fa69 7b3e 06ec 453e a27b 473e
00000010: 15f1 1e3f 2907 853e 3aac 82bd 9f5c 823e
00000020: 50d7 adbd 27b3 e5bd c248 b43a 3cc3 733e
00000030: ae83 84bd a6ec 693e 67bb a3bd c365 583e
00000040: 2084 41bf fa35 753e 5e1a 373e 76f5 8dbd
00000050: 0b9d 3b3e df60 5cba 6295 c3bd 52f2 5a3e
00000060: 8f4e 623e e133 5f3e 7c0b 96bd 0322 653e
00000070: 7e83 5e3e a2db 493e 1ce3 29bd e8af 263e
00000080: 7306 433e 0d8a 133e a7f0 fc3b 0446 d1bd
00000090: e6db 663e 8fa2 4f3c 4828 d1bc dc34 1239
000000a0: 049d 823e 5112 503e 36d5 533e 93f9 423e
000000b0: 5be8 5c3e b1ad dabc 312b 603e 2a0d a0bc
000000c0: f6ad 4f3e 9865 dabd b2a5 9dbd 87a3 283e
000000d0: 8a38 443e 1adb 713e f7f3 223e ec1d 413e
000000e0: 0c17 e8bc cf8e 2dbf 8459 84be 5325 efbd
000000f0: e8d3 843e 0acd e73d fe20 873e 227d 7f3e
0.19620602 0.24552146 0.19328317 0.19480756 0.6208661 0.25982025 -0.06380506 0.2546129
-0.08488333 -0.11215811 0.0013754594 0.23804945 -0.064704284 0.2284418 -0.079947285 0.21132569
-0.7559223 0.23946372 0.17881152 -0.069315836 0.18321626 -0.0008406769 -0.09549977 0.213815
0.2210028 0.21797134 -0.07326409 0.22376256 0.21729848 0.1971269 -0.041476354 0.1627804
0.19045429 0.14408131 0.0077191177 -0.102184325 0.22544822 0.012673034 -0.025531903 0.00013943337
0.25510418 0.20319487 0.20686802 0.19040518 0.21573012 -0.02669415 0.21891476 -0.019537527
0.20281205 -0.10663909 -0.076976195 0.1646863 0.19162193 0.23618737 0.15913378 0.1885907
-0.028331302 -0.67796034 -0.25849545 -0.11677041 0.25942922 0.11318405 0.2639236 0.24950078
