forecasting/midroll/dnn_model/model_2_ofwc2021.ckpt (torch, 42527 bytes, 5 tensors)

mlp.0.weight f4 [64, 90]
0	0xbba1b5ab	-0.0049349866
1	0xbd221cf9	-0.03957841
2	0xbd8e7282	-0.069554344
3	0xbcd5e33a	-0.026109327
4	0xbd3addfa	-0.04562185
5	0xbd63b065	-0.055588145
6	0x3d808d19	0.06276912
7	0x3df08b28	0.11745292
8	0x3d68c02b	0.05682389
9	0xbcac0c4b	-0.021001955
10	0xbd0cb917	-0.034356203
11	0x3c9fceb7	0.019507749
12	0xbd4c8bf3	-0.049938153
13	0x3e086d41	0.13322927
14	0x3df21a11	0.11821378
15	0x3dc290e5	0.09500293
16	0x3cf64058	0.030059978
17	0x3d864233	0.06555595
18	0xbde33247	-0.11093574
19	0x3dbc3810	0.091903806
20	0xbd870ec2	-0.06594612
21	0x3c8aefd9	0.016960071
22	0x3c20ea89	0.009821543
23	0x3d84965d	0.06473992
24	0x3daa7c91	0.083245404
25	0xbdb33f92	-0.087523594
26	0xbd827d64	-0.063715726
27	0xbccd68b6	-0.025074344
28	0x3cda5878	0.026653513
29	0x3d77dbb1	0.06051225
30	0x3d0199ed	0.031640936
31	0xbe1574fe	-0.1459541
32	0xbd707e74	-0.058714345
33	0x3cc3edf3	0.023917174
34	0xbcb4f5b7	-0.022089822
35	0xbcbf4443	-0.02334798
36	0xbcf9c054	-0.030487217
37	0x3d3fb062	0.04679907
38	0xbd3e975c	-0.046531066
39	0x3d9537ca	0.072860315
40	0xbbd237f6	-0.0064153625
41	0x3dbea12d	0.093080856
42	0x3da86e75	0.08224193
43	0xbdcbb903	-0.099473976
44	0x3d97ee08	0.07418448
45	0x3e2ec2cd	0.17066498
46	0x3c82515f	0.015907941
47	0xbdff3e52	-0.124630585
48	0xbdefe9a5	-0.11714486
49	0x3d3d990f	0.046288546
50	0xbd0b1ea1	-0.033964757
51	0x3d66f288	0.05638364
52	0xbdad0a6a	-0.08449252
53	0x3ddaa9a2	0.10676886
54	0x3e122214	0.14270812
55	0x3caab358	0.02083747
56	0x3db45b43	0.08806469
57	0x3daa8de9	0.083278485
58	0xbe1d8014	-0.15380889
59	0xbdcd3cc7	-0.10021358
60	0xbd99adfc	-0.07503888
61	0x3db940e1	0.09045578
62	0xbd47628f	-0.048677977
63	0xbe90811e	-0.2822351
64	0x3d2d601b	0.04232798
65	0x3e7923eb	0.24330108
66	0xbcf329f7	-0.029683096
67	0xbbc893a0	-0.006121114
68	0x3d0483ca	0.032352246
69	0x3d848a54	0.064716965
70	0x3dc575e0	0.096416235
71	0x3da8d6da	0.08244105
72	0xbddcdccd	-0.10784302
73	0xbd7e1007	-0.062027004
74	0x3c2ee96c	0.010675769
75	0xbcc2be10	-0.02377227
76	0x3ae5edfd	0.001754224
77	0xbd37d386	-0.04487946
78	0xbdf6df7c	-0.12054345
79	0x3ce3cb3b	0.027806869
80	0xbdcd10b4	-0.100129515
81	0xbe0bf19e	-0.13666388
82	0xbe21d030	-0.15802073
83	0xbb9364ff	-0.0044981237
84	0x3c06c469	0.008225539
85	0x3d4771c8	0.048692495
86	0xbca6ccb6	-0.020361286
87	0x3dac474a	0.08412035
88	0xbda1e4db	-0.07904979
89	0x3ab858c2	0.0014064538
90	0xbd4521cb	-0.04812793
91	0x3b3a8aea	0.0028464147
92	0x3c913b16	0.01772837
93	0xbdbffe5e	-0.093746886
94	0xbc632a47	-0.01386506
95	0xbd5ebbac	-0.054378197
96	0x3d403664	0.04692687
97	0xbc920eed	-0.017829383
98	0x3df7ab67	0.12093239
99	0x3d2b119a	0.041764833
100	0x3d5293c8	0.051410466
101	0x3b7dd631	0.0038732404
102	0xbde376f9	-0.111066766
103	0x3ce97d75	0.028502205
104	0xbd117c42	-0.035518892
105	0x3ccf7c76	0.025327902
106	0x3b292888	0.0025811512
107	0xbe2ca63f	-0.16860293
108	0xbd56dfbe	-0.05245947
109	0xbdab01f0	-0.08349979
110	0xbda1e65a	-0.07905264
111	0x3d642e30	0.05570811
112	0xbc41ee19	-0.011836552
113	0xbc9e487e	-0.019321676
114	0x3d464575	0.048406083
115	0xbdc7a74c	-0.09748706
116	0xbd1c7b62	-0.038203605
117	0x3dc55def	0.09637057
118	0x3dc7015d	0.09717057
119	0xbc8966a5	-0.016772578
120	0xbce1aa3e	-0.027546998
121	0x3db42c15	0.087974705
122	0xbb165617	-0.0022939497
123	0xbd801058	-0.06253117
124	0xbda85303	-0.08218958
125	0xbd229a62	-0.039698012
126	0xbd0cafb7	-0.034347262
127	0xbd732404	-0.05936052
128	0xbdcaf9cc	-0.09910926
129	0x3d2d03fd	0.04224013
130	0x3d33a466	0.043857954
131	0x3cc240c3	0.023712521
132	0x3e59fd81	0.2128811
133	0xbd1d77e9	-0.038444433
134	0x3de6b83d	0.112656094
135	0x3e57c4c6	0.21071157
136	0xbd28f3f5	-0.04124828
137	0xbe0a09af	-0.13480256
138	0xbd0d4f89	-0.03449968
139	0x3d06146f	0.03273433
140	0x3dae698b	0.085162245
141	0x3cbead5c	0.023276024
142	0xbd5c4500	-0.05377674
143	0x3d5d38f7	0.054009404
144	0xbd4def21	-0.05027688
145	0xbe4df090	-0.20111299
146	0xbdddece6	-0.108362004
147	0xbcecb444	-0.028894551
148	0x3e9de7df	0.30840966
149	0xbdc5b7fc	-0.09654233
150	0x3cc15939	0.023602115
151	0x3d952bd1	0.07283748
152	0xbdb7a515	-0.08967034
153	0xbb24fae9	-0.0025173968
154	0xbc3127ba	-0.010812694
155	0xbdc9cd83	-0.098536514
156	0x3db61da4	0.08892372
157	0x3c9b1292	0.018929753
158	0x3db7d405	0.089759864
159	0xbb4f4896	-0.0031628958
160	0xbe05580d	-0.1302187
161	0xbd2e13ca	-0.04249934
162	0xbd39bdea	-0.04534713
163	0x3d6ea064	0.05825843
164	0xbd825498	-0.06363791
165	0xbd170d61	-0.036877993
166	0x3de02389	0.10944278
167	0xbe0b6f14	-0.13616592
168	0x3bafffc3	0.0053710653
169	0x3dfc5a1f	0.12321877
170	0xbd9a1fc6	-0.075255916
171	0xbdbddb1e	-0.09270309
172	0x3b059cd4	0.0020387666
173	0xbda79c5a	-0.081841186
174	0x3dbe7bcd	0.09300957
175	0xbca4c511	-0.0201135
176	0xbcac3a1c	-0.021023802
177	0x3b89425e	0.00418882
178	0x3ce9bd93	0.028532779
179	0x3db6e811	0.08930982
180	0xbd0de61d	-0.03464328
181	0x3d015100	0.03157139
182	0x3cde3383	0.027124172
183	0xbcb92a19	-0.022603082
184	0x3d144444	0.036197916
185	0xbdeb0651	-0.11475814
186	0x3e2465a3	0.16054396
187	0xbd1149cd	-0.035470773
188	0x3e03848d	0.12843533
189	0x3cbf493a	0.023350347
190	0x3dae196d	0.08500943
191	0x3dc12366	0.0943058
192	0x3c9bf61f	0.019038258
193	0x3dc5dbfa	0.09661098
194	0x3d975158	0.07388562
195	0x3cc01db6	0.023451667
196	0xbc4b8595	-0.012421985
197	0x3b38067a	0.0028080032
198	0x3d63d812	0.055625983
199	0xbd430467	-0.04761162
200	0x3c82fd9b	0.01599007
201	0xbdb6f7d9	-0.08933992
202	0xbd1069d7	-0.035257187
203	0x3cfd83f0	0.030946702
204	0x3c73d384	0.014881972
205	0x3d7b9a39	0.061426375
206	0xbdd2a836	-0.1028599
207	0x3bc33d77	0.005958255
208	0xbd49d1e7	-0.049272444
209	0xbbd8c450	-0.006615199
210	0x3cd98957	0.026554747
211	0x3db54504	0.08851054
212	0xbdb48d00	-0.08815956
213	0x3dddecb2	0.10836162
214	0x3d2bcafb	0.041941624
215	0x39a51165	0.00031484212
216	0x3e2dbb2b	0.1696593
217	0x3d829c9f	0.06377529
218	0x3d850170	0.06494415
219	0xbc0b1f49	-0.008491346
220	0x3e6abcdf	0.22923611
221	0x3da60b2c	0.081075996
222	0xbde41db8	-0.11138481
223	0x3e0d14d8	0.13777483
224	0xbda219b8	-0.07915062
225	0xbde1c2e0	-0.110234976
226	0x3dc79de0	0.09746909
227	0x3dfec22a	0.124393776
228	0x3df77e78	0.12084669
229	0x3d5af0de	0.053452365
230	0x3df723b8	0.1206736
231	0x3e124bdf	0.14286755
232	0x3c2ff126	0.010738647
233	0x3c7a81dc	0.01528975
234	0x3cc15a70	0.023602694
235	0xbdfa74f9	-0.12229342
236	0xbd80b608	-0.0628472
237	0xbdb0adbf	-0.086268894
238	0xbc4b8f86	-0.012424355
239	0x3e0f0073	0.13965015
240	0xbd538221	-0.051637772
241	0x3db5f8bc	0.08885333
242	0x3d9700d7	0.07373207
243	0xbe18abbc	-0.14909261
244	0xbe0d4f52	-0.1379979
245	0x3e23d1d5	0.15998013
246	0x3dcf7952	0.10130562
247	0xbdbb1ff3	-0.09136953
248	0xbdae94a8	-0.08524448
249	0xbde63910	-0.112413526
250	0xbde46946	-0.11152892
251	0xbc622ad9	-0.013804161
252	0x3bda670c	0.006665116
253	0xbddb873f	-0.107191555
254	0x3bf546ba	0.007485238
255	0xbc69d768	-0.014272548

mlp.0.bias f4 [64]
0	0x3d9936de	0.07481168
1	0xbd934b5d	-0.07192109
2	0x3c0ae865	0.008478259
3	0xbbe1f586	-0.0068957238
4	0xbdc07803	-0.093978904
5	0xbd753b63	-0.05987109
6	0xbd0073d6	-0.03136047
7	0xbccff9ae	-0.025387611
8	0xbcab00e2	-0.020874444
9	0xbd3232f6	-0.04350563
10	0xbd77ffc3	-0.060546648
11	0x3d7d9151	0.061906163
12	0xbc37985b	-0.011205758
13	0xbc26c7eb	-0.0101795
14	0xbd52ef42	-0.051497705
15	0x3cc6a346	0.024247777
16	0x3d8c876c	0.06861767
17	0xbbed3f31	-0.007240199
18	0xbc9d278c	-0.019183896
19	0x36eb0c50	7.004979e-06
20	0x3dcb03a8	0.09912807
21	0x3c710a38	0.014711909
22	0xbd915613	-0.070964955
23	0x3bf1da32	0.0073807472
24	0xbd815038	-0.06314129
25	0x3d1b5f0c	0.03793244
26	0x3d9cb62b	0.07651933
27	0x3d9ddbce	0.0770794
28	0x3d62a986	0.05533745
29	0x3c1280ea	0.008941868
30	0x3d12919d	0.0357834
31	0x3d05a2f7	0.03262612
32	0xbd4f6111	-0.05062968
33	0x3dbf2053	0.09332337
34	0x3db8dfe5	0.090270795
35	0xbb8bb966	-0.0042640446
36	0xbd1039fc	-0.03521155
37	0x3cdb8b32	0.026799772
38	0x3d132ab6	0.035929404
39	0xbdf828be	-0.12117146
40	0x3daf22fb	0.08551594
41	0xbda287f5	-0.07936088
42	0x3d432c64	0.047649756
43	0xbdc1e169	-0.09466822
44	0xbce739e2	-0.028225843
45	0x3cd71822	0.026256625
46	0xbdb56242	-0.08856632
47	0xbc56b80f	-0.013105406
48	0xbcee79a9	-0.029110746
49	0x3d5e8b7c	0.05433224
50	0x3d4acdd8	0.049512714
51	0xbd74030d	-0.059573222
52	0x3d50ff55	0.051024754
53	0xbcc7efc1	-0.024406316
54	0x3d19bce6	0.037533663
55	0x3c98188c	0.018566392
56	0x3d3d1c8c	0.046169803
57	0x3d1e49bc	0.038644537
58	0x3c845e27	0.016158177
59	0x3d92a772	0.07160844
60	0xbd66421b	-0.056215387
61	0x3bdb3d98	0.006690692
62	0xbca08982	-0.019596819
63	0x3c9305d5	0.017947117

mlp.2.weight f4 [64, 64]
0	0x3dc85791	0.09782327
1	0xbd6fb9ae	-0.058526687
2	0xbd92189c	-0.071336
3	0x3d9d057f	0.07667064
4	0xbded9a19	-0.116016574
5	0x3dd09912	0.10185446
6	0x3d756fc6	0.05992105
7	0xbd900777	-0.07032674
8	0x3e229724	0.15877968
9	0xbdfa0e1b	-0.12209722
10	0xbdd25dca	-0.10271795
11	0x3d217cc9	0.039425645
12	0x3cbc5977	0.022991879
13	0xbe00b4c3	-0.12568955
14	0xbc53b606	-0.012921816
15	0xbc94e6a9	-0.018176394
16	0xbde93a0a	-0.11388023
17	0xbb401695	-0.0029310335
18	0x3d7ddbed	0.061977316
19	0x3ca80716	0.020511191
20	0xbd72e239	-0.059297774
21	0xbcb730f3	-0.022362208
22	0xbcc2c47e	-0.023775335
23	0xbd8d0a2a	-0.06886704
24	0xbdd16256	-0.10223834
25	0x3dc5a0fd	0.09649847
26	0x3da92b42	0.08260204
27	0x3d0aff47	0.033934858
28	0x3d9c1007	0.076202445
29	0xbd834d3f	-0.06411218
30	0xbd356db8	-0.04429409
31	0x3dbbeb02	0.091756836
32	0x3d7578c9	0.059929643
33	0xbc37e8d9	-0.011224949
34	0x3dc323e6	0.095283315
35	0x3d121475	0.03566404
36	0xbdd0d6be	-0.10197209
37	0x3de04017	0.10949724
38	0xbcf21058	-0.029548809
39	0xbe1b1031	-0.15142895
40	0xbc3056d3	-0.010762888
41	0xbda53de2	-0.08068444
42	0xbdc3488d	-0.09535322
43	0xbd7e62f9	-0.062106106
44	0xbd3cbc17	-0.046077814
45	0xbc99345b	-0.018701723
46	0x3dd7c162	0.10534932
47	0x3d11f3d8	0.03563294
48	0x3ce3be43	0.027800685
49	0x3dabc7c7	0.08387714
50	0x3e20c8b1	0.15701558
51	0x3d8dd88a	0.06926067
52	0xbc012b96	-0.007883927
53	0x3d994fdf	0.07485937
54	0x3c6b1114	0.014347333
55	0x3d8ed10d	0.06973467
56	0xbda4e914	-0.080522686
57	0xbcde568e	-0.027140882
58	0xbdab42ea	-0.08362372
59	0xbd0772c3	-0.03306843
60	0xbd9b60a7	-0.07586794
61	0x3d80b019	0.06283588
62	0xbd0bcf71	-0.03413338
63	0xbc960e12	-0.018317256
64	0x3cd15da1	0.025557341
65	0x3c828ef7	0.015937312
66	0x3d070b00	0.032969475
67	0x3d9b4259	0.07581014
68	0x3daeae10	0.085292935
69	0xbd4215ad	-0.047383953
70	0xbd1651ac	-0.036698982
71	0xbd45dde9	-0.048307333
72	0x3d03b94a	0.032159127
73	0x3d9fdf85	0.07806305
74	0x3d1f48f5	0.038887937
75	0xbdb404e0	-0.08789992
76	0xbdf026e5	-0.117261685
77	0x3db9ea09	0.09077842
78	0x3dc1acb7	0.09456771
79	0xbd60eb1f	-0.05491173
80	0xbdaeda16	-0.0853769
81	0x3de551c0	0.11197233
82	0x3df122ee	0.117742404
83	0x3c940e88	0.018073335
84	0x3cdc8ce3	0.026922649
85	0x3d9e7e4a	0.077389315
86	0x3dc70395	0.0971748
87	0xbda17d35	-0.078852095
88	0xbd618b9d	-0.055064786
89	0x3d84be59	0.064816184
90	0x3d75711a	0.059922315
91	0xbb79ba89	-0.0038105568
92	0xbda226ab	-0.079175316
93	0x3d950fbe	0.07278393
94	0xbc784094	-0.015152115
95	0xbd5d983a	-0.054100253
96	0x3b5dbb7f	0.003383368
97	0x3db28cfa	0.087182954
98	0x3d983773	0.07432451
99	0xbddfa822	-0.10920741
100	0x3da7c862	0.08192517
101	0xbc0a1819	-0.008428597
102	0xbbbd5e33	-0.0057790517
103	0xbde50dfb	-0.11184307
104	0xbba50d61	-0.0050369953
105	0xbdb9fd96	-0.09081571
106	0xbdbf90e9	-0.09353811
107	0xbd0c0df5	-0.034192998
108	0x3e00c540	0.12575245
109	0x3ccd1778	0.025035605
110	0xbd973090	-0.073823094
111	0xbc77e11d	-0.015129355
112	0x3cb48006	0.022033703
113	0x3e0da5f3	0.13832836
114	0x3e0a4834	0.13504106
115	0xbd4c8dc1	-0.049939875
116	0x3c1a3eb1	0.009414361
117	0xbdf8ad59	-0.121424384
118	0x3daa1530	0.083048224
119	0x3cb5f8eb	0.02221342
120	0x3e0440da	0.12915364
121	0x3cc9b3c1	0.024621846
122	0xbe22c5c0	-0.15895748
123	0xbd558238	-0.05212614
124	0x3d8fa53c	0.07013938
125	0x3d2a511e	0.041581266
126	0x3df776ee	0.12083231
127	0x3d3aab98	0.0455738
128	0xbe1ea69e	-0.15493247
129	0xbb2c3334	-0.0026275637
130	0xbca9b507	-0.020716203
131	0x3d9d7093	0.076874875
132	0xbbe0cf5e	-0.0068606576
133	0xbe3d367f	-0.1847782
134	0xbe0361dc	-0.12830299
135	0x3d5099c7	0.050927904
136	0x3df197f7	0.11796563
137	0x3cf7ca89	0.030247943
138	0x3d23f520	0.04002869
139	0xbda07c37	-0.07836192
140	0xbda78796	-0.08180158
141	0x3db42e4f	0.08797895
142	0xbda2b43d	-0.07944534
143	0xbdd6cfe3	-0.1048887
144	0x3d4332fd	0.047656048
145	0x3e055fa8	0.13024771
146	0xbdc9ccb9	-0.09853501
147	0x3dc9192d	0.09819255
148	0xbe47dc71	-0.19517685
149	0x3d9cfcdf	0.07665419
150	0xbde7888e	-0.113053426
151	0x3d836c9b	0.06417199
152	0xbd959d49	-0.073053904
153	0x3d351b36	0.044215403
154	0x3d895499	0.06705589
155	0xbe0cb59f	-0.13741158
156	0x3d48dfd6	0.04904159
157	0x3d442215	0.047884066
158	0x3dbbb3c7	0.09165149
159	0x3d9c6a34	0.07637444
160	0x3dcf2b45	0.10115675
161	0xbdac1f9b	-0.08404466
162	0x3dbbec4d	0.0917593
163	0xbded80f6	-0.11596863
164	0xbd8b64dc	-0.06806347
165	0x3cd95793	0.026531016
166	0x3bd1d4cd	0.0064035417
167	0xbc92e85d	-0.017933065
168	0xbd6d6fa1	-0.057967786
169	0x3cc4618f	0.0239723
170	0x3d92826f	0.071537845
171	0xbd37faa3	-0.04491676
172	0xbdde3217	-0.10849398
173	0xbd429851	-0.04750854
174	0xbdd8b446	-0.105812594
175	0x3bc8f5e2	0.006132827
176	0xbd9b9780	-0.07597256
177	0xbdb6038a	-0.08887394
178	0xbd94037f	-0.07227229
179	0xbcfa5ecb	-0.030562779
180	0xbdf1e0d7	-0.11810463
181	0xbe19bd46	-0.15013608
182	0x3d39ccd7	0.045361366
183	0xbe1aed8e	-0.15129682
184	0xbcf86176	-0.03031991
185	0x3dd30b30	0.10304868
186	0x3bee8770	0.007279329
187	0x3c561dca	0.013068626
188	0xbcc17eb6	-0.02361999
189	0xbe18da68	-0.14927065
190	0x3cb64609	0.022250192
191	0x3c84aa7f	0.01619458
192	0xbe859f64	-0.26098168
193	0xbc821116	-0.015877288
194	0x3dfa9406	0.122352645
195	0xbe06691d	-0.13126035
196	0xbd2da785	-0.042396087
197	0xbe1c1edc	-0.15246147
198	0xbda32fef	-0.07968127
199	0x3d5b2744	0.053504243
200	0x3d175644	0.036947504
201	0x3c2ae2e4	0.0104300715
202	0x3dad52b2	0.084630385
203	0xbddf93c7	-0.10916858
204	0xbdeca208	-0.115543425
205	0x3bc81e5c	0.0061071347
206	0x3e271688	0.16317189
207	0xbd63fa69	-0.05565873
208	0xbdedf057	-0.11618107
209	0xbd0525c5	-0.032506723
210	0x3c9ba7eb	0.019000968
211	0x3e001522	0.12508062
212	0x3cccb9e8	0.02499099
213	0xbd90c526	-0.07068853
214	0xbc866bf2	-0.016408894
215	0x3da0f053	0.07858338
216	0xbe1c6716	-0.15273699
217	0x3d36ca5e	0.044626586
218	0xbe4c5727	-0.19955121
219	0xbd62c3ef	-0.055362638
220	0xbe11712e	-0.14203331
221	0x3d3176c7	0.043326166
222	0xbe09f2a6	-0.1347147
223	0xbdf70617	-0.120617084
224	0x3dca7520	0.09885621
225	0x3d514b90	0.051097453
226	0x3c643f79	0.013931149
227	0xbda62ba0	-0.081137896
228	0x3d4b38e8	0.049614817
229	0x3cd147ba	0.025546897
230	0x3e127dc9	0.14305796
231	0x3ddd7a24	0.10814312
232	0x3c996c91	0.018728526
233	0x3db105e9	0.086437054
234	0xbd48be16	-0.049009405
235	0xbdfad48c	-0.12247571
236	0x3d13db66	0.036097907
237	0x3dcc5e60	0.09978938
238	0x3dc0d3b4	0.09415379
239	0x3b9fa723	0.004872219
240	0xbdbf7cb8	-0.0934996
241	0x3e0f4acf	0.13993381
242	0xbe5e80b2	-0.21728781
243	0xbd58998d	-0.052880812
244	0x3db5d6aa	0.088788345
245	0xbe33ac54	-0.17546207
246	0x3e04b393	0.12959127
247	0xbc0a3f28	-0.008437909
248	0x3dfff379	0.124976106
249	0x3d545add	0.051844466
250	0xbe96bbbf	-0.29440114
251	0x3d97eebd	0.074185826
252	0x3e71f710	0.23629403
253	0xbe066bfd	-0.13127132
254	0x3d22eb48	0.039775163
255	0x3dd92e99	0.10604591

mlp.2.bias f4 [64]
0	0x3c5c7a5a	0.013456905
1	0x3d73c5ec	0.059514925
2	0xbe000279	-0.12500943
3	0xbd7702c6	-0.06030538
4	0x3dfaeab4	0.12251797
5	0x3d04f9cd	0.03246479
6	0x3df757dd	0.120773055
7	0x3dbcb83c	0.092148274
8	0x3cf0231c	0.029313616
9	0xbd41cd42	-0.04731489
10	0x3e2820fd	0.16418834
11	0x3d9d005d	0.07666085
12	0x3d3cbc82	0.046078213
13	0xbe06aba2	-0.1315141
14	0x3d0cc308	0.034365684
15	0xbdcf34d2	-0.101174966
16	0xbdca03b9	-0.09863991
17	0x3c8df739	0.017329799
18	0x3d4e9219	0.0504323
19	0xbd84f2f6	-0.064916536
20	0xbdc8c490	-0.09803116
21	0xbc841316	-0.016122382
22	0xbd71d530	-0.059041202
23	0x3d45bbe7	0.0482749
24	0x3e00806a	0.12548986
25	0xbd5151ef	-0.05110353
26	0xbd7aa502	-0.06119252
27	0xbc2f6868	-0.010706045
28	0x3cb4569e	0.022013959
29	0xbdf30ce5	-0.11867694
30	0x3dfce2e1	0.12347961
31	0x3d487236	0.048937045
32	0x3cd0b70d	0.02547791
33	0xbdae479a	-0.08509751
34	0x3de80a41	0.11330081
35	0x3bde3d6b	0.006782224
36	0x3e2a0c7f	0.1660633
37	0x3c9c507d	0.019081349
38	0x3cb3dfe4	0.021957345
39	0xbcda7693	-0.026667869
40	0xbdb60131	-0.08886946
41	0x3e220935	0.15823825
42	0xbd78b791	-0.060721938
43	0x3e10de93	0.14147405
44	0xbdde07b5	-0.10841314
45	0x3e018c21	0.12651111
46	0xbd66bf96	-0.056335054
47	0xbdbabfe9	-0.09118635
48	0xbdd5ac18	-0.10433215
49	0xbd8b58ee	-0.06804071
50	0xbe0984e5	-0.13429601
51	0xbd7a3c4e	-0.061092667
52	0xbdd63be2	-0.104606405
53	0xbda609de	-0.08107351
54	0x3e046cb1	0.12932087
55	0x3d708a53	0.058725666
56	0xbc49b8bf	-0.012312113
57	0x3bf936b3	0.0076053976
58	0x3ddaf688	0.10691553
59	0x3e0f7408	0.14009106
60	0x3da2ab08	0.07942778
61	0xbe112946	-0.14175901
62	0xbd90d553	-0.07071938
63	0xbdbec6bb	-0.093152486

mlp.4.weight f4 [1, 64]
0	0x3d8fdc69	0.07024462
1	0x3cb78683	0.022403007
2	0xbe2ef5d0	-0.17085958
3	0x3cd1f60f	0.025630025
4	0x3d543f06	0.051817916
5	0xbbd26d79	-0.0064217416
6	0x3d9120aa	0.07086308
7	0x3c169210	0.009190097
8	0x3ca0b926	0.019619536
9	0x3dab561a	0.08366032
10	0x3c71c081	0.014755369
11	0x3dacdfaf	0.08441102
12	0x3bf255a3	0.0073954626
13	0xbd6c7943	-0.05773283
14	0x3c93ca3b	0.018040767
15	0x3bbda3e0	0.0057873577
16	0xbd7472b0	-0.059679687
17	0xbd157d72	-0.036496587
18	0x3cb75e24	0.022383757
19	0xbd9bc1e2	-0.076053396
20	0xbb254b97	-0.0025222057
21	0x3cb61c7e	0.022230383
22	0xbd554662	-0.052069075
23	0x3bbd9185	0.0057851695
24	0x3d92e235	0.07172052
25	0x3e1f4123	0.15552191
26	0x3ce531da	0.027977873
27	0x3d61a08e	0.055084758
28	0x3d917043	0.0710149
29	0x398f36c9	0.00027315904
30	0x3c9eac84	0.019369371
31	0x3dc4f21d	0.09616492
32	0xbd845ef9	-0.06463427
33	0xbe1de11b	-0.15417902
34	0x3dce2ee3	0.10067537
35	0xbd936ded	-0.07198701
36	0x3df5878c	0.11988744
37	0x3d02c265	0.03192367
38	0x3b7af0f3	0.003829059
39	0xbde25649	-0.11051614
40	0x3dbc6720	0.09199357
41	0x3d134a9f	0.035959836
42	0xbae70d7b	-0.0017627919
43	0x3da279a0	0.079333544
44	0xbd8a6cd5	-0.06759039
45	0x3d758ac0	0.059946775
46	0x3b666851	0.0035157392
47	0x3dff7886	0.1247416
48	0x3c0648b1	0.008196042
49	0xbc05106b	-0.00812159
50	0xbcee3bea	-0.029081304
51	0xbcfe91d4	-0.031075396
52	0xbd678841	-0.056526426
53	0x3cc99915	0.024609128
54	0x3de4a2a6	0.11163835
55	0x3ddc4343	0.10755017
56	0x3e50ebda	0.2040247
57	0x3da63a96	0.08116643
58	0x3bfa282f	0.007634185
59	0x3df4babc	0.11949679
60	0xbda76322	-0.08173205
61	0xbc639e77	-0.013892761
62	0xbb875775	-0.0041302987
63	0x3d8de028	0.0692752
