forecasting/midroll/dnn_model/model_3_ofwc2021.ckpt (torch, 42527 bytes, 5 tensors)

mlp.0.weight f4 [64, 90]
000000 7d 8b 92 3c 5f 82 83 3d ae 0c 91 bc c5 df 50 bd
       0.017888779 0.06421351 -0.017706241 -0.050994653
000010 71 15 10 be dd 04 81 3d 67 93 68 be 42 80 15 bd
       -0.14070679 0.06299756 -0.2271248 -0.03649927
000020 a6 dd b4 bc 5d 95 6e bd 3e c8 61 be 82 9b 9f 3d
       -0.022078346 -0.058247913 -0.22049043 0.07793333
000030 bb 2c 44 3e d7 8d d6 bd 02 cf 31 bd fa c3 41 be
       0.19157688 -0.104762726 -0.04341031 -0.18922415
000040 a1 c3 d6 bd 9d 42 8d bc 50 7d 01 3d 5a 79 51 3b
       -0.10486532 -0.017243678 0.031613648 0.00319632
000050 73 60 e7 bd 0a 23 34 bd 53 c4 e4 bd 76 85 16 be
       -0.11297693 -0.04397873 -0.111702584 -0.14699349
000060 5f bb d9 be 18 6d 4d be 90 75 d6 3c 27 3f 62 3e
       -0.42525765 -0.20061147 0.026179105 0.22094403
000070 ec 15 6d 3d 6d 8f 9c bc 0d 8e b9 3d 50 35 b4 bd
       0.057882234 -0.01911136 0.09060297 -0.08799231
000080 e1 c1 c2 bc fb 45 1c bd 2d 72 a7 bd 6b ee 6c 3c
       -0.02377409 -0.038152676 -0.08176074 0.01446114
000090 b4 7a 02 3e 66 e5 90 3d d0 d0 5d bd db 9d 88 bd
       0.1274212 0.07075004 -0.054154217 -0.066707335
0000a0 9d 0a 35 be 65 14 d4 bd d1 56 31 bc b0 9c ef bc
       -0.1767983 -0.103554524 -0.010823921 -0.02924952
0000b0 75 fe b4 bd d5 41 d5 bd ea ca 5a 3d 1f 12 b6 3d
       -0.08837596 -0.10412947 0.05341617 0.08890175
0000c0 46 58 45 bd 62 ba bd 3b a8 17 98 3d f5 59 d5 bc
       -0.048179887 0.005790041 0.07426387 -0.026043871
0000d0 64 c4 da 3d 26 a4 81 bd 63 1a e9 bd 0b 41 9f bc
       0.1068199 -0.06330137 -0.11381986 -0.019440195
0000e0 34 07 ae 3d dd ba 59 3d a3 64 60 bc 60 8b 9a 3d
       0.08497468 0.053156722 -0.013695869 0.07546115
0000f0 db 30 f2 bd 4d 17 a5 bc 0f f1 c8 bc 03 80 10 be
       -0.11825725 -0.020152712 -0.024529008 -0.14111333
000100 da 43 bc bb d9 c7 b4 3d 81 36 37 bc 11 be d0 3c
       -0.005745393 0.088271804 -0.011182428 0.025481256
000110 45 8f cc 3d 6b 91 2e bd 32 b7 26 bd 76 fd 4f 3c
       0.09988264 -0.04261915 -0.040702052 0.012694707
000120 13 71 cb bd 34 22 19 3e 7a 95 eb 3a 5c 97 5f 3e
       -0.099336766 0.14954454 0.0017973625 0.21835083
000130 36 7a 02 3e c0 0c b3 bb a4 bf fc 3d 49 c8 a8 3c
       0.12741932 -0.0054641664 0.1234124 0.020603316
000140 4b 49 40 bd 2a 45 13 bd f4 81 e9 3b bb e9 a0 bd
       -0.046944898 -0.035954632 0.0071260873 -0.078570805
000150 0b b2 c3 3d d4 22 1e 3e 47 5c 05 3d 6a 98 0c be
       0.095554434 0.15442973 0.032558706 -0.13730016
000160 46 d4 09 be 19 a0 d5 bc ed 37 a4 3c 88 fe ce bc
       -0.13459882 -0.026077317 0.020046199 -0.025267854
000170 fa bf eb bd ee d6 1a 3d 35 df 23 be ab b8 08 3e
       -0.11511226 0.03780263 -0.16003115 0.13351695
000180 e1 98 91 bc a4 93 9a ba aa c8 cd bd de fe e7 ba
       -0.017773094 -0.0011793268 -0.10048039 -0.0017699858
000190 b0 ac d9 bd 76 5d 15 3e ec c7 4e 3e 88 1f bf 3c
       -0.10628641 0.14586434 0.20193452 0.023330465
0001a0 59 b3 b5 ba 5b 8f 50 bd 5f 5a 13 be 13 ad 07 be
       -0.0013862654 -0.050917964 -0.14389943 -0.13249616
0001b0 66 6c 07 3d 00 3b 39 be 64 81 19 be fe b2 c5 bd
       0.03306236 -0.18088913 -0.14990765 -0.09653281
0001c0 19 38 38 bd a4 83 2d 3b 96 33 2f be 99 30 37 bd
       -0.044975374 0.002647617 -0.17109522 -0.04472408
0001d0 a8 75 98 bb 52 12 ea 3d 66 89 90 bb 55 b8 8e bd
       -0.0046526976 0.114292756 -0.0044109104 -0.06968752
0001e0 26 70 4d 3d 64 fa bf bd db 5c 3e 3c bb e0 10 3e
       0.05015578 -0.0937393 0.011618818 0.14148228
0001f0 be eb e3 bd de b8 7c 3b 96 47 53 3e 3d e1 d9 bd
       -0.11128949 0.0038562338 0.20632777 -0.10638664
000200 cd 7c e3 3d ca 43 20 3c 9d 27 82 bc a5 ac a3 bc
       0.11107788 0.009781787 -0.01588803 -0.019979784
000210 24 57 14 be d5 83 c2 3c f7 0d 99 3c 17 1f 2e be
       -0.14486367 0.023744503 0.018683417 -0.17004047
000220 4f 0c 42 3c 0e ef 13 3e e7 b9 87 3c d5 20 d0 3d
       0.011843755 0.14446661 0.016568137 0.10162512
000230 c1 9d 45 3c 9c 73 15 3d 31 68 b7 3c de 60 ee 3d
       0.012061537 0.036487207 0.02238855 0.1163957
000240 f7 cf 3c be 8d 0e 01 3d f7 91 57 bd de a6 f2 bd
       -0.18438707 0.031508017 -0.052629437 -0.11848234
000250 b6 64 a7 bb 0e 84 e6 bc 7c 45 70 3d 44 31 2b 3e
       -0.005108441 -0.02813914 0.058660015 0.16718012
000260 47 64 37 bd 77 2c 6b bc 18 02 4a bd 90 4e f0 3b
       -0.044773366 -0.014353863 -0.049318403 0.007333584
000270 2f 84 96 3c f5 91 b5 bd 6d 05 a4 3d a4 4c de bd
       0.018373577 -0.0886573 0.080088474 -0.10854462
000280 c3 e2 88 3b d5 c4 1a be 1e 25 5b be a5 6c 2b bd
       0.0041774227 -0.15114148 -0.21400878 -0.04185166
000290 34 e4 33 3e 79 91 b5 3d c2 f5 d8 3c 64 06 4b bd
       0.17567521 0.08865637 0.026484374 -0.04956664
0002a0 81 80 bc 3b 03 d3 19 3e a3 d5 fc 3d ed f2 fa bd
       0.0057526235 0.15021901 0.123454355 -0.12253366
0002b0 92 64 a1 bc 1f d2 f5 bd 00 1a ad bc e9 3c 3c 3d
       -0.019701276 -0.12002968 -0.021130562 0.045956526
0002c0 58 49 c8 3d 9e a2 f9 bd 93 96 8a bc 20 6a 53 3d
       0.09779614 -0.1218922 -0.016917503 0.05161488
0002d0 8b a8 cd bd 98 e8 dd bc 90 b3 a4 bc 25 7d ad bd
       -0.10041913 -0.027088448 -0.020105153 -0.08471135
0002e0 9b 35 15 be f8 ba f4 3b ef b8 fe bd ef 09 6a 3d
       -0.1457123 0.0074685775 -0.12437617 0.05713838
0002f0 c0 60 47 bd a0 45 be bc 0f a6 72 be 4b 95 9e 3d
       -0.048676252 -0.02322656 -0.23696159 0.07743319
000300 50 11 04 3d fe 66 4e bc b2 ba 21 bd de be b5 bd
       0.032243073 -0.012597797 -0.039484687 -0.08874296
000310 7d 19 07 bd fa 3f 7e 3c 17 40 bd bd 40 82 2a be
       -0.032983292 0.015518183 -0.0924074 -0.16651249
000320 7e da e5 bd 1d 7f 01 be 07 2f 7c 3c cf 59 18 3c
       -0.11223315 -0.12646146 0.015392072 0.009298756
000330 b5 0c b3 be 0b a7 ac 3b 63 3a d9 3c ca 29 5d 3e
       -0.34970632 0.0052689365 0.026517099 0.21597973
000340 ae ca 83 3d 87 72 d0 bd e3 1f 4d bd 18 45 3d bd
       0.064351425 -0.10178094 -0.050079238 -0.04620847
000350 dc c0 ff 3d e6 cd 89 3d 6d 6f 43 be 22 fc 8a bc
       0.12487957 0.06728725 -0.19085474 -0.01696593
000360 cd 6a ed 3d d9 4f 82 3c 7e f7 24 bd 6c 3a b7 3c
       0.11592636 0.015907215 -0.04027509 0.022366725
000370 99 b5 26 be 6b fd 25 bd ca 0f 0c bd ae 09 1a be
       -0.16280212 -0.04052488 -0.034194745 -0.15042755
000380 db e9 12 be 94 8a ba bd be 17 03 3e b0 8f 34 3e
       -0.14347021 -0.09108463 0.12802026 0.17632937
000390 1f c7 11 3e d2 7c b0 3d 96 2a 93 3c 3b 04 9a 3d
       0.14236115 0.086175576 0.017964642 0.07520338
0003a0 07 60 8b 3c bd fa eb 3d b8 82 90 bd 76 8d d8 ba
       0.017013563 0.11522434 -0.070561826 -0.0016521651
0003b0 ec 18 54 bd 2a fc 0d bd 0a e9 34 bd fe d6 01 3d
       -0.05178158 -0.03466431 -0.044167556 0.031699173
0003c0 81 2b 6e bd 5d 29 ad 3d 9c 7c a2 3d ba 46 3d be
       -0.058146957 0.08455155 0.079339236 -0.18484011
0003d0 13 fa 87 bc b3 f0 2d 3e cf c2 8c bd 30 25 ec ba
       -0.016598737 0.1698635 -0.06873094 -0.0018016454
0003e0 01 ee b1 bc ef f8 a1 bd 2f b2 a6 3d 94 a1 14 be
       -0.021719934 -0.079088084 0.081394546 -0.14514762
0003f0 90 54 3c be fc d4 61 bb 8a ef 34 3e 21 c3 05 3e
       -0.18391633 -0.0034459224 0.17669502 0.13062717

mlp.0.bias f4 [64]
000000 f6 8c 01 3e cd 2b 4d 3d 2a e5 6a 3d 91 e8 19 3d
       0.12651429 0.0500906 0.057347454 0.03757531
000010 c7 bf 9f 3d 58 67 18 bc cc c9 08 3e cc 6a 57 3d
       0.078002505 -0.009301983 0.1335823 0.052592084
000020 04 a3 20 3e f6 4f 55 3d e6 3d 5c bd 19 02 10 3e
       0.15687186 0.05207821 -0.05376997 0.140633
000030 29 a9 86 3d 45 85 b6 3d 53 11 0b 3e e4 cf 03 3e
       0.065752335 0.08912138 0.13580827 0.12872273
000040 4c 26 d1 bd 89 42 d1 bc 9a e7 05 3e 8c 99 9f 3c
       -0.10212383 -0.025544422 0.1307663 0.019482397
000050 41 36 b2 3d 64 9c 32 3e 04 e9 1c 3e df 14 9b 3d
       0.08701754 0.17442471 0.15323263 0.0757234
000060 a0 54 7e 3d da 1e 44 bc 22 9d 8f 3c c0 51 00 bc
       0.062092423 -0.011970246 0.017530981 -0.007831991
000070 83 f6 cc 3c 15 cc 9f 3b 0b ed 90 3d 84 37 de 3d
       0.02501989 0.0048766234 0.07076462 0.108504325
000080 37 b2 22 3d d3 8f 05 3d 56 8e 9e 3d ab 0c 11 3e
       0.03972074 0.032607865 0.07741992 0.14164989
000090 ed e6 e7 3d 53 a9 66 3b 4a f2 05 bd d7 21 5d 3d
       0.113233425 0.003519614 -0.032701768 0.05398735
0000a0 2c 2c 1e bc fc 34 cd 3c 8e 8c b3 3d 28 bb df 3d
       -0.009654086 0.025049679 0.08767043 0.10924369
0000b0 81 bb 05 3e a0 c3 24 3e 3b 13 9a bd d7 0a ca 3c
       0.13059808 0.1609025 -0.07523199 0.024663372
0000c0 61 90 1d 3d 25 1a 09 3e 57 ec 90 3c 80 a3 bd 3c
       0.03846777 0.1338888 0.01769082 0.023149252
0000d0 5a d1 43 3c 1e 8c ba bc f5 7b f0 3d 11 ba 31 3e
       0.011951769 -0.022771891 0.11742393 0.17356135
0000e0 ef f0 aa 3d 75 49 14 3d c5 a4 2c 3c bc 95 49 3c
       0.08346736 0.036202867 0.010537331 0.012303766
0000f0 32 60 7b 3d f7 92 36 3e 44 54 98 bd c5 3e 23 bd
       0.061371036 0.178295 -0.074379474 -0.039854784

mlp.2.weight f4 [64, 64]
000000 e0 7c 00 3d 98 c2 ed bb e3 e4 c6 3b 2d 0c 8b 3e
       0.03136909 -0.0072558634 0.006069766 0.27157727
000010 bd 50 1e 3e 45 f1 4b 3d 00 3f 6d 3d 74 79 aa 3d
       0.15460487 0.04979064 0.05792141 0.083239466
000020 bb ea 84 3d 0a 94 6d 3d 3e 1d c0 3c 63 78 82 bc
       0.06490084 0.05800251 0.023451444 -0.015926545
000030 fb 04 24 3e 46 2a 41 3e eb 74 5b 3d 4a d5 e7 3d
       0.16017525 0.18863782 0.0535783 0.113199785
000040 98 3c a0 bd f5 67 0f 3f d4 21 27 3e ca 8c a0 3c
       -0.07824057 0.56018 0.16321498 0.019598383
000050 e2 8e 0d 3e c1 20 35 bc b6 fd 0f 3e ee 18 d0 3c
       0.13824037 -0.011055172 0.14061627 0.025402512
000060 a6 02 38 3c 68 09 57 3f d8 31 a6 3c 52 93 a8 3d
       0.0112311 0.8399873 0.02028744 0.08231224
000070 0a 54 7d 3d 1a ad 28 3d a4 4c 01 3e df b3 04 bd
       0.061847724 0.041180708 0.12626892 -0.0323981
000080 a8 12 68 3e 48 ff 2b 3e 81 52 3c 3e d1 11 21 3e
       0.22663367 0.16796601 0.18390848 0.15729453
000090 e4 bf 05 3f b4 0b 49 3f 76 37 51 3d 73 f0 66 3e
       0.52245927 0.7853348 0.051078282 0.22552662
0000a0 ec 14 39 3d 08 93 22 3d aa 94 10 3e 00 21 13 bd
       0.04518597 0.039691 0.14119211 -0.035920143
0000b0 11 db f8 3d ed 40 e6 3d 52 0c 3a 3f 91 b6 2b 3e
       0.121511586 0.11242852 0.7267505 0.16768862
0000c0 2b a6 4a bc bb 10 aa 3e 8a 99 c4 bd 2b 45 bf 3d
       -0.012368719 0.3321589 -0.09599598 0.093393646
0000d0 9c 57 77 3e 18 df d9 bc c3 e3 67 3d 56 14 c4 3d
       0.24154514 -0.026595637 0.056613695 0.09574191
0000e0 73 eb 0d 3d a5 13 8d 3e f2 aa a1 3d f7 84 13 3e
       0.03464837 0.2755405 0.07893933 0.14406191
0000f0 18 79 44 3e f8 52 fd 3d 93 46 2f bf 3b c1 55 3f
       0.19186819 0.12369341 -0.6846706 0.8349797
000100 bd ca 06 be 7c e7 93 bd c9 7c 95 bc 1a e0 e5 3b
       -0.13163276 -0.072218865 -0.018247979 0.0070152404
000110 3c d6 7c 3c 78 a4 3e 3c f5 f9 17 3d 90 7a db bd
       0.015431937 0.011635892 0.037103612 -0.10716736
000120 6e e2 9a 3d 4a ea 8c bd f7 fc 73 bd 24 c1 00 bd
       0.07562719 -0.068806246 -0.059567418 -0.031434193
000130 82 c1 0e be 7b a9 07 be 49 f6 c0 3d 6e 4e 7d bd
       -0.13941005 -0.13248245 0.09421975 -0.061842375
000140 88 7b 64 3d 46 84 2e bd 3a d1 43 bc f2 88 a4 3d
       0.05578187 -0.042606615 -0.011951739 0.08033933
000150 22 67 8a 3d 78 c7 6d 3d 38 ad ea bd 26 11 c2 bd
       0.06757952 0.058051556 -0.1145882 -0.09475927
000160 70 7e 5f bd f0 d5 88 bc 70 e7 e4 bd 08 d3 5a 3d
       -0.05456394 -0.016703576 -0.11176956 0.05342391
000170 ab 5f af 3d e1 e2 4c 3d 60 15 93 bd 46 dc bd 3d
       0.08563169 0.050021056 -0.07181811 0.092705294
000180 34 08 36 bd a7 8c b6 bd b1 e4 f9 bc a2 83 c4 3d
       -0.044441417 -0.08913546 -0.030504556 0.095954195
000190 83 bb e4 bd aa 2b fa bd 88 f1 43 bd 99 b3 11 3b
       -0.111685775 -0.122153595 -0.047837764 0.0022232293
0001a0 13 a9 ca bd 2e ff f1 3b 8f a9 57 3d 33 9d b9 3b
       -0.098955296 0.007385156 0.052651938 0.0056644916
0001b0 bc ee 05 be f2 93 aa 3d 36 65 1a bd 7b b3 6c 3d
       -0.13079351 0.083289996 -0.03769418 0.057788353
0001c0 c0 04 dc 3c c3 ea 50 3c ff 1e 07 be 05 a5 c4 3d
       0.026857734 0.012751284 -0.13195418 0.096017875
0001d0 7e e7 38 bc 34 bf 66 bd 91 6c 6c bd 00 93 4d bd
       -0.011285661 -0.05633469 -0.057720724 -0.05018902
0001e0 75 22 d4 bd 7b 0b db bc 52 c5 8e bd 5c fc 0e be
       -0.10358135 -0.026738873 -0.069712296 -0.13963455
0001f0 7f 80 03 be e0 0b 10 bd d8 2a 77 3d 7d fc c8 3d
       -0.12841986 -0.035167575 0.060343593 0.09813783
000200 7c cc a5 3d 28 70 90 3c 7e 64 20 3e 16 4b df 3d
       0.08095643 0.017631605 0.15663335 0.109029934
000210 d3 a1 2c 3e e4 7b 09 3e 77 85 e1 3d 51 8d b9 3d
       0.16858606 0.13426167 0.110117845 0.09060157
000220 2d a3 f9 bc 4d 30 c8 3d aa c8 58 bd 5d 11 6a bc
       -0.030473316 0.09774838 -0.052925743 -0.014286366
000230 14 2a 0a 3e 0f 31 a2 3d b3 b0 cc 3c 5b 88 91 bd
       0.13492614 0.079195134 0.0249866 -0.07106086
000240 64 c5 ad 3d fd b8 dc 3e c9 a4 34 3d 94 dc ee 3d
       0.08484915 0.43109885 0.044102464 0.11663166
000250 8e 5a 0b 3d 98 36 2e 3e aa 42 48 3d a5 6b 93 3c
       0.034021907 0.17013013 0.0488917 0.017995665
000260 72 d7 3c 3e 3c 7a 47 3f 4b 06 95 3d f6 2c b5 bd
       0.18441561 0.7792089 0.07276591 -0.08846466
000270 b0 29 cc 3d 8f 3e a3 3c c4 42 18 3e 66 9e 0c 3e
       0.09968889 0.019927291 0.14869219 0.13732299
000280 43 14 ca 3d 7e 9c 32 3c b3 70 c0 3d 47 34 0f 3e
       0.09867146 0.010901568 0.09396496 0.13984786
000290 75 32 3f 3f 50 fd 7f 3f 85 99 1c bd 9c c1 22 3e
       0.74686366 0.999959 -0.038232345 0.15894169
0002a0 f6 ed 29 3e 07 a2 58 3d 00 21 17 3e 5d db c4 3d
       0.16594681 0.052888896 0.14758682 0.09612153
0002b0 95 37 8e 3e 5b 10 93 3c be e1 13 3f 3a b3 2e bd
       0.2777678 0.017952135 0.5776633 -0.042651393
0002c0 15 a4 d1 3d 0f b7 c2 3e 31 1d ef 3d 01 98 03 3e
       0.10236374 0.38030288 0.1167549 0.12850954
0002d0 bd e6 45 3e a8 f7 a6 3d 5c 27 02 3d 4f d9 3f 3e
       0.19326301 0.081527054 0.031775817 0.1873524
0002e0 91 1e 52 3d a5 12 fd 3d 3c e7 12 bd 7d 98 85 bc
       0.05129868 0.12357072 -0.035865054 -0.016308064
0002f0 7d ea 14 3e d4 79 0e bb 44 f6 4e bf fc 99 80 3f
       0.14542575 -0.0021740096 -0.8084452 1.0046992
000300 24 6f e6 3d 29 43 d1 3d 6f b0 8e 3d 81 e4 8e 3e
       0.11251667 0.10217888 0.06967246 0.2790871
000310 04 f5 1f 3d 80 b9 38 3d 3b bd 26 3e 11 3f a2 3d
       0.039052024 0.04509878 0.16283123 0.07922185
000320 cf f8 07 3d a2 19 50 3e 75 d5 4e bc af a9 2f 3d
       0.033196267 0.20322278 -0.012624134 0.042886432
000330 ba 54 7d bc e6 95 ee bc 09 4f 7e bd ac 49 d1 3d
       -0.015462095 -0.029124212 -0.062087093 0.1021913
000340 50 42 bf 3c 1d 62 ff 3e df 88 12 3e 94 64 a0 3c
       0.02334705 0.49879542 0.14310025 0.01957921
000350 ae e9 bf 3b 26 ff f4 3d 7a af 78 3d 33 bf 31 bc
       0.005856714 0.11962728 0.060714222 -0.010848808
000360 39 53 94 3d 91 a0 4a 3f e9 62 22 bd 00 33 ce 3b
       0.07242436 0.79151255 -0.03964511 0.006292701
000370 58 53 c0 3d e8 37 47 bd a2 56 1f 3e 8c 2f 44 3c
       0.093908966 -0.0486373 0.15560392 0.011974227
000380 8a 55 cc 3d 4d 2d d7 3d 15 90 9c bc 84 bf 96 3d
       0.09977253 0.10506687 -0.019111672 0.073607475
000390 4f 9c 22 3f c3 01 6a 3f fb 12 86 bc e0 76 51 3d
       0.6351976 0.9140894 -0.016366472 0.05113876
0003a0 42 c0 86 3c da 3e 59 3d fe 32 a8 3d dd ce e5 3d
       0.016449098 0.053038456 0.08212851 0.11221097
0003b0 ec 58 a7 3e 38 8e 55 bd 2c 51 4c 3f be 97 05 3d
       0.3268503 -0.052137583 0.7981136 0.032615416
0003c0 33 72 87 3d bb e3 c4 3e aa 6c c2 bd 53 aa e9 3d
       0.06613579 0.38454995 -0.09493382 0.1140944
0003d0 a6 c5 1c 3e b7 e2 ec 3d d9 c8 22 3e 0a b6 5e 3d
       0.15309772 0.1156668 0.1589693 0.054372825
0003e0 55 4e 81 bd 6d 5c bd 3d 03 07 a1 3d dc 73 20 3e
       -0.06313769 0.092461444 0.078626655 0.15669197
0003f0 16 13 d3 3d d6 79 4a bd f2 5a 2d bf 00 20 63 3f
       0.10306375 -0.049432598 -0.67716897 0.88720703

mlp.2.bias f4 [64]
000000 56 68 03 3c f9 45 c8 bd 95 2b 8b 3d ae 89 48 3e
       0.008020481 -0.09778971 0.06795422 0.1958377
000010 ec ff 09 bd 51 c2 8a 3d b5 54 bb bd f9 88 9e bd
       -0.03369133 0.06775344 -0.09147016 -0.07740969
000020 0c 80 8a 3d 98 62 75 bc 15 97 22 bd 00 3f 46 bd
       0.06762704 -0.01497712 -0.039694864 -0.048399925
000030 96 9c 06 3d f0 83 fc 3d ee 5a e4 bd 8c da 6b bd
       0.032864176 0.123298526 -0.11150156 -0.05758147
000040 e5 55 81 3d fe 32 ab 3c 5a 0d 04 3e 4f e2 69 3d
       0.06315211 0.020898338 0.12895718 0.05710059
000050 c3 ee e8 3d 0a 39 ba 3d 37 3d 84 3c 37 ea 8d 3c
       0.11373665 0.090929106 0.01614247 0.017323596
000060 bd 90 c0 3b c7 a0 a6 bd c0 46 9e 3d 2c fa 0a be
       0.005876629 -0.081361346 0.07728338 -0.13571995
000070 be 56 20 3e 51 f8 ff 3d b5 3a dd 3d 60 6e 3d bd
       0.1565809 0.124985345 0.10802213 -0.04624784
000080 2f c1 33 3c 95 11 11 3e 56 8a 96 bd 59 9c d6 3d
       0.0109713515 0.14166863 -0.07350604 0.1047904
000090 7e f5 13 3c 75 0c c1 3d ce 4a 05 be d0 ab 04 3d
       0.009030698 0.09426204 -0.13016817 0.032390416
0000a0 72 2f 99 39 5b 9d e3 3d 55 16 1e 3d 40 88 07 3d
       0.00029217784 0.111139975 0.038595516 0.033088923
0000b0 5d 3b c7 bd 6a dc 36 be 14 db e0 3d 41 ec ff 3d
       -0.097281195 -0.17857519 0.10979286 0.12496234
0000c0 80 60 3c 3e 1c 75 8e bd b4 1c 31 3e 0f f1 e4 3d
       0.18396187 -0.069559306 0.17296106 0.11178791
0000d0 21 78 e9 bd e1 4e d3 3d 0c 14 c0 3d 7c d6 27 3e
       -0.11399866 0.10317779 0.09378824 0.16390413
0000e0 6f de 72 3d 71 2a cb bc 3a b5 2b 3d d0 60 19 bd
       0.05929416 -0.024800511 0.041920878 -0.037445843
0000f0 17 7e b8 bb 36 b3 9d bd 3a b7 bf 3d 82 86 d1 3d
       -0.0056302655 -0.077001974 0.093611196 0.102307335

mlp.4.weight f4 [1, 64]
000000 72 6a 68 3e 73 75 e9 3b 18 ad 7e 3e 74 36 4f 3e
       0.22696856 0.0071245967 0.24870718 0.20235616
000010 3e c7 90 3e e4 7a 97 bd f3 d8 a4 bd 1f 1c 4a bd
       0.2827701 -0.073964864 -0.08049192 -0.049343225
000020 15 6e 70 3e 56 29 7b 3e 05 17 99 3e 91 7f bb bd
       0.23479493 0.24527487 0.29900375 -0.09155191
000030 67 c8 8b 3e fb f4 94 3e 58 f4 a8 bd 34 35 94 bd
       0.27301332 0.29093155 -0.0824973 -0.0723671
000040 87 93 13 bd 93 d1 ab 3e de e4 94 3e ab d8 95 bd
       -0.036029365 0.3355833 0.29080862 -0.07316717
000050 a0 03 75 3e ca ae 7f 3e 7b 04 83 3e 5a f1 57 bd
       0.23927164 0.2496902 0.25589356 -0.052720405
000060 0b 46 99 be e9 7d d0 bd e9 65 76 3e c1 51 9e bb
       -0.2993625 -0.101802655 0.24062313 -0.004831523
000070 30 da 45 3e 32 a2 66 3e 87 07 9a 3e 0e ec b6 bd
       0.19321513 0.2252281 0.30083868 -0.089317426
000080 0e d0 db bd 2f 26 5b 3e b3 bb 16 3d c2 8a 6f 3e
       -0.10733043 0.21401285 0.036800098 0.23392776
000090 bc ac 56 3e ee 8f a7 bd ec 9b aa bd 1e 0a 05 bd
       0.2096433 -0.08181749 -0.08330521 -0.03248035
0000a0 41 5d 9e bd 30 d9 73 3e fd 5f 72 3e 38 32 97 3e
       -0.077326305 0.23813319 0.23669429 0.295305
0000b0 ed 01 12 3c 5a 88 3f bc 7e f2 7c 3e f9 09 4d 3e
       0.008911592 -0.011690224 0.24701878 0.20023336
0000c0 5d 50 55 3e 47 9a 86 bd 68 9d 72 3e 26 ac 7d 3e
       0.20831437 -0.06572395 0.23692858 0.247727
0000d0 c7 38 02 bd 80 83 7a 3e 04 45 4e 3d 34 c3 94 3e
       -0.03179243 0.24464226 0.050358787 0.29055178
0000e0 d0 e8 8f 3e e3 9e 35 bd 4a c7 9f bd e2 73 90 bd
       0.2810731 -0.04434098 -0.07801683 -0.07053353
0000f0 3e fc e0 bd fb ec 95 bd bb 16 a6 3e 62 9e 76 3e
       -0.109856114 -0.07320591 0.32439217 0.24083856
