forecasting/midroll/dnn_model/model_3_ofwc2022.ckpt (torch, 42527 bytes, 5 tensors)

mlp.0.weight f4 [64, 90]
000000 dc b8 87 3c 4f 15 36 3e 38 01 fb 3d 07 d7 35 3e
       0.01656764 0.17781566 0.12256092 0.17757808
000010 4a 1e 91 3d 9a fb 89 bd d2 6c 44 3d d5 73 95 bc
       0.07085855 -0.06737442 0.04795534 -0.01824371
000020 a5 95 19 bd 7e f6 84 3e 86 cd a4 bd 79 fb 2f be
       -0.037496228 0.2596931 -0.08047013 -0.17185773
000030 2e 1e 03 3e 60 df 4f 3e 11 d1 cb bd eb 82 27 be
       0.12804481 0.20300055 -0.099519856 -0.16358535
000040 39 a7 0a 3b 27 22 ff bc 15 44 04 3e cc 2e 25 be
       0.0021156801 -0.031144215 0.12916596 -0.16131133
000050 a8 c9 95 3b 78 a8 5b be 56 28 15 3e 22 b6 69 3e
       0.0045711584 -0.21450984 0.14566168 0.22823384
000060 55 4d 9e 3d 1c a4 ff 3d d4 98 16 bc 4e d9 86 bd
       0.07729594 0.12482473 -0.0091917105 -0.06584416
000070 e1 96 81 3e 98 80 38 be 5f 7f 86 bc 82 aa ef 3d
       0.25310424 -0.18017805 -0.016418157 0.11702444
000080 8e 75 f2 bd 60 54 84 bb f0 f2 21 3e 52 45 08 be
       -0.11838828 -0.0040383786 0.1581533 -0.13307694
000090 f8 f9 28 be 15 10 04 be 8d 20 84 3d ed b5 12 bc
       -0.16501606 -0.1289676 0.06451521 -0.008954507
0000a0 6f 6c eb 3d 50 98 16 be cd a3 a7 3d b3 a8 26 3e
       0.114952914 -0.1470654 0.081855394 0.16275291
0000b0 c6 31 56 bd 43 27 4e be fa f9 a2 3c 07 4f 29 bd
       -0.05229356 -0.20132165 0.019894589 -0.041335132
0000c0 3a 0c dd 3d c6 a7 0f 3e 0a 93 ae 3d d0 6e 63 3e
       0.10793348 0.14028844 0.08524139 0.2221024
0000d0 ec d4 ae 3d 5a 86 60 3d 1e 77 9b be c8 d7 b3 3d
       0.085367054 0.054815628 -0.30364317 0.087813914
0000e0 a1 96 7e be c5 97 5d be c1 1c ac 3d 98 9b 11 bd
       -0.24862148 -0.21639927 0.08403922 -0.035548776
0000f0 d8 22 81 bc 06 b2 49 3d d0 02 31 bd b5 ee cb 3d
       -0.015763685 0.049242042 -0.043215573 0.09957639
000100 85 e5 8b 3c 55 52 9c be 4b 32 fe 3b 2c 7f 94 3d
       0.017077217 -0.30531564 0.00775746 0.072508186
000110 7f 61 c1 bd 4e b5 3a bd a7 e0 bc bd 28 69 03 be
       -0.09442424 -0.045583062 -0.092225365 -0.12833083
000120 47 78 8f 3e a5 bd 8e bb 16 5b bc 3d 2d b8 5a 3c
       0.28021452 -0.0043561035 0.09197061 0.013349575
000130 01 22 05 3c cf bf 3f 3e 7c 48 5a 3d 7f 4c 82 3d
       0.008125783 0.18725513 0.053291783 0.06362247
000140 ed 8d 01 3e 1e 13 90 3d 65 4e 49 bd 9f 5d 5c be
       0.12651797 0.07034896 -0.04914703 -0.21520089
000150 1a fd 18 3c ea c5 24 3d cf 63 55 3d d9 c9 12 3d
       0.009337688 0.040227808 0.052097138 0.03583703
000160 b7 40 81 3c 78 cb 3d 3c ea 63 d9 bd 1d 5b ab bd
       0.015777929 0.011584155 -0.1061476 -0.08366988
000170 da a7 de bd aa d5 14 be 34 00 07 3d 31 af 26 3e
       -0.10871859 -0.14534631 0.032959178 0.16277768
000180 0e 5d ad 3c 44 4a 80 be e2 a9 1d bb 68 87 96 3e
       0.021162536 -0.2505666 -0.0024057557 0.29400182
000190 53 f8 50 be 75 3f 85 be 65 af eb 3c 81 48 04 be
       -0.20407228 -0.26024976 0.028770158 -0.12918283
0001a0 bb 55 2c 3d 84 cf c3 bd 0b 27 3f be 91 b5 f3 bd
       0.042073946 -0.09561065 -0.18667237 -0.118998654
0001b0 e6 e0 c9 bd cf b4 2e 3c 46 0a 74 3d 0e b9 3b bd
       -0.09857349 0.010663225 0.05958011 -0.04583078
0001c0 6f 78 ac 3c 26 46 3d be 17 89 b9 3e 3e ff 45 3e
       0.021053521 -0.18483791 0.36237404 0.19335648
0001d0 70 63 73 3d b8 9c 99 bd 9d 71 6c 3e d8 1c b5 bd
       0.059421003 -0.07500595 0.23090215 -0.08843392
0001e0 66 af 89 be de e1 3a be d1 c6 3a 3d 7a 50 e6 3d
       -0.2689163 -0.18250224 0.045599762 0.112458184
0001f0 1a 1f 80 be be cc c3 3d a9 5c 3b bc d8 19 1a be
       -0.2502373 0.09560536 -0.011435666 -0.15048921
000200 a8 25 8e bd 69 8d d4 bc f2 21 8c 3d 84 8e 14 3d
       -0.06940776 -0.025946336 0.06842412 0.036268726
000210 99 9e e9 bd a9 bf 2b be a9 e5 da 3c f2 06 64 3e
       -0.11407203 -0.16772331 0.026720839 0.22268274
000220 f2 74 21 3d af 6d ac 3d e2 ac 41 3e 41 8d 61 3e
       0.03941817 0.08419358 0.18913606 0.2202654
000230 5c 1a 85 3d ae 80 1f 3e d6 7e 9f 3d 0f bd b8 3c
       0.06499168 0.15576431 0.07787864 0.022551088
000240 64 e2 0b 3e bc 04 60 3e 79 63 86 be ec 97 22 bd
       0.1366058 0.21876806 -0.26247767 -0.039695665
000250 d2 89 10 be 32 95 36 be 8f 53 5b 3d bc f1 0c 3e
       -0.14115074 -0.17830351 0.053546485 0.1376409
000260 71 6e 73 bc 6e 92 cb 3d 0f 2d cb 3e 50 e1 3f bd
       -0.014857874 0.099400386 0.39682814 -0.046845734
000270 d3 df 78 3e ed 7f d1 3d 9e a8 22 bd 78 e4 2b 3e
       0.24304132 0.10229478 -0.039711587 0.16786373
000280 0c c0 51 bd de d9 a3 be 96 dc 61 3e 50 e7 cb bd
       -0.05120854 -0.32002157 0.22056803 -0.09956229
000290 a9 b9 a6 3e 9f 39 15 be 1c ca ac 3d 3c 46 d3 bd
       0.32563522 -0.14572762 0.08436987 -0.103161305
0002a0 84 36 c2 3d 9b de c2 3d 8e 4a da 3d a6 63 44 be
       0.09483054 0.09515115 0.106587514 -0.19178638
0002b0 8b 99 73 3d 79 78 aa be 82 24 78 bd b5 ee 1f 3e
       0.0594726 -0.33295038 -0.06058169 0.15618403
0002c0 6f 72 ed bd 37 7e 87 3d 3d 02 42 bd bf a2 ae be
       -0.11594092 0.066158704 -0.047365416 -0.3410854
0002d0 14 89 c7 bd b1 f5 38 3c be e9 37 3c c4 8a fc 3d
       -0.097429425 0.011289046 0.011225162 0.12331155
0002e0 92 f5 df 3d d3 d6 f2 bd 43 9c e7 bc c4 af 96 bd
       0.10935511 -0.11857381 -0.028272754 -0.073577434
0002f0 03 c1 c7 3d 9f a6 5d 3e ae 6b d3 bd 89 59 39 be
       0.09753611 0.21645592 -0.10323273 -0.18100561
000300 f0 28 db 3b d8 b6 86 3d 8a 90 22 be e7 80 f5 bc
       0.0066882297 0.065778434 -0.1587545 -0.029968692
000310 d8 60 dc bd 71 0f ec bd bb 04 30 3e 38 2d c3 bd
       -0.10760659 -0.11526383 0.17189305 -0.09530109
000320 cc a3 28 bd 5b 3e 02 be 82 a7 cc 3d 95 6d 32 3e
       -0.041171834 -0.12719099 0.09992887 0.17424615
000330 55 48 6a 3d f1 fa 4a 3e 65 5e d6 3d bf 0e 4a bd
       0.057197887 0.19822289 0.10467223 -0.04933047
000340 e5 1b 63 3d 7a d5 38 3c 71 b2 4d bd de 9d 5e 3d
       0.055446524 0.0112813655 -0.050219003 0.054349773
000350 8c 1c 5d 3d c3 74 a5 bd ea dc 61 3c 2f 3c ea bd
       0.053982303 -0.08078911 0.01378558 -0.1143726
000360 62 2a b1 bd 2c 17 21 bb c2 73 70 3c 04 1c ae bd
       -0.08650662 -0.0024580462 0.014676036 -0.08501437
000370 f1 cc ba 3d 4a d0 0b bd c6 69 7e 3d a3 7b e3 3a
       0.09121121 -0.034134187 0.062112592 0.0017355572
000380 5a b1 5c bd 3f b8 2c 3d 2d c8 9a 3d 08 26 26 bd
       -0.053880073 0.0421679 0.07557712 -0.040563613
000390 71 3f c2 3d 6c 69 93 3d 0e a8 8e 3d 20 84 59 3d
       0.09484757 0.07197842 0.06965648 0.05310452
0003a0 dc 4a e9 3d b8 dd ab 3d 0b 13 24 3d 46 ef 94 3d
       0.113912314 0.08391899 0.040057223 0.072722
0003b0 ff ab 4c be 85 26 56 3d 9e 7d fe 3d e1 34 db bd
       -0.19987486 0.05228283 0.12426303 -0.10703445
0003c0 49 f3 91 3d 2d 48 12 3d 27 ff 21 3e 58 6e 0b be
       0.07126481 0.035713363 0.15819989 -0.13616312
0003d0 dd f4 4b 3d ec d6 54 be 7a 69 07 3e f6 51 07 bb
       0.049794067 -0.20785111 0.1322383 -0.0020648218
0003e0 72 da 8f 3c bf 4c 99 3d bc 98 c8 bc 4a 50 0d 3b
       0.017560218 0.07485341 -0.024486892 0.0021562749
0003f0 42 7f 38 3e e8 94 ab bb 07 92 bd 3d d1 fe e1 3c
       0.18017295 -0.005236257 0.09256368 0.027587326

mlp.0.bias f4 [64]
000000 d8 89 05 3c a4 4e 08 3d ef eb 24 bd b2 d1 9b bd
       0.00815054 0.033278123 -0.040264066 -0.076083556
000010 96 64 c5 3d 0b 36 33 3d 4b f2 3a 3c 35 e8 ae 3d
       0.09638326 0.04375271 0.011410306 0.08540384
000020 a5 df 71 bc f2 fe 9a bd 87 f4 79 3d 7f 09 40 bd
       -0.014762794 -0.07568158 0.061024215 -0.046884056
000030 4d 82 cd 3c 15 b9 cc 3c c9 0d 44 bd 53 78 9f bd
       0.025086546 0.024990598 -0.04786471 -0.07786622
000040 66 6f 8d 3d 81 5a 07 3e c2 37 b8 3d 62 c7 4b bb
       0.06906013 0.13218118 0.0899501 -0.0031094183
000050 1e 75 ee 3d 0a b6 9b bc ed c5 8d bd 2f 51 3a bc
       0.11643432 -0.019007701 -0.06922517 -0.011371895
000060 bd 2d 7d 3d f9 c7 bd 3d 75 77 ad bd 2a 8a f5 bb
       0.061811198 0.092666574 -0.0847005 -0.007493277
000070 25 43 be 3d 70 bb 38 3d 28 86 04 3e 53 44 a1 3d
       0.092901506 0.04510063 0.12941802 0.0787436
000080 18 41 92 3c 1b 45 19 bb 0c 61 7a bd 0c 68 dd 3c
       0.017853305 -0.0023387137 -0.061127707 0.027027152
000090 e5 33 77 bd c0 f0 81 bc 02 06 33 3d 5e 70 35 3c
       -0.060352225 -0.015861869 0.0437069 0.011074154
0000a0 59 1a 48 3d 91 6e ac 3d 84 6a 52 3c 96 c7 0b bd
       0.048853252 0.08419526 0.012842778 -0.034125887
0000b0 13 e6 62 3d ce 30 22 bd 8d b6 d3 3d 52 bc 0f 3d
       0.055395197 -0.039597325 0.10337553 0.035091706
0000c0 2d 5e e1 3d 7e 26 6c bd 83 4b 5c 3d 57 26 c8 3c
       0.11004291 -0.057653897 0.05378295 0.024432344
0000d0 2c 7e 46 3d 79 11 88 bd ec 08 fc bc 84 c8 5f 3d
       0.04846017 -0.06643958 -0.030765973 0.054634586
0000e0 b3 0c f7 3d df 94 95 3d 44 0f b6 bc d7 06 d0 bd
       0.12062969 0.073037855 -0.022224076 -0.101575546
0000f0 8c eb 35 bd ae 02 b1 3d 13 46 34 3c ed 06 69 bc
       -0.044414088 0.08643089 0.011003035 -0.014222843

mlp.2.weight f4 [64, 64]
000000 69 17 39 3e dc 84 8c 3e 40 82 ec 3d 87 57 40 3f
       0.18075337 0.27445114 0.11548281 0.75133556
000010 39 37 c4 3b c8 bb af 3e 4f 2d 0e bd 6d 7f 2d bd
       0.0059880284 0.34322953 -0.03471118 -0.04235785
000020 02 12 1e 3e 71 ed 2c 3f 7e ad d5 3d ca c8 dc 3e
       0.15436557 0.67549807 0.10433482 0.4312194
000030 ed 97 15 3f 8d 97 0d 3f 21 e5 89 bd e8 5b c7 3d
       0.58434945 0.55309373 -0.06733156 0.097343266
000040 48 27 89 3d ee d7 fa 3c 28 f2 4f 3f e1 3b 25 3e
       0.066969454 0.030620541 0.81228876 0.16136123
000050 f2 51 21 3e 77 8a af 3d c6 e3 10 3d 72 15 09 3f
       0.15753916 0.08571332 0.03537347 0.5354835
000060 ef d5 0c 3e ea 2c 87 3d e3 cd 71 bd 39 b9 b4 3e
       0.13753484 0.066003636 -0.05903424 0.35297564
000070 cc 81 23 3e b0 51 cf 3e e0 de d8 3d e7 96 80 3e
       0.15967482 0.4049201 0.10589385 0.2511513
000080 22 e6 e2 bc 7a d1 22 3e 46 a8 18 bd 03 a9 d2 3d
       -0.027697627 0.15900221 -0.037269853 0.10286143
000090 82 99 3e 3e 32 fe e4 bb 61 6d 7c 3d 64 62 77 3b
       0.18613246 -0.0069883103 0.06162775 0.0037747854
0000a0 d1 2a 07 3e 12 42 92 bc 35 9b db 3e 25 41 04 3e
       0.13199927 -0.01785377 0.4289185 0.12915476
0000b0 34 ee f9 3d 92 ac 21 bd 45 26 86 bd 8b d7 c5 3d
       0.12203637 -0.039471216 -0.06550268 0.09660252
0000c0 32 81 04 3e b1 f8 e6 3d b5 64 a1 3d fb f2 a9 3d
       0.12939909 0.11277903 0.078805365 0.08298298
0000d0 96 a7 07 bc b5 6a 94 3d 62 59 1b 3d 26 45 0b 3e
       -0.008279702 0.07246915 0.03792704 0.13600597
0000e0 37 23 1f 3e bb e8 8f 3d 07 f3 dd 3e 2b 84 1c 3f
       0.15540777 0.07026812 0.43349478 0.6113917
0000f0 56 96 d8 3d 5e 8a 69 3d 83 0c 08 3e 97 1f 17 3c
       0.10575549 0.057016723 0.13286023 0.00922384
000100 ea a4 88 bd cc e3 4c bd 35 03 97 be 00 d3 40 be
       -0.0667208 -0.05002193 -0.29494634 -0.1883049
000110 3c af 6e bd 61 b7 6f be 67 6f 42 be 71 6c 68 be
       -0.058272585 -0.23409797 -0.18987809 -0.22697617
000120 3c 57 43 3e e0 de 44 be f5 a2 8f be ad 94 fb bd
       0.19076246 -0.19225645 -0.28054014 -0.12284217
000130 e0 ca 66 3e 9e 03 3b 3e 60 a0 d1 be 38 ec 8e be
       0.22538328 0.18263099 -0.4094267 -0.27914596
000140 6b bb 18 be 0d a3 80 bd 99 08 9b be 33 8c 2e be
       -0.14915244 -0.062810995 -0.30279997 -0.1704567
000150 31 56 69 3d 04 51 63 bc 1f 9c ed ba 36 01 b0 bd
       0.056966964 -0.013874296 -0.0018128193 -0.08593981
000160 d3 89 df be be cd 49 be 30 1e 06 bd 25 00 a8 be
       -0.4365984 -0.1970739 -0.032743633 -0.3281261
000170 26 ee da bc 39 57 8c be 94 54 0b 3d 11 fe 0d be
       -0.026724886 -0.27410296 0.034016207 -0.1386645
000180 58 c5 be be 04 f9 8c be f8 1a 63 bd fe 94 b9 be
       -0.37259936 -0.27533734 -0.05544564 -0.36246485
000190 42 14 7e be 7b c2 2e be 68 b7 48 3d 0c 60 1d bd
       -0.24812415 -0.17066376 0.049003035 -0.038421676
0001a0 dc 1f 44 3d b8 93 ef bd 96 bb 94 3e 21 ac 38 3e
       0.047881946 -0.11698097 0.29049367 0.18034412
0001b0 5d 12 a2 3d e4 ca 50 be a4 ee bd be e2 1e df bd
       0.07913659 -0.20389897 -0.3709613 -0.10894562
0001c0 a2 31 21 3d ca 8c 83 bc 0e f1 c5 be ca 77 42 3c
       0.039353974 -0.016058344 -0.38660473 0.01186938
0001d0 bd 22 93 be f4 0b 59 be 1a 6b 78 be a9 b4 11 be
       -0.2873744 -0.21195966 -0.24259606 -0.14229073
0001e0 67 d7 af be ce eb b0 3d c5 f3 89 be 1e 57 f4 3c
       -0.34344026 0.08638726 -0.26943794 0.029826697
0001f0 92 33 ad be f5 f2 9d bd e0 cb c5 3d 9a 2e 2b 3d
       -0.33828408 -0.07712356 0.09658027 0.04179249
000200 4c b4 8b 3d f2 10 f1 3e cd 2a 40 3d 1e b0 19 3f
       0.06821498 0.4708324 0.046915818 0.6003436
000210 07 b3 fa 3c d1 09 13 3f 56 d7 9c 3d 11 60 a6 3c
       0.030602945 0.57436854 0.076582596 0.02030948
000220 ca f1 8a 3d d1 27 48 3f 5c a0 28 bd 6a 7e e1 3e
       0.06784399 0.78185755 -0.041168556 0.4404176
000230 aa aa 14 3f c2 3e 05 3f d3 51 dd 3c e5 44 ed 3d
       0.5807291 0.52048886 0.027016556 0.11585406
000240 05 60 33 3e 83 61 a1 bd 5a d6 3a 3f 2b eb 97 3d
       0.17517097 -0.07879927 0.72983325 0.074179016
000250 17 64 0f 3e ac 64 46 3e 95 16 39 bd 5d 90 a8 3e
       0.14003025 0.19374341 -0.04518755 0.3292264
000260 74 03 3c bd 3e 91 d5 3d c5 ac 73 3b 8d e0 e7 3e
       -0.04590173 0.104280934 0.0037181836 0.45288506
000270 f5 98 37 3e 6b 12 c6 3e 98 80 04 3d 4b 32 7e 3e
       0.17929442 0.38685927 0.0323492 0.24823873
000280 d2 b6 03 3d e3 ee 54 3e ad 74 4b 3d e4 b4 a6 3d
       0.032156773 0.20794253 0.049671818 0.08139971
000290 1b f8 58 bc 28 13 52 3d b5 db 1c 3d 82 d7 0c bc
       -0.013242747 0.0512878 0.038295466 -0.008596303
0002a0 48 66 88 3c cf 38 f4 3c 0e 74 98 3e eb 8a 8a bd
       0.016650334 0.029812245 0.29776043 -0.06764778
0002b0 bb ef 1a 3e 9d 9c 1f 3e 3e 9a 07 3e e9 33 2e 3e
       0.15130512 0.15587087 0.13242432 0.1701199
0002c0 d3 0a f1 3d 1d eb 18 3e 48 41 1b bc 61 5e 3e bb
       0.11769643 0.14933439 -0.0094760135 -0.0029047953
0002d0 99 80 a7 3d 89 c6 b7 3d 31 29 04 3e 6b e3 d0 3c
       0.08178825 0.089734145 0.12906338 0.025499066
0002e0 54 94 42 3d d6 ea 39 bd 71 3d be 3e d4 20 05 3f
       0.047504738 -0.045389973 0.3715625 0.52003217
0002f0 04 63 ac 3c 4a 33 b4 3d f7 7d fa 3c 74 eb c9 3d
       0.021043308 0.08798845 0.030577643 0.09859362
000300 9b a1 d6 bd 69 c2 7c bd 01 1d 07 be e7 21 d8 3d
       -0.104800425 -0.06170884 -0.13194658 0.10553341
000310 90 1d b9 3d 91 77 bc bd af 04 f6 bc 1c 33 a9 bd
       0.09038842 -0.09202493 -0.03003153 -0.082617015
000320 c0 84 90 bc 38 af bb bd 1f 16 70 bd 82 c6 12 3d
       -0.017641425 -0.0916428 -0.058614846 0.035833843
000330 39 70 5a b9 c8 a9 88 3c 28 90 a1 3d 39 3f 09 bd
       -0.00020831906 0.01668252 0.07888824 -0.03350756
000340 10 53 ca bc d0 68 cf 3d f3 93 c2 3d b8 af 30 bb
       -0.02469781 0.10127413 0.09500875 -0.0026960205
000350 2a 16 b4 bb 0d ee b9 bd 85 63 c5 bd f4 12 f0 bd
       -0.005495806 -0.09078608 -0.096381225 -0.11722365
000360 d2 8e 6c 3d d0 dd 8b bd df 40 d9 3c 2b ef 84 bc
       0.05775339 -0.06829417 0.02652019 -0.016227325
000370 a5 ee f0 3c 26 5d b6 3d f4 e3 d6 bd f8 43 a3 bd
       0.02941067 0.089044854 -0.10492697 -0.079719484
000380 04 89 f9 bd 3d 94 9b bd 58 86 04 be 90 af 29 3c
       -0.12184337 -0.075966336 -0.12941873 0.010356799
000390 83 b4 ce bd 57 d1 03 bd 1a 8b ea bd ef 2a 41 3d
       -0.10093024 -0.032182064 -0.11452313 0.047160085
0003a0 e6 80 a2 bc d3 db af 3d 9b 08 9f bd 8d 20 f1 bd
       -0.019836854 0.0858685 -0.07765313 -0.11773787
0003b0 92 89 f4 bd 4e 47 d8 bd ee 32 92 3d 4e 69 d9 bc
       -0.11940302 -0.10560475 0.0713862 -0.026539471
0003c0 23 ce 85 3d ce 22 8c bc 6c 90 e6 bd b4 01 41 bd
       0.06533458 -0.01710644 -0.11258015 -0.047120765
0003d0 cf 4d 77 bd 20 2c fe bd 78 64 d6 3c 18 ba f9 bd
       -0.06037694 -0.1241076 0.026170954 -0.12193698
0003e0 3d a4 3a 3d 93 d2 a3 3d f2 ae cd bd 96 f0 ef 3c
       0.045566786 0.07999148 -0.10043134 0.029289525
0003f0 8d e6 74 3d f4 ee 4c bd ee f9 7b bd cf ab 94 3d
       0.059790183 -0.05003257 -0.06151765 0.072593324

mlp.2.bias f4 [64]
000000 8e 76 83 3d 37 27 41 bb 94 75 69 3d 5a e4 b8 3d
       0.06419097 -0.0029472837 0.056996897 0.090279296
000010 ad 73 02 3e 60 2d c6 bc 61 cf 89 3e d9 f0 15 3e
       0.1273944 -0.024191558 0.2691603 0.14642657
000020 61 b0 96 3d 19 bb 4c bc 5e 0a f9 bd 41 d2 84 bd
       0.0735786 -0.012495779 -0.121601805 -0.06485415
000030 35 2f 0f 3e b0 1a b0 3d 67 40 aa bd 6d 98 67 3d
       0.13982852 0.0859884 -0.08313065 0.05654185
000040 a1 e2 a8 3d 1e b6 3f bd ff f2 87 bc 97 2b 9d 3d
       0.08246351 -0.04680454 -0.016595362 0.0767433
000050 dc c4 6a bd 98 dc 01 3e 8c 3b 53 bd 95 9f 8e 3d
       -0.057316646 0.12681806 -0.05157046 0.069640316
000060 ea 9a 94 bd c5 25 0a 3e cc 58 0e be 46 29 e6 3d
       -0.0725611 0.1349097 -0.13901061 0.11238341
000070 fc b4 02 be 5a 47 3a 3e bd bb 35 3c d0 a5 6c bd
       -0.12764353 0.18191281 0.011092124 -0.05777532
000080 fe 06 b9 bd c4 86 41 bd 1f 33 c5 bb 2d d5 05 3e
       -0.09034537 -0.047247663 -0.006018057 0.13069601
000090 6c cf 94 3d bd b4 bf 3d ac b5 96 bd 08 6b fc bd
       0.07266125 0.09360645 -0.0735887 -0.12325102
0000a0 11 ed 66 bd a8 a7 d7 bd c1 e4 cd 3d 58 61 a2 bd
       -0.056378428 -0.10530025 0.10053397 -0.07928723
0000b0 44 a2 14 be 42 62 7c bd 50 92 09 3e 6a 4f 6b 3e
       -0.14515024 -0.061617143 0.1343472 0.22979513
0000c0 e6 29 fe bb dd 26 3b 3e dd 83 a7 bd 39 80 b3 bd
       -0.0077564595 0.18276544 -0.08179448 -0.08764691
0000d0 92 2b c9 b9 33 13 3c 3e 4a b6 04 bc 25 ff c2 3d
       -0.0003837017 0.18366699 -0.008100102 0.09521321
0000e0 ea f5 81 3b e4 a0 cc bd 2d b5 fc 3d bd 5f f3 3d
       0.003966083 -0.09991625 0.12339244 0.11883495
0000f0 17 30 f0 3d f0 d1 ad 3c 36 57 5b 3e 5a 84 c0 bd
       0.117279224 0.02121827 0.21419987 -0.09400244

mlp.4.weight f4 [1, 64]
000000 86 ec 68 3e 12 85 02 bf 00 41 6e 3e c0 88 43 bd
       0.22746477 -0.509843 0.23266983 -0.047737837
000010 37 6a 51 3e 6c 00 43 bc 83 ee 81 bf 97 31 a0 be
       0.20450674 -0.011901956 -1.0150913 -0.31287834
000020 df 18 6c 3e 5d c1 a1 3b 48 e7 f4 3c ab 62 59 3e
       0.23056363 0.004936381 0.02989544 0.21229045
000030 00 25 29 be 3a 5f 21 bc 43 7b 8e 3e c3 fa 81 3e
       -0.1651802 -0.009849364 0.27828416 0.25386629
000040 c0 24 31 3e dd 80 93 bd 32 71 69 3e 50 a9 19 bf
       0.17299175 -0.07202313 0.22797087 -0.60023975
000050 a9 e3 79 bb 03 66 8e 3e b0 13 72 bd 8e 70 46 3e
       -0.003813008 0.27812204 -0.059100807 0.19378874
000060 65 d4 42 bb bd ea 43 3e 51 52 9b bd d6 9c 88 3e
       -0.0029728648 0.19132514 -0.0758406 0.26682156
000070 70 80 8d 3c 01 52 6e bf 53 f5 05 3c 78 6d 99 bd
       0.017273158 -0.9309388 0.008176166 -0.07491583
000080 7b 1b a7 3c f0 25 a2 bd d0 95 e0 bd 7d e0 84 3e
       0.020398846 -0.07917392 -0.109660745 0.2595252
000090 29 0e 91 bd b7 99 ce bd 05 ff 7e 3e e7 a2 8e bd
       -0.07082779 -0.100879125 0.2490197 -0.06964665
0000a0 6f 51 68 3e b4 c3 a1 bd 77 bb 43 3e 6c 66 67 bd
       0.22687314 -0.078986555 0.19114481 -0.05649416
0000b0 74 2e 52 bd 15 c5 1c bd 3d 78 ea be ef 4e 2c bf
       -0.051313832 -0.03827389 -0.4579486 -0.67307943
0000c0 6a e6 2b 3e 00 2f 01 bf 13 70 71 3e 44 71 6d 3e
       0.16787115 -0.5046234 0.23577909 0.23187739
0000d0 a2 32 9a 3e 7a 64 0b bf 98 c2 05 bd 51 8c 6a 3e
       0.30116755 -0.5445019 -0.032656282 0.22905089
0000e0 0c 49 84 3e 0b 2e be bd ae 3d 96 3e a4 64 91 3e
       0.2583698 -0.09286126 0.29343933 0.28397095
0000f0 99 db 27 bf 50 b9 84 3e e4 d7 4f bf 99 ce 4b bd
       -0.65569454 0.25922632 -0.811888 -0.049757574
