forecasting/midroll/dnn_model/model_1_and_3.ckpt (torch, 42759 bytes, 6 tensors)

mlp.0.weight f4 [64, 90]
-0.0077948067 -0.06506811 -0.010681466 0.0319642 0.049962442 -0.06401903 0.033868134 -0.13025759
0.01645353 0.10054912 -0.07328671 -0.044278063 0.14046288 0.13623436 -0.13943373 0.041159924
0.08898051 -0.015190998 0.12807989 0.0039888257 -0.02287227 -0.04441904 0.040642843 0.13068062
0.1522329 -0.011212094 0.023753852 0.124840446 -0.1180506 0.058962822 -0.11958284 0.04480563
0.09078832 0.084842876 -0.15128177 -0.0044004577 0.02878756 -0.07574636 0.14403775 0.0053135077
-0.04949843 -0.12756775 -0.07425507 0.045877025 0.13789694 0.09070991 0.0042642304 -0.089720726
-0.041645765 -0.08011021 0.10682072 0.091581166 -0.012339015 0.026803797 0.049593233 -0.06070633
0.037151672 -0.011941318 0.02344252 -0.015598902 0.017855672 0.032379128 0.14714739 -0.03281018
0.008018705 -0.03738574 -0.0812262 0.0095978575 0.04074805 -0.07131042 0.055553924 -0.019752234
-0.08870924 0.007797189 0.022798536 -0.12514564 0.07087695 -0.0006878475 -0.073040456 -0.14389813
-0.021659644 -0.02171394 0.10314364 0.16319625 0.0371366 0.00779685 -0.03310431 0.0007540848
0.14996974 0.1312462 0.1547157 0.18229894 -0.4120098 0.22807108 -0.50937253 0.25831312
0.4314637 0.059835892 0.000978088 -0.5295943 -0.40326932 0.41345122 -0.072656974 -0.2804062
0.13869049 -0.10049519 -0.1627793 -0.0545252 -0.26684672 -0.20990355 0.20360838 0.20141938
-0.5045291 -0.14092566 0.23275757 -0.2127085 0.25949174 -0.07223895 0.5938598 -0.23382556
0.058725383 -0.06615825 -0.030024193 -0.07954289 0.19058385 -0.115569845 0.06787374 0.26087236
0.043177977 -0.0825853 -0.0605214 0.14860643 -0.15441833 0.059621908 -0.23801848 -0.099466585
-0.06481369 0.14887314 -0.33086944 0.01512972 0.013679421 -0.38091752 -0.18923512 -0.040365364
-0.16426153 0.013972355 -0.1292607 -0.021306856 -0.10459944 -0.10948781 -0.2654185 0.03463374
0.2105245 0.10049981 -0.41449273 -0.040503815 0.2307016 0.06479733 0.0480764 0.12961195
-0.082490474 -0.293957 0.08943177 0.058973964 -0.2757839 -0.02370318 -0.122966915 -0.16721436
-0.13471101 0.24159583 -0.4427864 0.0030920818 -0.12579113 -0.26328573 0.07576234 0.18286937
-0.3251306 0.15611532 -0.18491933 -0.1762059 0.02322971 -0.024409333 0.14904478 -0.0024949634
0.124830894 -0.011325231 0.042630844 -0.04168212 -0.016566388 0.12500338 0.013568548 0.14472175
-0.113416776 -0.114123076 -0.16107364 0.15692945 -0.008014532 0.025180943 0.122233324 -0.13599934
-0.040517755 -0.00028979906 0.08592056 0.04277586 -0.017293349 -0.076240905 -0.16506207 0.059803873
0.006133368 -0.008270168 -0.11010333 -0.03475412 -0.008979988 0.08101429 -0.15248916 0.14006989
0.023310196 -0.120612465 0.1540735 -0.018249039 -0.11091558 -0.040931243 0.048765868 0.023460025
0.15825811 0.041729003 0.0033927176 0.14953642 0.04666047 -0.038526677 -0.089202054 -0.028295226
0.057788443 0.024934957 -0.09924716 0.029284006 -0.0387829 -0.08803159 0.10078315 0.14640212
-0.05676085 0.0100629395 -0.02497149 0.03883343 -0.008706852 0.030035855 -0.003787648 0.012909936
0.030997485 -0.013799621 -0.1369422 -0.07761912 0.013182564 -0.019585397 0.10670766 0.08005934
00000000: 946b ffbb 6e42 85bd 5101 2fbc e5ec 023d
00000010: 6ba5 4c3d 691c 83bd 50b9 0a3d 3f62 05be
00000020: 8ec9 863c b2ec cd3d 5817 96bd ea5c 35bd
00000030: 80d5 0f3e 0581 0b3e b7c7 0ebe 4f97 283d
00000040: 6a3b b63d aae3 78bc 6027 033e b2b4 823b
00000050: a05e bbbc bdf0 35bd 1c79 263d 24d1 053e
00000060: f1e2 1b3e eeb2 37bc 7097 c23c 59ac ff3d
00000070: 83c4 f1bd 0083 713d d9e7 f4bd 1c86 373d
00000080: 3aef b93d 1ac2 ad3d 9ce9 1abe b731 90bb
00000090: e4d3 eb3c e820 9bbd a27e 133e ef1c ae3b
000000a0: debe 4abd 1fa1 02be 0b13 98bd 8ce9 3b3d
000000b0: db34 0d3e 1ec6 b93d f5ba 8b3b 80bf b7bd
000000c0: c094 2abd d210 a4bd d2c4 da3d e88e bb3d
000000d0: 9429 4abc a393 db3c 4622 4b3d 33a7 78bd
000000e0: 5a2c 183d 85a5 43bc 870a c03c 8992 7fbc
000000f0: 0f46 923c fa9f 043d cead 163e f863 06bd
00000100: e360 033c ca21 19bd ec59 a6bd 5540 1d3c
00000110: 6de7 263d 330b 92bd 838c 633d 70cf a1bc
00000120: 31ad b5bd 907f ff3b ffc3 ba3c 2e26 00be
00000130: ef27 913d aa50 34ba 3c96 95bd 085a 13be
00000140: 916f b1bc 6fe1 b1bc f93c d33d eb1c 273e
00000150: 8c1c 183d b87c ff3b 6398 07bd c6ad 453a
00000160: ab91 193e 6765 063e cb6d 1e3e 93ac 3a3e
00000170: f3f2 d2be 778b 693e 3d66 02bf 9e41 843e
00000180: cfe8 dc3e 7b16 753d 3033 803a 7e93 07bf
00000190: 5179 cebe e1af d33e 2ecd 94bd 6791 8fbe
000001a0: e104 0e3e 6cd0 cdbd 9eaf 26be d155 5fbd
000001b0: 22a0 88be f5f0 56be b77e 503e e240 4e3e
000001c0: d228 01bf d14e 10be 0058 6e3e 42d0 59be
000001d0: 1adc 843e 04f2 93bd 3207 183f f86f 6fbe
000001e0: 078a 703d fa7d 87bd 4cf5 f5bc 62e7 a2bd
000001f0: 6a28 433e e2af ecbd 6301 8b3d 1091 853e
00000200: 64db 303d 7b22 a9bd 4ae5 77bd 492c 183e
00000210: d71f 1ebe 1a36 743d 1ebb 73be 23b5 cbbd
00000220: 0abd 84bd 3372 183e b867 a9be a5e2 773c
00000230: a61f 603c 9f07 c3be dac6 41be 2756 25bd
00000240: 2d34 28be 4eec 643c eb5c 04be b78b aebc
00000250: 3b38 d6bd 253b e0bd efe4 87be 1cdc 0d3d
00000260: bc93 573e d8d2 cd3d 6438 d4be 54e7 25bd
00000270: 0a3d 6c3e 76b4 843d c2eb 443d ffb8 043e
00000280: c4f0 a8bd 8881 96be 0128 b73d af8e 713d
00000290: 8c33 8dbe 2c2d c2bc 14d6 fbbd 3e3a 2bbe
000002a0: aff1 09be e664 773e e6b4 e2be 86a4 4a3b
000002b0: 64cf 00be 63cd 86be 4929 9b3d 1c42 3b3e
000002c0: 8577 a6be b2dc 1f3e 7e5b 3dbe 526f 34be
000002d0: 3c4c be3c 15f6 c7bc 329f 183e 8a82 23bb
000002e0: 57a7 ff3d 768d 39bc ae9d 2e3d dfba 2abd
000002f0: 3cb6 87bc e300 003e 9d4e 5e3c f031 143e
00000300: 0e47 e8bd 5cb9 e9bd 7df0 24be 1db2 203e
00000310: 624f 03bc 4448 ce3c 7755 fa3d 6943 0bbe
00000320: f2f5 25bd 2cf0 97b9 1ef7 af3d bd35 2f3d
00000330: c8aa 8dbc 3124 9cbd 0806 29be e8f4 743d
00000340: 6bfa c83b 997f 07bc db7d e1bd 565a 0ebd
00000350: cd20 13bc d2ea a53d 1e26 1cbe 7b6e 0f3e
00000360: 06f5 be3c ab03 f7bd 72c5 1d3e 027f 95bc
00000370: b527 e3bd 85a7 27bd b8be 473d 3d2f c03c
00000380: 6a0e 223e 08ec 2a3d 5b58 5e3b 1320 193e
00000390: 0d1f 3f3d 26ce 1dbd 91af b6bd 64cb e7bc
000003a0: 93b3 6c3d 6544 cc3c 1842 cbbd 03e5 ef3c
000003b0: d1da 1ebd e849 b4bd 6567 ce3d 70ea 153e
000003c0: 117e 68bd 07df 243c 0391 ccbc cd0f 1f3d
000003d0: 2fa7 0ebc c10d f63c 303a 78bb 3284 533c
000003e0: 70ee fd3c ce17 62bc 933a 0cbe c6f6 9ebd
000003f0: aefb 573c 8e71 a0bc 8c89 da3d 27f6 a33d

mlp.0.bias f4 [64]
-0.1578415 0.19197606 -0.13950405 -0.12752385 -0.13772212 -0.1584105 0.24753654 0.09573119
0.042866565 0.25332615 -0.038762074 -0.10932962 -0.027784131 0.09262251 0.18931279 0.07264686
0.19219874 -0.110763654 -0.04051143 -0.00699171 0.13282858 0.07187348 0.1744744 -0.12803362
-0.11979391 0.042556062 -0.02050466 0.12602827 -0.024549134 -0.089729786 0.11831877 -0.08613746
0.19205222 -0.0017208889 -0.014103303 0.07468572 -0.16178462 0.13247852 -0.086677656 0.2079746
0.0007075777 -0.15475352 0.05484054 -0.10148902 0.07286822 0.010892038 0.25845546 0.1174241
0.27581084 0.002051938 0.120581135 0.0075628837 0.2727708 0.1058274 0.22589664 -0.039238192
-0.14461376 0.0139999315 0.28814527 -0.0211993 0.008467733 0.13113336 0.10218663 -0.14680238
00000000: 34a1 21be 5f95 443e 26da 0ebe 9d95 02be
00000010: 0707 0dbe 5d36 22be 387a 7d3e b70e c43d
00000020: da94 2f3d f7b3 813e fbc4 1ebd 35e8 dfbd
00000030: 8c9b e3bc dfb0 bd3d 36db 413e e0c7 943d
00000040: bfcf 443e 0ed8 e2bd 50ef 25bd b71a e5bb
00000050: 3704 083e 6732 933d 6ba9 323e 3f1b 03be
00000060: 8256 f5bd 444f 2e3d 64f9 a7bc 8e0d 013e
00000070: 441b c9bc 40c4 b7bd 1c51 f23d d668 b0bd
00000080: 56a9 443e 738f e1ba 8a11 67bc d4f4 983d
00000090: deaa 25be 73a8 073e 0e84 b1bd 4bf7 543e
000000a0: bc7c 393a b577 1ebe 79a0 603d 7ad9 cfbd
000000b0: ef3b 953d 8574 323c 4654 843e 0c7c f03d
000000c0: 1437 8d3e cf79 063b 3ef3 f63d 11d2 f73b
000000d0: 9da8 8b3e 09bc d83d 7351 673e 3ab8 20bd
000000e0: a115 14be f85f 653c c787 933e 28aa adbc
000000f0: 3fbc 0a3c d347 063e 3947 d13d 5d53 16be

mlp.2.weight f4 [64, 64]
0.014398684 0.14057094 0.06337921 0.85707486 0.017061293 -0.023907814 0.034712363 0.39394283
0.03411792 0.15751584 0.049096018 -0.048893552 0.1340691 0.14182664 0.1008407 0.17489128
0.0336811 0.039605007 0.0035040826 0.02292624 0.09111253 0.43334264 -0.07931243 0.17891406
0.005170531 0.14197613 -0.10241167 0.25927654 0.44249102 0.03663083 0.26366118 0.8533812
0.20098925 0.24203473 0.38374454 0.028636524 0.049601477 0.1405431 -0.29808274 0.29183528
0.033142023 -0.061356764 0.360192 -0.008898025 -1.2011764 0.22851124 -0.07113729 0.42633784
0.111101 0.20123394 0.004724794 -0.21400894 0.19862458 0.18851435 0.21456435 0.049254294
0.49371207 -0.04030436 0.21635512 0.1973276 0.30160296 0.08178083 1.3636916 0.08199227
0.0013632681 0.0359128 0.033286862 0.83659446 0.13539888 -0.063755795 0.22735454 0.38445076
0.036787804 0.22664939 -0.051929235 0.06479248 -0.050388142 0.04650594 0.13540736 0.1684744
0.095792964 -0.0067998474 0.013530713 0.20688091 0.072832935 0.29795277 0.14839724 0.04184522
-0.01574729 0.008633771 -0.004112686 0.06893739 0.10609448 0.1647603 0.17743893 0.9173665
0.15050621 -0.0021825482 0.36610362 0.10753741 0.17643668 0.19467944 1.6824647 0.1898209
-0.035258386 -0.06627892 0.16511954 -0.024002288 0.51740587 -0.007081198 0.28225258 0.16323404
0.2971547 0.056765307 0.12918901 0.08029961 0.2254243 0.059549052 0.19067569 -0.003049304
1.6791939 0.18547906 0.20471524 -0.045195024 0.18211006 0.16766001 0.4544913 0.042331178
-0.045287702 0.09741191 -0.06484948 0.9092966 -0.06395761 0.035927843 0.17521922 0.55969167
-0.0041630957 0.11931054 0.13542481 0.0547551 0.005265251 0.092909366 0.016825456 0.078407414
0.11928007 -0.019270705 0.123988844 0.03385196 0.011692665 0.4134533 0.11343596 0.16432454
-0.024076132 0.27230844 -0.046385273 0.29274502 0.28635982 -0.017028125 0.2583269 0.91405576
0.07528225 0.022576207 0.33544317 0.009335991 0.03973152 0.055739645 -0.20861278 0.2810828
0.16696058 0.04559179 0.28856918 0.073619686 -1.1838355 0.17718107 0.0169136 0.39651918
0.041692983 0.17992671 0.10763259 -0.1704933 0.1269239 0.30949184 0.1084176 0.08275283
0.5291665 0.017055016 0.035459846 0.14241461 0.23773855 0.19154966 1.4254475 -0.009184129
-0.0283064 -0.058270037 -0.06471942 0.7029322 -0.031647295 0.08545984 0.12043885 0.39420953
0.09687818 -0.031176282 -0.028198248 -0.0066070072 -0.011585468 0.06489131 -0.075462274 0.1112118
0.119880565 0.08035298 0.09794794 0.16772719 -0.07386524 0.24176848 -0.040092427 0.15569575
0.1641203 0.11961537 -0.003722757 0.18828811 0.2836679 0.11494862 -0.02254847 0.9499585
-0.040284406 -0.0039874045 0.15615746 0.0028304048 0.050746307 0.0723831 0.6809508 0.01713163
0.07488176 -0.027104095 0.29764128 0.18310374 -0.28059712 -0.006922615 0.052805424 0.28769892
-0.015903624 0.032849304 -0.112728015 0.10320953 0.20288375 0.013220593 0.14420041 0.047880605
1.2348042 -0.050409608 0.11166776 -0.05572424 0.19092661 0.09976103 1.0778363 -0.02004619
00000000: 75e8 6b3c d4f1 0f3e f6cc 813d 4269 5b3f
00000010: 20c4 8b3c 52da c3bc 8d2e 0e3d e0b2 c93e
00000020: 3bbf 0b3d d54b 213e e818 493d 9b44 48bd
00000030: 6949 093e 013b 113e 9285 ce3d b316 333e
00000040: 31f5 093d dc38 223d c0a4 653b cfcf bb3c
00000050: 3599 ba3d 16df dd3e 8e6e a2bd 3f35 373e
00000060: 8f6d a93b 3162 113e 36bd d1bd e5bf 843e
00000070: 2f8e e23e 360a 163d 99fe 863e 3177 5a3f
00000080: 20d0 4d3e f4d7 773e 2a7a c43e 2597 ea3c
00000090: eb2a 4b3d 88ea 0f3e 4d9e 98be 6f6b 953e
000000a0: eebf 073d 3b51 7bbd 166b b83e 06c9 11bc
000000b0: 26c0 99bf dafe 693e 6db0 91bd f448 da3e
000000c0: ec88 e33d 4510 4e3e 72d2 9a3b 2925 5bbe
000000d0: 3e64 4b3e e809 413e c2b6 5b3e dfbe 493d
000000e0: d4c7 fc3e 2f16 25bd 328c 5d3e 3f10 4a3e
000000f0: b46b 9a3e b57c a73d 728d ae3f 90eb a73d
00000100: b0af b23a 4d19 133d ce57 083d 0e2b 563f
00000110: 01a6 0a3e 6692 82bd a1cf 683e bbd6 c43e
00000120: cfae 163d c716 683e c0b3 54bd ebb1 843d
00000130: cc63 4ebd 037d 3e3d 3aa8 0a3e 8e84 2c3e
00000140: 1a2f c43d 41d1 debb ecaf 5d3c 97d8 533e
00000150: 6f29 953d 448d 983e 72f5 173e e565 2b3d
00000160: 7600 81bc a974 0d3c b6c3 86bb 0c2f 8d3d
00000170: 1048 d93d edb6 283e 8db2 353e 88d8 6a3f
00000180: 4d1e 1a3e 1509 0fbb ef71 bb3e 933c dc3d
00000190: d1ab 343e 0c5a 473e 015b d73f 6960 423e
000001a0: 196b 10bd 3ebd 87bd 1915 293e 72a0 c4bc
000001b0: b674 043f 6509 e8bb 6983 903e d326 273e
000001c0: a924 983e bd82 683d 204a 043e 1f74 a43d
000001d0: a1d5 663e b5e9 733d 7d40 433e d5d6 47bb
000001e0: d3ef d63f 39ee 3d3e dfa0 513e 6b1e 39bd
000001f0: 0f7b 3a3e 11af 2b3e 15b3 e83e 7563 2d3d
00000200: 997f 39bd e57f c73d cecf 84bd a9c7 683f
00000210: 35fc 82bd 1329 133d ab6c 333e f447 0f3f
00000220: 946a 88bb 1659 f43d cdac 0a3e e246 603d
00000230: 2088 ac3b 4447 be3d 8ad5 893c 1194 a03d
00000240: 1c49 f43d 99dd 9dbc dded fd3d 5aa8 0a3d
00000250: 9792 3f3c 27b0 d33e 1d51 e83d b144 283e
00000260: 4f3b c5bc 036c 8b3e 7cfe 3dbd ade2 953e
00000270: c19d 923e 917e 8bbc 6c43 843e 8fff 693f
00000280: 952d 9a3d bdf1 b83c 35bf ab3e fcf5 183c
00000290: 85bd 223d 414f 643d 979e 55be 16ea 8f3e
000002a0: b7f7 2a3e 75be 3a3d 57bf 933e ebc5 963d
000002b0: ec87 97bf f46e 353e 648e 8a3c 9004 cb3e
000002c0: 43c6 2a3d b53e 383e 7a6e dc3d cc95 2ebe
000002d0: 57f8 013e b775 9e3e 0c0a de3d 517a a93d
000002e0: 7577 073f f6b6 8b3c 583e 113d 23d5 113e
000002f0: bc71 733e 9825 443e 1075 b63f 0779 16bc
00000300: d3e2 e7bc 90ac 6ebd 9e8b 84bd 5df3 333f
00000310: 98a0 01bd 9205 af3d a5a8 f63d d5d5 c93e
00000320: 1168 c63d 6765 ffbc 0300 e7bc 987f d8bb
00000330: fad0 3dbc bce5 843d f78b 9abd 03c3 e33d
00000340: f183 f53d 1a90 a43d ee98 c83d adc0 2b3e
00000350: a946 97bd 2892 773e f537 24bd b56e 1f3e
00000360: 270f 283e e7f8 f43d 80f9 73bb 99ce 403e
00000370: eb3c 913e 2f6a eb3d 92b7 b8bc 7b30 733f
00000380: 4301 25bd c6a8 82bb bee7 1f3e 507e 393b
00000390: 5cdb 4f3d 973d 943d cb52 2e3f a257 8c3c
000003a0: 9c5b 993d 6809 debc 7064 983e 8c7f 3b3e
000003b0: 6daa 8fbe 1bd7 e2bb 804a 583d 464d 933e
000003c0: 5148 82bc fe8c 063d f2dd e6bd 855f d33d
000003d0: c2c0 4f3e 309b 583c 46a9 133e 741e 443d
000003e0: 100e 9e3f 4e7a 4ebd 11b2 e43d 1a3f 64bd
000003f0: 4482 433e 834f cc3d 8af6 893f e837 a4bc

mlp.2.bias f4 [64]
0.21239978 0.5517753 0.3260032 0.4248817 0.5363104 0.03393541 0.13424319 -0.09642744
-0.28583947 -0.029497538 0.48959607 0.5538078 -0.09412668 -0.062541865 -0.1185758 -0.123265006
0.534986 -0.1247892 0.3395358 -0.1845123 0.026405483 0.5739367 -0.04023805 0.31572533
-0.09714727 0.44066936 0.07413523 0.038672794 0.31728306 0.40937763 -0.013174887 0.26766968
-0.049055625 -0.09161967 -0.08044385 -0.027794445 -0.12103954 0.30157802 -0.048725456 -0.096161194
0.4210687 -0.17819205 -0.05345927 -0.17798845 0.04967413 -0.15791568 0.3977707 -0.007414849
0.5968738 -0.08262389 -0.16517384 -0.17117016 -0.12156806 0.4202434 0.0026569471 0.07633831
-0.014669612 0.045433473 0.6226433 -0.083437264 -0.11178649 -0.09191314 -0.13972324 0.5842355
00000000: 547f 593e 2541 0d3f e4e9 a63e 188a d93e
00000010: a34b 093f dbff 0a3d 0c77 093e c07b c5bd
00000020: 8d59 92be d2a4 f1bc 56ac fa3e 59c6 0d3f
00000030: 7dc5 c0bd f315 80bd ded7 f2bd 5d72 fcbd
00000040: d8f4 083f 7b91 ffbd a3d7 ad3e cbf0 3cbe
00000050: 5050 d83c 84ed 123f a7d0 24bd c0a6 a13e
00000060: 26f5 c6bd 6a9f e13e 36d4 973d 5d67 1e3d
00000070: ed72 a23e f299 d13e 7bdb 57bc 000c 893e
00000080: 8dee 48bd 18a3 bbbd bfbf a4bd 2db1 e3bc
00000090: 94e3 f7bd 6f68 9a3e 5894 47bd 29f0 c4bd
000000a0: 5196 d73e fa77 36be 1cf8 5abd 9b42 36be
000000b0: 1a77 4b3d a6b4 21be 9aa8 cb3e 43f8 f2bb
000000c0: b9cc 183f b736 a9bd 5523 29be 3b47 2fbe
000000d0: adf8 f8bd 252a d73e 2d20 2e3b 4357 9c3d
000000e0: d058 70bc 7318 3a3d 8d65 1f3f 28e1 aabd
000000f0: 51f0 e4bd f53c bcbd 9c13 0fbe 7590 153f

mlp.4.weight f4 [2, 64]
-0.10273442 0.17568924 -0.09425717 0.017279437 0.03253291 -0.017832462 -0.20186952 0.114693046
-0.30683082 0.006875313 0.015822316 0.10866796 0.09686521 0.005811554 -0.10224313 0.037299898
0.20308189 0.09307919 0.04523603 0.075784415 -0.043578736 0.053104654 -0.006662902 -0.1944966
-0.07461974 0.004150094 1.1540123 -0.029928034 -0.06232144 0.03268086 0.09054657 0.015814105
0.034641292 -0.06668039 -0.010609565 0.0153145185 0.105067685 -0.06598616 0.09553194 0.015057225
-0.000725701 0.041153118 0.023660362 0.13662493 -0.011388817 0.05822669 0.2940551 0.006807574
0.28025872 0.011642024 0.002709859 0.041758668 0.042933453 0.18279527 0.027633639 0.064364426
-0.045283824 0.098357156 0.1264659 -0.011385217 0.039882462 0.034357786 -0.05581795 0.16043621
0.33984458 0.36733374 0.33864897 0.27282986 0.2901376 0.0066921255 0.44668072 -0.025013989
0.2102341 0.049753703 0.250172 0.33750078 -0.0198934 0.16831808 0.03936403 -0.067152195
0.40396926 -0.03232279 0.19414358 0.2670116 0.109984644 0.34089473 -0.043126084 0.43519408
0.043280154 0.32258672 0.13014854 0.11947061 0.368609 0.28295684 -0.016031805 0.22722596
0.010758439 -0.043145046 0.14142321 -0.034019187 0.04498303 0.35459304 -0.05548703 0.03756075
0.32701442 0.01823272 0.023104325 -0.021062514 -0.024950232 -0.025214514 0.21553908 0.110565074
0.2947645 0.1634215 -0.011240735 0.09294643 0.070444286 0.3864811 0.18909906 0.14800453
-0.037043948 -0.049333375 0.41115433 0.044541985 0.029650552 -0.041886196 0.13470413 0.25632262
00000000: 6c66 d2bd e1e7 333e e709 c1bd 9b8d 8d3c
00000010: 3b41 053d 6215 92bc e2b6 4ebe 30e4 ea3d
00000020: ee18 9dbe 4e4a e13b cd9d 813c 4f8d de3d
00000030: 4461 c63d d96e be3b d964 d1bd c7c7 183d
00000040: b3f4 4f3e 4da0 be3d 6a49 393d dc34 9b3d
00000050: 9e7f 32bd 4484 593d 7954 dabb 1e2a 47be
00000060: 3cd2 98bd 83fd 873b adb6 933f a32b f5bc
00000070: c444 7fbd 5edc 053d 7b70 b93d 958c 813c
00000080: 07e4 0d3d ba8f 88bd bed3 2dbc bfe9 7a3c
00000090: ba2d d73d c023 87bd 40a6 c33d 94b2 763c
000000a0: f83c 3eba 2c90 283d 60d3 c13c 68e7 0b3e
000000b0: 2998 3abc 1c7f 6e3d 648e 963e 1212 df3b
000000c0: 127e 8f3e 30be 3e3c e497 313b 230b 2b3d
000000d0: fdda 2f3d af2e 3b3e f15f e23c 7fd1 833d
000000e0: 887b 39bd 7a6f c93d 4780 013e 1089 3abc
000000f0: cb5b 233d c0ba 0c3d 5da1 64bd 6449 243e
00000100: 1c00 ae3e 2b13 bc3e 6663 ad3e 5bb0 8b3e
00000110: ea8c 943e 9e49 db3b 56b3 e43e 23ea ccbc
00000120: 9c47 573e 8aca 4b3d 8b16 803e e7cc ac3e
00000130: 7cf7 a2bc 935b 2c3e 2d3c 213d 1787 89bd
00000140: 0fd5 ce3e e764 04bd 93cd 463e bfb5 883e
00000150: a13f e13d c189 ae3e faa4 30bd c2d1 de3e
00000160: 8846 313d 162a a53e a945 053e 02ad f43d
00000170: 52ba bc3e b8df 903e 2255 83bc ecad 683e
00000180: 2a44 303c dcb8 30bd 3fd1 103e b457 0bbd
00000190: 2040 383d 388d b53e 5e46 63bd 4dd9 193d
000001a0: 6f6e a73e c95c 953c 4845 bd3c 4b8b acbc
000001b0: 6e64 ccbc ab8e cebc 47b6 5c3e f16f e23d
000001c0: 5feb 963e f757 273e 0f2b 38bc b35a be3d
000001d0: 1845 903d dae0 c53e 2fa3 413e 808e 173e
000001e0: 65bb 17bd cb11 4abd d282 d23e a871 363d
000001f0: b7e5 f23c dc90 2bbd e1ef 093e b83c 833e

mlp.4.bias f4 [2]
0.47204775 0.50491285
00000000: 3eb0 f13e f841 013f
