forecasting/midroll/dnn_model/model_3.ckpt (torch, 42071 bytes, 5 tensors)

mlp.0.weight f4 [64, 90]
-0.04839908 0.16852553 0.16213594 -0.1378718 0.07677153 0.08867677 -0.08121068 0.046311956
0.08067442 -0.10800623 -0.2780806 0.30880797 0.10259938 0.06284783 0.016028928 0.048995525
-0.09035084 -0.01412869 -0.045327485 0.06899367 0.1442977 -0.019429853 0.16002806 -0.09783466
0.011044797 -0.06706946 0.1045318 -0.08731611 0.04332254 -0.099186085 -0.09948884 0.049690805
0.0321215 -0.100505725 -0.15504998 0.09283797 0.043081403 -0.08954537 0.12501766 0.06726326
-0.02675634 -0.012854979 0.061631907 -0.056251757 -0.02163275 -0.06398334 0.052785866 -0.041029595
0.114360586 -0.047229428 0.073942676 0.070706114 -0.082086705 0.14857352 -0.072496705 0.10352916
-0.016656706 -0.016138082 -0.05425372 0.024155462 -0.17203362 -0.058546763 0.03856363 -0.060484856
0.13462567 0.08287037 0.15251349 0.03387781 -0.016340315 0.041199695 -0.12707828 0.06441937
0.21156295 0.053098686 0.035287626 0.124537386 0.021651618 0.11852154 0.019233765 0.27343467
0.07489819 0.13414948 0.06438436 -0.10997553 0.08350365 0.19965197 -0.022804301 0.10781301
-0.049709767 0.105105855 -0.16657718 0.064412124 0.093282305 -0.05912993 0.04318329 0.006407106
-0.06514278 0.022516213 -0.0020763983 0.0823718 -0.44560465 0.47274217 0.0726091 -0.020598682
-0.105842434 -0.020095477 -0.07400511 0.009874757 0.1078965 0.07195477 0.12065921 0.019112883
0.08851047 0.004857485 0.089676484 0.10414958 0.21020493 -0.10486482 0.03165296 -0.044730015
-0.0598072 0.15239924 0.017063353 -0.027304245 -0.100355834 -0.018022204 0.09628239 0.03252411
0.007193851 -0.017363925 0.052524984 0.06259138 -0.019471548 -0.08569997 0.036686093 0.1106476
-0.0029659541 -0.13457364 0.012551332 -0.06907993 -0.04699028 -0.020528827 0.021282563 0.019377047
-0.10242319 0.11419272 -0.080586955 -0.038950652 0.09204681 -0.12110864 -0.08257007 0.05036752
-0.0096371835 0.04982025 0.19453713 -0.03928617 0.011431913 0.08269918 0.026264906 -0.014538722
-0.058854874 0.030559234 0.18077636 0.11846178 -0.11679036 0.065348744 -0.1202099 0.0005397613
-0.032477163 0.22381082 0.085192464 -0.022051588 -0.04247631 -0.008306966 -0.07711084 0.07204494
0.10635574 0.05798723 -0.18748699 -0.049894452 0.11028709 -0.21120909 -0.2696752 0.2824179
0.015489815 -0.29576138 -0.10118377 0.09945223 -0.07021225 0.113618374 -0.20693254 0.05771321
-0.014122025 0.024087546 -0.055846173 -0.10302787 -0.15294671 -0.06296042 0.23461187 -0.17656358
0.016998563 0.032131087 0.06647567 0.10600273 0.2600507 0.013245799 0.23240048 0.0357976
0.22440878 -0.23591551 0.067316726 -0.057478935 0.09497189 -0.037584994 0.023092413 -0.014478825
-0.036164597 -0.17513041 -0.43954334 0.062133495 0.03913075 -0.2854267 0.06583324 -0.03830471
0.37471452 -0.01084545 0.12823234 -0.36196658 0.04973541 0.0012199116 0.071115434 -0.057268016
-0.053794324 -0.043544054 0.31946522 -0.16641128 0.13989414 0.13574302 -0.073374905 -0.044562712
0.023927705 -0.26602888 0.011962651 -0.06644373 -0.5100942 0.046078935 0.2505716 -0.17694405
-0.14774261 -0.012600915 -0.13661863 0.06605733 0.0048171445 0.16801356 0.05520483 0.11166423
00000000: 1d3e 46bd f591 2c3e f706 263e 442e 0dbe
00000010: 643a 9d3d 2b9c b53d c951 a6bd 9bb1 3d3d
00000020: a138 a53d 5f32 ddbd 9560 8ebe 141c 9e3e
00000030: a01f d23d 5db6 803d 194f 833c 88af 483d
00000040: dc09 b9bd 057c 67bc 50a9 39bd 8e4c 8d3d
00000050: c7c2 133e 5b2b 9fbc 65de 233e 8a5d c8bd
00000060: 3cf5 343c b75b 89bd c514 d63d cad2 b2bd
00000070: fa72 313d 1322 cbbd cec0 cbbd 9688 4b3d
00000080: d591 033d f2d5 cdbd 6cc5 1ebe d521 be3d
00000090: 2076 303d 9063 b7bd a104 003e 52c1 893d
000000a0: 1d30 dbbc b19d 52bc bd71 7c3d 3e68 66bd
000000b0: 2a37 b1bc b309 83bd fe35 583d a60e 28bd
000000c0: e235 ea3d a573 41bd 426f 973d 5ece 903d
000000d0: 131d a8bd a823 183e 2779 94bd 1907 d43d
000000e0: a573 88bc 0334 84bc 2639 5ebd ade1 c53c
000000f0: 9529 30be bbce 6fbd e6f4 1d3d f8be 77bd
00000100: 50db 093e f1b7 a93d 7f2c 1c3e 75c3 0a3d
00000110: 20dc 85bc 03c1 283d cf20 02be 4dee 833d
00000120: f5a3 583e 027e 593d c289 103d 750d ff3d
00000130: bc5e b13c 6cbb f23d 2190 9d3c a1ff 8b3e
00000140: 3964 993d 7b5e 093e f3db 833d da3a e1bd
00000150: f603 ab3d 9171 4c3e 16d0 babc 11cd dc3d
00000160: 789c 4bbd bd41 d73d 3593 2abe 81ea 833d
00000170: cb0a bf3d 3a32 72bd f6e0 303d b3f2 d13b
00000180: 9469 85bd ec73 b83c 2f14 08bb 8cb2 a83d
00000190: 4b26 e4be 430b f23e 14b4 943d 91be a8bc
000001a0: ebc3 d8bd 459f a4bc fe8f 97bd bcc9 213c
000001b0: d7f8 dc3d 065d 933d 2d1c f73d 9f92 9c3c
000001c0: fa44 b53d 8a2b 9f3b 4ea8 b73d 604c d53d
000001d0: f63f 573e 5ec3 d6bd 89a6 013d d236 37bd
000001e0: 65f8 74bd 8c0e 1c3e 72c8 8b3c 27ad dfbc
000001f0: 5c87 cdbd 4da3 93bc b42f c53d 0038 053d
00000200: 65ba eb3b ca3e 8ebc 7024 573d e92f 803d
00000210: cc82 9fbc 7783 afbd 2844 163d 359b e23d
00000220: 7460 42bb accd 09be 1aa4 4d3c c779 8dbd
00000230: e178 40bd 122c a8bc c558 ae3c 9dbc 9e3c
00000240: 40c3 d1bd dfdd e93d c60a a5bd b88a 1fbd
00000250: 0a83 bc3d cf07 f8bd 7f1a a9bd 2c4e 4e3d
00000260: 47e5 1dbc 5210 4c3d be34 473e 89ea 20bd
00000270: eb4c 3b3c 305e a93d 8029 d73c d233 6ebc
00000280: cf11 71bd 5c57 fa3c 701d 393e 179c f23d
00000290: c92f efbd 90d5 853d 9c30 f6bd c57e 0d3a
000002a0: c606 05bd aa2e 653e 6379 ae3d 88a5 b4bc
000002b0: a4fb 2dbd f119 08bc 4aec 9dbd 4c8c 933d
000002c0: 0ad1 d93d 0584 6d3d 97fc 3fbe 205e 4cbd
000002d0: 33de e13d 3247 58be de12 8abe 1499 903e
000002e0: fec8 7d3c 096e 97be 7039 cfbd 9cad cb3d
000002f0: 71cb 8fbd c0b0 e83d 20e6 53be b064 6c3d
00000300: 1160 67bc 3f53 c53c f5be 64bd 4700 d3bd
00000310: 109e 1cbe 65f1 80bd 183e 703e 15cd 34be
00000320: 9240 8b3c e39b 033d 6524 883d f617 d93d
00000330: 5e25 853e e804 593c 64fa 6d3e 81a0 123d
00000340: 6acb 653e d693 71be 5add 893d 086f 6bbd
00000350: 9f80 c23d b9f2 19bd 4d2c bd3c 9838 6dbc
00000360: 5421 14bd 6355 33be d30b e1be b17f 7e3d
00000370: 9147 203d 7323 92be 94d3 863d 66e5 1cbd
00000380: 95da bf3e 1db1 31bc 574f 033e af53 b9be
00000390: 5bb7 4b3d 71e5 9f3a f8a4 913d de91 6abd
000003a0: 7057 5cbd 405b 32bd f290 a33e b867 2abe
000003b0: 6940 0f3e 3800 0b3e 9545 96bd 6487 36bd
000003c0: 0904 c43c f034 88be fffe 433c a613 88bd
000003d0: 8995 02bf 44bd 3c3d ec4a 803e d230 35be
000003e0: d749 17be 1174 4ebc c1e5 0bbe 1149 873d
000003f0: 23d9 9d3b bf0b 2c3e 761e 623d 37b0 e43d

mlp.0.bias f4 [64]
0.10475592 0.13142902 -0.07168319 0.12529975 0.03461007 -0.025501106 0.13592333 0.1112769
0.027975144 0.070849374 0.12994422 0.039837867 -0.07557699 -0.05725671 -0.06971174 0.092545085
0.04853505 -0.112651184 0.11895582 0.04997902 0.050158307 0.11893359 0.04152242 -0.03937012
0.0022757314 0.11852371 0.02379111 0.093748815 0.061707933 0.01335833 0.036252707 -0.06798104
-0.05482953 -0.054994453 -0.069916405 -0.078313425 -0.038435142 -0.01765228 0.10446911 -0.0040023993
0.04503477 0.079710245 0.02890685 -0.051935747 0.011165358 0.04258446 -0.07778838 0.12853402
0.01896327 0.0063777133 -0.013752183 0.099516645 0.07919829 -0.10684064 0.09220886 0.024986463
-0.1171804 -0.00026796715 0.05872398 -0.007102447 0.09334182 0.03555146 0.032232948 -0.064824134
00000000: 468a d63d 5495 063e a3ce 92bd 944e 003e
00000010: 4ac3 0d3d b2e7 d0bc 7c2f 0b3e 25e5 e33d
00000020: 212c e53c 7a19 913d 1910 053e 082d 233d
00000030: 1cc8 9abd 0386 6abd 07c5 8ebd 4788 bd3d
00000040: b0cc 463d aab5 e6bd 1c9f f33d cdb6 4c3d
00000050: cc72 4d3d 7493 f33d 6a13 2a3d 9042 21bd
00000060: 7024 153b 8fbc f23d 93e5 c23c 61ff bf3d
00000070: 75c1 7c3d e6dc 5a3c b87d 143d a539 8bbd
00000080: ee94 60bd dd41 61bd 5530 8fbd ca62 a0bd
00000090: 2b6e 1dbd 849b 90bc e7f3 d53d 8f26 83bb
000000a0: 6176 383d 203f a33d 0fce ec3c 94ba 54bd
000000b0: e8ee 363c 0b6d 2e3d 844f 9fbd 6c9e 033e
000000c0: dc58 9b3c 23fc d03b d650 61bc 62cf cb3d
000000d0: b732 a23d 44cf dabd 00d8 bc3d 69b0 cc3c
000000e0: 47fc efbd f17d 8cb9 8e88 703d a5bb e8bb
000000f0: ff29 bf3d 689e 113d b206 043d 84c2 84bd

mlp.2.weight f4 [64, 64]
0.02715952 0.16434447 0.4007949 0.10147582 0.22380246 0.0449189 0.081698395 0.029944116
0.45011666 0.22820708 0.12674578 -0.037178878 0.09121587 0.19262658 0.1287073 0.19442156
0.06269149 -0.11019055 -0.049804594 0.08797138 0.11919553 -0.027758036 0.9362482 0.2949623
-0.004034439 0.094960555 0.00609492 0.080339536 0.06886266 0.13044237 0.16410556 0.30381346
-0.065135315 0.33317408 -0.038340524 -0.0666553 0.067984805 0.17637119 0.6189913 0.0868066
0.10351334 -0.043231294 0.18759798 0.18899862 0.043109097 0.009156145 0.43503186 0.29809606
-0.047839217 0.32428816 0.090399325 0.0762602 0.09175273 0.605365 0.53754926 0.15375672
-0.0023238482 0.19797163 0.14851266 -0.036566116 0.15885146 -0.022542803 -0.009453344 0.18642366
0.17441341 0.11493213 0.27801457 -0.02274735 0.059778858 0.049387544 0.06207629 0.1174812
0.26090607 0.31530714 0.16372213 0.14326872 -0.060292765 0.059701134 0.07458553 0.028280511
0.13444807 0.023082333 -0.03509333 0.20844392 0.12669238 0.15068372 0.7534506 0.35228187
0.087764196 0.055485975 -0.026895937 -0.023816101 0.120608136 0.13705294 0.14253293 0.32204124
-0.07236358 0.25542066 0.038793106 -0.00956543 0.06662351 -0.020061485 0.4597328 0.18388382
0.010238234 0.16662009 0.073021315 0.2945899 0.0128131835 -0.08437039 0.5428511 0.26987982
-0.033013895 0.46901003 0.13455907 0.14863075 0.123406135 0.54095614 0.6277454 0.054756347
-0.031919856 0.41255063 -0.008715194 -0.027349604 0.023810742 0.14389716 -0.07979839 0.14630672
0.03481378 -0.08793667 -0.016566925 -0.15374759 0.059662312 -0.0172901 -0.006218374 0.0216483
0.008598671 -0.123048164 -0.13328153 -0.00586673 0.08415453 -0.05515258 -0.059686303 0.07002917
-0.057145767 -0.049629055 0.021599075 0.07540739 -0.03025254 -0.039582673 -0.052960396 -0.042245742
0.06606425 -0.03831059 0.047560666 0.021284126 -0.057809044 -0.05738045 -0.06886954 -0.12003905
-0.13548493 0.0052459263 -0.04107764 -0.10969524 -0.15596342 0.030902252 0.061292894 0.03277798
0.040370636 -0.011566961 -0.08118172 0.022045067 -0.12383554 0.018139632 0.03748661 -0.08497452
-0.06614966 0.07845542 -0.09790583 -0.013332858 -0.012544129 -0.00051072513 -0.033065822 -0.09745108
0.042210657 0.077658035 -0.12000901 -0.102966234 -0.1127597 0.04877616 0.07164117 0.086037785
0.15001503 0.13579108 0.2721328 0.1318572 0.21649413 0.12681961 -0.021828866 -0.003614534
0.22098196 0.32806826 0.030978894 -0.049496114 0.04062813 -0.020105204 0.020246523 0.20180668
0.17237633 -0.021640794 0.1471216 0.12323587 0.059638545 0.089175284 0.84639156 0.3368065
-0.023008695 -0.053852994 0.13741577 -0.08917773 -0.018395327 0.130138 0.07404117 0.27744335
-0.044088528 0.22745882 0.08276797 0.11182212 -0.0033675928 0.12708375 0.5218327 0.09928365
0.08023841 -0.04764356 0.09828511 0.07617423 0.14403243 -0.020520251 0.5359006 0.36719516
-0.05164032 0.29793814 -0.009306737 -0.0074110217 0.042156607 0.45128268 0.52025294 0.14716645
0.017665284 0.20190378 -0.014771053 0.076286666 0.03592743 0.15948065 0.0033062443 0.13581252
00000000: a47d de3c eb49 283e fd34 cd3e 8ed2 cf3d
00000010: 792c 653e e1fc 373d 7d51 a73d 5d4d f53c
00000020: b175 e63e 1eaf 693e a5c9 013e e148 18bd
00000030: 63cf ba3d e73f 453e d9cb 033e 7216 473e
00000040: 6564 803d 95ab e1bd e7ff 4bbd 572a b43d
00000050: c91c f43d d264 e3bc f6ad 6f3f 4c05 973e
00000060: 5433 84bb ae7a c23d e5b7 c73b 0e89 a43d
00000070: de07 8d3d af92 053e 4a0b 283e 708d 9b3e
00000080: aa65 85bd cb95 aa3e f40a 1dbd 9382 88bd
00000090: 9e3b 8b3d a69a 343e 3776 1e3f a9c7 b13d
000000a0: cdfe d33d 4c13 31bd af19 403e db88 413e
000000b0: 2a93 303d a803 163c 7fbc de3e 0ca0 983e
000000c0: 0ef3 43bd 1909 a63e 4823 b93d 4f2e 9c3d
000000d0: dbe8 bb3d 33f9 1a3f d49c 093f 6772 1d3e
000000e0: b44b 18bb 13b9 4a3e b413 183e 5ac6 15bd
000000f0: f5a9 223e afab b8bc 33e2 1abc d8e5 3e3e
00000100: 6e99 323e 8961 eb3d ed57 8e3e a758 babc
00000110: adda 743d 984a 4a3d b543 7e3d fc99 f03d
00000120: 7b95 853e f06f a13e c6a6 273e 09b5 123e
00000130: 8cf5 76bd 2d89 743d 4cc0 983d 88ac e73c
00000140: c1ac 093e 2917 bd3c 06be 0fbd 5372 553e
00000150: a6bb 013e d54c 1a3e 23e2 403f 4a5e b43e
00000160: b7bd b33d 4345 633d de54 dcbc fc19 c3bc
00000170: 6601 f73d 9b57 0c3e 27f4 113e 97e2 a43e
00000180: 5b33 94bd 7fc6 823e 85e5 1e3d 52b8 1cbc
00000190: e871 883d fc57 a4bc 1962 eb3e 0a4c 3c3e
000001a0: 44be 273c 759e 2a3e 338c 953d 7dd4 963e
000001b0: 63ee 513c 62ca acbd 4af8 0a3f b02d 8a3e
000001c0: 9439 07bd 1522 f03e dac9 093e a932 183e
000001d0: 5bbc fc3d 1a7c 0a3f ecb3 203f 3148 603d
000001e0: 65be 02bd d639 d33e 2cca 0ebc 470c e0bc
000001f0: bf0e c33c c759 133e 576d a3bd 6ed1 153e
00000200: e598 0e3d 2418 b4bd 5cb7 87bc 0270 1dbe
00000210: 7860 743d f8a3 8dbc 80c3 cbbb c757 b13c
00000220: 71e1 0c3c ad00 fcbd f47a 08be b33d c0bb
00000230: 3659 ac3d ace7 61bd a079 74bd 746b 8f3d
00000240: ae11 6abd d647 4bbd 8bf0 b03c 316f 9a3d
00000250: 2dd4 f7bc 7121 22bd 00ed 58bd df09 2dbd
00000260: b24c 873d 91eb 1cbd f9ce 423d 0c5c ae3c
00000270: 2dc9 6cbd c307 6bbd 790b 8dbd 09d7 f5bd
00000280: 90bc 0abe 05e6 ab3b 0741 28bd e6a7 e0bd
00000290: e0b4 1fbe b826 fd3c 420e 7b3d 3442 063d
000002a0: ae5b 253d 5a83 3dbc 9a42 a6bd db97 b43c
000002b0: 7d9d fdbd 9199 943c 8f8b 193d 1f07 aebd
000002c0: 7979 87bd 3cad a03d da82 c8bd 0f72 5abc
000002d0: e485 4dbc 2fe2 05ba 0770 07bd 6f94 c7bd
000002e0: 15e5 2c3d 2d0b 9f3d 49c7 f5bd f6df d2bd
000002f0: 8fee e6bd 83c9 473d 9bb8 923d 9434 b03d
00000300: 8a9d 193e d10c 0b3e fe54 8b3e 9305 073e
00000310: a3b0 5d3e 00dd 013e 73d2 b2bc d1e1 6cbb
00000320: 1849 623e 90f8 a73e 73c7 fd3c 70bc 4abd
00000330: af69 263d abb3 a4bc 09dc a53c 69a6 4e3e
00000340: 6c83 303e 0948 b1bc 0ba7 163e 1663 fc3d
00000350: 8c47 743d 88a1 b63d 1ead 583f e771 ac3e
00000360: bb7c bcbc f594 5cbd b8b6 0c3e d0a2 b6bd
00000370: ccb1 96bc e542 053e e6a2 973d 0e0d 8e3e
00000380: 2c96 34bd f7ea 683e 4182 a93d ff02 e53d
00000390: d5b2 5cbb 3e22 023e d496 053f 3a55 cb3d
000003a0: 0954 a43d e525 43bd b449 c93d 3c01 9c3d
000003b0: 3d7d 133e 161a a8bc c830 093f 0101 bc3e
000003c0: cd84 53bd 598b 983e 497b 18bc 28d8 f2bb
000003d0: 68ac 2c3d 860e e73e 4c2f 053f cdb2 163e
000003e0: c9b6 903c ddbf 4e3e 4902 72bc 2f3c 9c3d
000003f0: a428 133d e54e 233e 93ad 583b 7012 0b3e

mlp.2.bias f4 [64]
0.034257025 0.016661633 0.005551815 0.031020215 0.06046696 0.027649675 -0.03809663 0.15573385
-0.15838914 0.050586965 -0.059892714 -0.052103836 0.03634293 0.07139198 0.00039717858 -0.015262565
0.09215076 0.08920214 -0.055917118 0.023342917 -0.093300216 0.095965095 0.13074613 0.17206144
0.08476618 -0.013597754 -0.060918238 0.13058482 -0.08326595 -0.09018004 0.05091313 -0.011037092
0.16826133 -0.10782257 -0.0822151 0.04239252 -0.08650654 0.013151785 -0.08120021 0.08740561
-0.110297374 0.09365647 -0.07767315 0.20526102 0.05002055 0.22689165 0.097645186 0.14200976
0.016743623 0.012364706 0.22972876 0.16201793 0.097881235 -0.068485394 0.08828377 -0.07489946
0.103860125 -0.043985344 0.03292936 0.014397604 0.16095494 -0.062321708 0.051230397 -0.039057612
00000000: 1851 0c3d fa7d 883c 00ec b53b 1b1e fe3c
00000010: 34ac 773d 9281 e23c 360b 1cbd b278 1f3e
00000020: c330 22be 4734 4f3d 1052 75bd d56a 55bd
00000030: 53dc 143d f535 923d 683c d039 d60f 7abc
00000040: 8ab9 bc3d 9daf b63d 5909 65bd a539 bf3c
00000050: 2f14 bfbd 5989 c43d 50e2 053e e030 303e
00000060: e499 ad3d 1dc9 5ebc 6785 79bd 07b8 053e
00000070: 5787 aabd 50b0 b8bd 498a 503d ebd4 34bc
00000080: b34c 2c3e 14d2 dcbd 6460 a8bd c7a3 2d3d
00000090: 572a b1bd 967a 573c 4c4c a6bd b601 b33d
000000a0: 97e3 e1bd f7ce bf3d 1a13 9fbd f22f 523e
000000b0: 59e2 4c3d 4956 683e 33fa c73d 026b 113e
000000c0: ec29 893c 5695 4a3c 043e 6b3e 07e8 253e
000000d0: f575 c83d 1242 8cbd 1fce b43d e364 99bd
000000e0: 9eb4 d43d fa29 34bd f0e0 063d eee3 6b3c
000000f0: 5fd1 243e 0c45 7fbd f7d6 513d e0fa 1fbd

mlp.4.weight f4 [1, 64]
0.22571325 0.2873813 -0.10518046 0.22358921 -0.57335603 0.17151569 -0.074471794 0.20327383
-0.09970615 0.18945491 0.19620258 0.2049674 0.27746144 0.25084135 -0.014201007 0.16230056
0.26910987 -0.022459911 -0.07324758 -0.654744 0.31600073 0.1151346 0.18220095 -0.20998809
0.21456122 -0.05376419 -0.1019968 0.23749292 -0.0938305 -0.043849684 0.2573288 0.23289183
0.1709469 -0.035190657 0.2155118 0.18317625 -0.0005596939 0.17107014 -0.058155086 -0.07895488
-0.06989705 0.2726712 0.26171806 -0.716923 0.17564367 -0.5158953 -0.37119496 0.206524
0.23731002 0.1708445 -1.0072138 0.24146977 0.29173493 0.2547734 0.018145321 0.25002113
0.18617095 0.27826118 0.23400097 0.18234514 0.15744 0.23189145 -0.050849136 0.19143955
00000000: 6021 673e a423 933e da68 d7bd 92f4 643e
00000010: 76c7 12bf cfa1 2f3e ab84 98bd 0427 503e
00000020: bd32 ccbd 7800 423e 54e9 483e f9e2 513e
00000030: 6d0f 8e3e 476e 803e 57ab 68bc 1e32 263e
00000040: c5c8 893e d9fd b7bc d402 96bd 4e9d 27bf
00000050: d9ca a13e b0cb eb3d e392 3a3e 1e07 57be
00000060: f0b5 5b3e d737 5cbd b3e3 d0bd 5831 733e
00000070: 352a c0bd ba9b 33bd 9ac0 833e 327b 6e3e
00000080: b40c 2f3e 1424 10bd 20af 5c3e 8e92 3b3e
00000090: 6cb8 12ba 032d 2f3e 0734 6ebd 19b3 a1bd
000000a0: 2f26 8fbd 8f9b 8b3e e9ff 853e 4488 37bf
000000b0: efdb 333e b711 04bf 440d bebe 077b 533e
000000c0: 6601 733e dcf1 2e3e 62ec 80bf da43 773e
000000d0: 485e 953e a971 823e 7fa5 943c c502 803e
000000e0: 99a3 3e3e 4078 8e3e f39d 6f3e afb8 3a3e
000000f0: f437 213e f474 6d3e 2f47 50bd bb08 443e
