forecasting/midroll/dnn_model/model_3_ofac2023.ckpt (torch, 42527 bytes, 5 tensors)

mlp.0.weight f4 [64, 90]
000000 89 b2 89 3d 12 69 2d 3d 80 47 ce bb d0 4f 95 3b
       0.06723506 0.04233653 -0.0062951446 0.0045566335
000010 b5 1f 84 3d 64 c3 eb bc 66 43 4e 3d 6c 5d 99 bc
       0.0645136 -0.028779693 0.050357245 -0.018721305
000020 4c 9a 9c bc 71 b3 a2 3d 02 12 79 bd 00 60 38 bd
       -0.019116543 0.07944382 -0.06080819 -0.045013428
000030 dd 6d 53 bd f8 1c c3 bc 00 55 9b bb b1 d8 c3 3d
       -0.051618446 -0.023817524 -0.0047403574 0.09562815
000040 60 a4 66 3b f0 48 d5 bc 58 73 b1 bd c0 29 7c 3c
       0.003519319 -0.026035756 -0.08664578 0.015390813
000050 9f a2 99 3d 41 70 93 3d 40 45 03 bc 19 15 d3 3d
       0.07501721 0.07199145 -0.008012116 0.103067584
000060 d7 d6 b9 3d 40 f5 9d 3c c5 b6 81 bd a0 a6 fa bb
       0.090741806 0.019281983 -0.06333689 -0.007649258
000070 0a 18 22 bd 46 70 d2 bd b3 bf c2 bd e3 17 91 3d
       -0.039573707 -0.10275321 -0.0950922 0.07084634
000080 d4 24 bd 3c 00 e9 9d 3c 43 41 52 bd c8 1b 73 3c
       0.02308885 0.019276142 -0.05133177 0.014838167
000090 80 ef 74 ba f4 83 d2 3c 7d 0f a8 3d 47 89 ad 3d
       -0.00093435496 0.025697686 0.08206079 0.08473449
0000a0 6a 8e 46 bd 3c f6 f7 3c 39 61 97 3d 4e dc 54 3d
       -0.04847566 0.03026878 0.073915906 0.05196791
0000b0 1a 92 1c 3d db 56 b1 3d 6c 5b 89 bd e8 e3 8b 3c
       0.03822527 0.086591445 -0.067068905 0.017076448
0000c0 74 01 9c bc d6 53 17 3d cf ae 96 3d 3e fe 04 3d
       -0.019043662 0.036945187 0.07357561 0.032469027
0000d0 5c 6c cd bc 80 87 10 ba c0 0b 8e 3c c7 17 a9 3d
       -0.025076084 -0.0005513355 0.017339587 0.08256488
0000e0 6c 39 db bc 90 aa 92 bc 5d 2f b4 3d a0 e9 bf bc
       -0.02676078 -0.017903596 0.08798096 -0.02342683
0000f0 60 5c 61 3b 92 66 d1 bd ee 9f 67 3d c8 04 18 bd
       0.0034387335 -0.10224642 0.056549005 -0.037113935
000100 1c 35 b8 3c 3f 1d 90 bd 00 4e 3f 3b 10 17 97 3c
       0.022486262 -0.07036828 0.0029190779 0.018443614
000110 60 85 87 bc e4 dc ac bc 90 44 db 3b 64 56 b1 3c
       -0.01654309 -0.021101423 0.006691523 0.02164764
000120 63 91 a4 3d f1 84 7a bd 47 80 a0 3d 3c 95 8f 3c
       0.08035543 -0.06116194 0.07836967 0.017527215
000130 0c a6 f8 bc 4d 5b ce 3d a2 dc 08 3d 12 a1 64 bd
       -0.030352615 0.10076008 0.033413537 -0.05581767
000140 61 67 a5 bd 4c 4b 8b bd fc 6b 7d bd 53 55 c9 3d
       -0.080763586 -0.06801471 -0.06187056 0.098307274
000150 6f f8 c5 3d 1b 3f a7 3d 36 7c 27 3d 76 5d 6f 3d
       0.096665256 0.08166333 0.04088994 0.05843874
000160 1a 49 2a bd 72 87 8a bd 1c f5 b0 bc 62 ad 32 be
       -0.04157362 -0.067641154 -0.021601252 -0.17448953
000170 59 2d b9 3d 17 ab b0 bd db 29 8c 3c 7b a6 0b be
       0.090418525 -0.08626383 0.017109802 -0.13637726
000180 3b 88 b2 3c a7 17 48 3c 1c 8f 21 be e3 6e 5e bd
       0.021793475 0.01221267 -0.15777248 -0.05430497
000190 b3 19 79 bd 23 a7 b1 3d 7b 43 dd bc a4 01 31 be
       -0.060815524 0.08674457 -0.027009716 -0.17285782
0001a0 b5 0b c3 bd b2 08 e2 bd 08 6a 6c bc 2f 32 02 be
       -0.09523717 -0.11036815 -0.014429577 -0.12714456
0001b0 bd 16 10 be ec fb d7 3d 0e fe 35 be 9b 37 46 be
       -0.14071174 0.10546097 -0.17772695 -0.1935715
0001c0 ed fb ec 3c 5e 41 8d bd e0 25 ad 3d 4c 65 a1 3d
       0.028928721 -0.068972334 0.0845449 0.07880649
0001d0 54 9c 47 3d ed ac c2 bc d7 28 b4 3d eb 60 80 3d
       0.04873307 -0.023764098 0.08796852 0.06268486
0001e0 a6 30 70 3d a9 72 4b 3c 5e e2 49 bd 0c b3 15 3e
       0.058640145 0.012417474 -0.049288146 0.14619082
0001f0 78 0c 7d bd 92 ca 44 3d 0f 7b e7 bc b8 f8 ed bd
       -0.06177947 0.04804475 -0.028256921 -0.11619705
000200 bf 44 2e 3e 5c 1b 14 bd 2c 8f c0 bc a1 56 00 be
       0.17018412 -0.036158904 -0.02350577 -0.12533046
000210 89 57 0c be 34 31 68 bd e3 4f ab 3c 07 2c 52 bd
       -0.13705267 -0.05668755 0.020912116 -0.05131152
000220 50 1a bc 3a c0 17 c8 b9 21 ea 13 3e 5e 1d 5a 3e
       0.0014351103 -0.00038164668 0.14444782 0.21300265
000230 7e 84 99 bd 2a 8b 87 3d e9 fe f6 bd 07 c0 90 bd
       -0.07495974 0.0661834 -0.12060339 -0.07067876
000240 b2 b5 ce 3d 28 46 1d 3d e2 5c 18 be 88 50 3a be
       0.100932494 0.038396984 -0.14879182 -0.18194783
000250 06 66 0f 3e cd 22 a8 3d d8 41 5d 3d de eb b4 bd
       0.14003763 0.08209763 0.05401787 -0.088340506
000260 1e 3f 2f be 83 c9 bb bd 8c 63 59 3e 66 c5 71 bc
       -0.17113921 -0.09169295 0.2122938 -0.014756536
000270 22 b8 aa 3c d0 68 93 3d 66 c3 9c bd 15 e4 0e be
       0.020839754 0.07197726 -0.07654457 -0.13954194
000280 a3 f0 28 be 72 b0 15 3e 43 90 28 3d 15 b7 0f 3e
       -0.16498046 0.1461809 0.041153204 0.14034684
000290 76 a7 95 bd 4b 0d c7 bd 6b d0 10 be 3a a1 0c 3e
       -0.07307331 -0.09719332 -0.14142005 0.13733378
0002a0 6e e6 70 be 6f 87 15 3e 9d 0f 20 bc 49 52 00 3e
       -0.23525402 0.14602445 -0.0097693475 0.1253139
0002b0 19 1f cc 3d d1 c3 d4 3d 35 89 a5 3b 66 07 d5 3d
       0.09966869 0.103889115 0.0050517567 0.10401802
0002c0 a7 0b 9c 3c 81 68 b9 bb 63 c5 ab 3d 2f 59 1a 3e
       0.019048525 -0.00565821 0.08387258 0.15073083
0002d0 4c 6e 00 3b d9 cd b8 bd 2e cb ec bd f5 47 cb bd
       0.0019596992 -0.09023637 -0.11562191 -0.09925834
0002e0 3e be 14 3c 26 83 8d 3b f4 02 67 bd 86 e3 9b bc
       0.00907856 0.0043186126 -0.0563993 -0.01902939
0002f0 4f d3 38 be 08 91 2c bd e3 44 07 3e 1e a8 a8 3d
       -0.18049358 -0.0421305 0.13209872 0.08235191
000300 79 01 b6 bd fe 90 eb bc 08 3d f6 3c 68 db e8 bc
       -0.08887 -0.028755661 0.030058399 -0.028424934
000310 f2 ed e3 3d ca a0 42 be 0d a4 e7 bc dd 08 36 3d
       0.11129369 -0.19006649 -0.028276468 0.044442046
000320 0d b0 d6 bd 83 56 e1 bd cf ea 0e 3d f6 a9 29 3c
       -0.10482798 -0.11002829 0.0348919 0.010355463
000330 a4 2f 92 3e da 24 5a 3e c7 44 3e 3d 66 e1 70 3d
       0.28551972 0.2130312 0.04645231 0.058808707
000340 05 df 99 3d b7 ab f8 3d 38 c7 89 bd 56 a2 71 3c
       0.07513241 0.12142127 -0.06727451 0.014748177
000350 a2 cf 9b bd 66 d2 53 3e 19 6f 58 bd 5c 63 0f 3d
       -0.07607962 0.2068573 -0.052840326 0.035006866
000360 0a e0 a8 3d 44 b0 a8 bc 42 d3 06 3c bf c6 9c 3d
       0.08245857 -0.020591862 0.008229079 0.07655095
000370 18 c4 ff 37 16 cc 1e be b1 ca ff bd 9c 18 84 3d
       3.0489682e-05 -0.1550754 -0.12489832 0.06450006
000380 36 6e bf bd b3 ce 36 3d 69 9c 93 3d ed 99 e3 3d
       -0.09347193 0.044630717 0.07207567 0.111133434
000390 ad c9 3d 3d ec b2 f6 3d b4 35 bd bd c2 b2 ba 3d
       0.04633491 0.120458454 -0.09238759 0.091161266
0003a0 ae 35 51 3c f5 8b 1e bd 26 73 37 3d 51 f7 77 bc
       0.012769146 -0.038707692 0.04478755 -0.015134648
0003b0 b8 56 b7 3d ad d5 11 be c9 d0 5e 3c 5e 3b 16 be
       0.08952087 -0.14241667 0.013599583 -0.14671084
0003c0 98 68 a6 3d 16 da fb bc 27 04 26 be 49 11 90 bd
       0.081254184 -0.03074364 -0.16212521 -0.07034547
0003d0 aa 5d 60 3e ef 99 16 bd 79 ed 2e 3e bb c9 4b 3e
       0.2191073 -0.036767896 0.17082776 0.19901173
0003e0 97 1a 9a bd 15 25 ce bc d9 90 90 3c 55 91 02 3e
       -0.07524603 -0.025164166 0.017647194 0.12750752
0003f0 fe 3f a1 3c c8 94 87 3d 3c 2c a3 bd 9e 6d 0b be
       0.019683834 0.06620175 -0.079674214 -0.13616034

mlp.0.bias f4 [64]
000000 4c 79 fa bc 53 f1 0a 3e ff 25 1b 3e a6 1e 10 3e
       -0.030575417 0.1356862 0.15151213 0.14074191
000010 5e fd dd 3d cb 6c c1 bd 08 d1 b9 bd 02 78 f2 bc
       0.108393416 -0.09444579 -0.09073073 -0.02959824
000020 ea 09 fc bd 63 11 b9 bd 1e 68 52 bd 7c b0 e2 bd
       -0.123065785 -0.090365194 -0.051368825 -0.11068818
000030 20 e3 bb bd d8 a8 9c bd eb b8 5f bd 2a 32 53 bd
       -0.0917418 -0.07649392 -0.05461971 -0.051561512
000040 cb 10 3f bc f5 0a 34 3d 71 3f d1 3d 42 bc 02 3e
       -0.011661719 0.043955762 0.102171786 0.12767127
000050 97 24 73 3c 33 c0 ac 3d 89 a1 3f 3b 69 4b 71 bc
       0.014840267 0.084350966 0.002924057 -0.014727452
000060 58 ff ef 3d ff b4 04 3e 46 12 db bc f9 2a 0d 3e
       0.11718625 0.1295967 -0.026742112 0.13785924
000070 95 78 b5 3d e4 5e 98 3c 6d 5f 67 3d 0e fc 55 3d
       0.0886089 0.018599935 0.05648749 0.05224233
000080 c1 30 5f 3d 4d fb 84 3b 7d 2e 04 bd 95 0a ca 3c
       0.054489855 0.0040582777 -0.032270897 0.024663249
000090 12 ee cb bd db f3 a2 3c 60 6e 06 3e af 76 0c 3e
       -0.09957518 0.01989167 0.13128042 0.13717149
0000a0 4e 76 43 bd 6e 5f b2 3d e8 1d 02 3e 3f 7f d2 bd
       -0.047720246 0.08709608 0.12706721 -0.102781765
0000b0 08 2d 61 bd fc 28 4e 3d f7 44 0c 3e 3f 7d 6d 3d
       -0.054974586 0.050332054 0.13698183 0.057980772
0000c0 d1 e2 ce bc 04 fe 01 3e 5b d6 b2 3c 2e 7d 86 3c
       -0.025254639 0.12694556 0.021830728 0.016417112
0000d0 1c 7a fe 3d 05 dc 5c 3d cf 89 24 bb e8 23 0f 3e
       0.12425634 0.053920764 -0.0025106554 0.13978541
0000e0 f7 34 bc bd 89 b9 d6 3d 2b d4 cd bc 32 58 68 3c
       -0.0918979 0.10484607 -0.025125584 0.014181184
0000f0 d9 02 a7 bc ba 39 36 bd bb 21 b4 3d 3c ec a6 3d
       -0.0203871 -0.044488646 0.08795496 0.08150527

mlp.2.weight f4 [64, 64]
000000 16 11 89 bd c2 68 07 3d 90 40 51 bd 68 5e 85 3d
       -0.06692712 0.03305889 -0.051086962 0.06512147
000010 26 26 36 3d fa 6e f8 3e e8 1b 8b 3e e6 53 c6 3d
       0.044469975 0.48522168 0.27169728 0.09683971
000020 a2 98 12 3f d7 26 f6 3e 93 f3 86 3e c5 4d 3f bf
       0.5726415 0.48076507 0.26357707 -0.7472804
000030 06 3e ce 3e 01 99 a6 bd 22 d4 0d bf 37 06 eb 3e
       0.40281695 -0.08134652 -0.55401814 0.4590318
000040 00 25 38 3e d3 2b 47 3d 28 3d 8a bd e5 5d bf 3d
       0.17982864 0.04862578 -0.06749946 0.09344081
000050 bd 69 f0 3d 31 cc a7 bd 20 ee 19 bd de 3f 16 3c
       0.11738918 -0.08193243 -0.03758061 0.009170501
000060 5a 69 d0 3d dd e8 a0 3d ec dc e9 3d 4d bf 68 bd
       0.10176344 0.07856915 0.11419091 -0.056823064
000070 aa d9 8a bd f6 90 a1 3d 2a c2 b4 3d b1 5d f1 bb
       -0.067797974 0.07888977 0.08826096 -0.007365905
000080 d1 bf 3d 3e 63 7f e9 3e 6c 26 1e 3d 0e f7 64 3f
       0.18530203 0.45605 0.03861086 0.89439476
000090 35 df b6 bd f7 5b 94 bd 30 61 e0 3d f3 58 50 bc
       -0.08929292 -0.072441034 0.10956037 -0.01271652
0000a0 70 8c 89 bd 52 2e a4 3e 84 0d bd bc d4 bf b0 3e
       -0.067162395 0.3206659 -0.023077734 0.34521353
0000b0 7a 78 30 3f 1d ea 37 3e 5d 47 18 3d aa d9 f3 3d
       0.6893383 0.17960401 0.037177432 0.119067505
0000c0 21 68 14 3e a2 ab 0a 3e a5 14 16 3e c6 65 0c 3e
       0.14492847 0.13542035 0.14656313 0.13710698
0000d0 c8 fa d7 bb 36 46 bd 3d 8e 69 5c bd c8 56 b8 bc
       -0.0065911748 0.09241907 -0.053811602 -0.022502318
0000e0 1d 92 9b bd 66 ab c8 3d dc bb 24 bf ae 64 91 3d
       -0.07596228 0.09798317 -0.6434915 0.07099281
0000f0 23 00 f3 3d 62 e2 2b 3d f4 42 97 3e b9 ca b2 3e
       0.118652605 0.041963942 0.2954327 0.3492029
000100 14 a3 b4 3d ba 3c 63 3d 8f a1 06 3b 63 cd 3e 3d
       0.08820167 0.055477835 0.0020543074 0.04658259
000110 67 44 35 3d 0f 68 e7 3d 99 d1 32 bd b9 b7 a4 3d
       0.044254687 0.112991445 -0.04365692 0.08042855
000120 34 03 77 bd d1 c9 76 bd 83 b3 f8 3c cd 9d 5d 3d
       -0.06030579 -0.06025106 0.030359035 0.05410557
000130 ba 50 a9 3d 54 10 3e 3d b4 3b 22 bd f2 7f ee 3d
       0.082673505 0.04640229 -0.03960772 0.116454974
000140 42 0c 3f bd d0 e9 2e 3d b0 6f cf 3c e7 f7 e4 bc
       -0.04664255 0.04270345 0.025321811 -0.02795024
000150 f4 7c e6 bc 02 2b f7 bd 21 f9 07 be 10 cf c9 3d
       -0.028135754 -0.1206875 -0.13278629 0.09853947
000160 05 0b 11 3d db cc 4d 3c 60 53 21 bc 88 65 ee bc
       0.0354109 0.012561048 -0.009846538 -0.029101148
000170 e4 ee 10 be 8d 39 f4 bd 04 b8 15 be 36 ea ca 3d
       -0.1415363 -0.119250394 -0.14620978 0.099079534
000180 50 00 d1 3d c6 e6 83 3d 43 c0 c3 bc 93 bf 8e bb
       0.10205138 0.06440501 -0.023895388 -0.0043563335
000190 c7 37 67 bd fd 7b 9a bd 9e bc 5d 3d 10 6f ab 3b
       -0.056449678 -0.0754318 0.054134957 0.0052317455
0001a0 2a 43 99 bd 16 33 bf 3d 28 3d 05 be 7e 78 91 bd
       -0.07483514 0.09335916 -0.1301161 -0.0710306
0001b0 aa 66 9a 3d d6 b4 c6 bd 62 8e 2d 3b a2 68 49 bd
       0.07539113 -0.097024605 0.0026482572 -0.04917205
0001c0 f2 72 bd bd ea 4f da bc a0 0a 8d 3c d8 6f 98 3c
       -0.0925044 -0.026649434 0.01721698 0.018608019
0001d0 98 ad e7 3c 54 5c 43 3d 01 41 6c 3d 8a 86 71 bd
       0.028281018 0.047695473 0.05767918 -0.058966197
0001e0 c8 5a e8 bb 29 96 d0 bd 85 8f f0 bd 60 d2 45 bd
       -0.0070909 -0.10184891 -0.11746124 -0.048296332
0001f0 d5 91 b4 3d 59 7b 63 bd df 3d 01 be 5b 11 9a 3d
       0.08816878 -0.055537555 -0.12621258 0.075228415
000200 84 0a e1 3d 86 df a1 bc 61 51 fa 3c 9f 49 dd 3d
       0.10988334 -0.019759905 0.030556383 0.10805058
000210 15 6f db 3d c0 6b e4 3e ad 3a a6 3e 31 e9 d9 3d
       0.107145466 0.44613457 0.3246664 0.10640181
000220 3f 41 36 3f fd cb f5 3e ef f2 b3 3e ab 4b 34 bf
       0.7119331 0.48007193 0.3514628 -0.7042796
000230 62 85 e6 3e a6 47 89 3d 08 7c 1d bf ef a1 ae 3e
       0.45023638 0.06703119 -0.6151738 0.3410792
000240 20 34 6f 3e 8c c1 5d 3d 36 9c c3 bc 21 49 ee 3c
       0.23359728 0.05413966 -0.023878198 0.029087605
000250 eb c0 9d bd f6 0b f3 bc df 3f dd 3d 03 d3 27 3d
       -0.07702812 -0.02966879 0.10803198 0.04097272
000260 b5 2c 8b bc 3a 10 82 bc df 8e 61 bd 15 4b b2 3d
       -0.016989091 -0.015876878 -0.055067893 0.08705727
000270 cf 7e 7d bc eb d1 97 3d c6 64 11 bd e2 35 06 3e
       -0.015472128 0.074130856 -0.035496496 0.13106492
000280 4c 19 21 bc 21 3a 17 3f d4 1b 4a 3c 05 c1 59 3f
       -0.009832691 0.5907307 0.012335736 0.8506015
000290 e2 7b 02 3e 35 a0 23 3e 59 98 ac 3c d2 78 13 bd
       0.1274257 0.15979083 0.021068739 -0.036003895
0002a0 31 bd 89 3d cd 53 db 3e 65 49 f7 3c 4c ec fb 3e
       0.067255385 0.42837372 0.030186364 0.49203718
0002b0 56 5c 39 3f c2 f3 40 3e f7 48 0a bc 4b ea 21 3e
       0.7240652 0.18842986 -0.008440248 0.15812032
0002c0 9f 2f fa bb 22 a6 27 3e 61 75 e3 3c ba 64 f5 3d
       -0.0076350714 0.16371968 0.027765932 0.11982103
0002d0 ca a1 f9 3d cc 05 42 3e 15 c3 21 3e 87 74 79 3a
       0.12189062 0.18947524 0.15797074 0.000951596
0002e0 c9 8a 8a 3d 3d 94 4e 3e 75 28 d7 be b3 90 ec 3d
       0.067647524 0.20173736 -0.42023054 0.11551037
0002f0 16 b0 8a 3d 22 6f 54 3d 58 f4 bb 3e 31 68 62 3e
       0.06771867 0.051863797 0.36709857 0.22110058
000300 46 a4 92 bd 2a 91 91 be 46 dd 1f 3d c8 da b4 bd
       -0.07160239 -0.28431064 0.039029382 -0.08830792
000310 33 e4 21 3e 3d a7 14 3e 7c 5d d2 3d 77 49 bc be
       0.15809707 0.14516921 0.10271737 -0.367748
000320 2b bb 6b 3d 5a 2a 66 3d 8d 62 1f be 2e e1 0e be
       0.057551544 0.056192733 -0.15564938 -0.13953087
000330 29 1a f9 3c f2 12 03 3d 83 fa 80 3e ab 53 85 3c
       0.030407982 0.03200049 0.25191125 0.016275248
000340 7e f1 bf 3d df de ab be 93 18 f8 3d bf 0c 72 be
       0.09372233 -0.33568475 0.12114062 -0.23637675
000350 92 55 37 3e 63 fe f7 be 5b 38 cb 3d 41 2a f7 bd
       0.17903736 -0.4843627 0.09922858 -0.12068606
000360 d6 a6 b4 bd 32 f1 16 3d 46 3d ac 3d 30 a2 c9 3d
       -0.08820884 0.036851116 0.084101245 0.09845388
000370 97 39 dc bc 5a 61 47 bd 57 e7 25 3e dc 86 5e 3d
       -0.02688293 -0.048676826 0.1620153 0.05432783
000380 77 05 9d be 17 e8 ce 3e e4 40 64 3e bc 33 85 3e
       -0.30668232 0.40411445 0.22290379 0.26016033
000390 65 b3 ea 3c 3e d8 99 bd 44 95 8d be 2a 31 f3 bc
       0.028649995 -0.07511948 -0.27652943 -0.02968653
0003a0 bf 03 a0 be 11 ab c7 3e 24 c8 00 be 77 a4 84 3c
       -0.31252858 0.389977 -0.12576348 0.016191704
0003b0 1d 56 9a bd 80 fb b2 bd 50 12 24 be f5 39 7d be
       -0.07535956 -0.08739376 -0.1602261 -0.2472914
0003c0 57 ff 3b be af 0e 6b be 1d 53 f6 3d aa 3c d8 bd
       -0.18359123 -0.2295482 0.12027571 -0.10558446
0003d0 5b bf c6 bd 20 3d 49 bd e3 ce a6 bd 36 9f 17 bd
       -0.09704467 -0.04913056 -0.08144929 -0.03701707
0003e0 ac 07 ba b9 c3 64 96 be 8c 3f d8 3d dd 43 50 3c
       -0.000354824 -0.2937375 0.105589956 0.012711492
0003f0 89 8b e5 bd 15 73 af bd 79 ba c4 bd 44 dc cf be
       -0.11208255 -0.08566872 -0.09605879 -0.40597737

mlp.2.bias f4 [64]
000000 96 86 e5 3d 6b 32 71 bd 4e ce d0 3d a4 38 f4 3d
       0.11207311 -0.058885973 0.101955995 0.11924866
000010 e8 91 e9 bd be b6 3b 3e 74 32 8a bb 3d e2 01 be
       -0.114047825 0.1833143 -0.0042174403 -0.1268396
000020 aa c9 0f 3e 21 79 38 bc ea 5b 52 3d 20 8e f9 3d
       0.14041772 -0.011259348 0.051357187 0.12185311
000030 3c c0 10 3e 4c 27 e3 3c c5 c4 fb bc 3f 8e 52 3c
       0.14135832 0.0277287 -0.030733475 0.012851297
000040 98 c5 9e 3c e0 e9 a9 3c 7b f7 99 3d 78 c1 83 3a
       0.01938133 0.020741403 0.07517906 0.0010052165
000050 ce dc 35 bd 9e bf 45 3e 1e fa d3 3d 46 c1 33 3e
       -0.04440003 0.19311377 0.103504404 0.17554197
000060 89 5f d1 3d 3b 51 13 3e d3 bf 63 bd df 46 8e 3d
       0.102233 0.14386456 -0.05560286 0.06947111
000070 ac 5a 38 bd ce 73 f9 bc 4c 50 5b bc 30 bd 7a bd
       -0.045008346 -0.030450728 -0.0133858435 -0.06121558
000080 2e 8d 26 bd 14 7e 91 3c 1f f1 1d bd 6c 79 fb 38
       -0.040661983 0.017760314 -0.03856003 0.00011991229
000090 4b 49 b1 3d 5c 48 bb 3c 44 5f ed bd 4f f8 04 3e
       0.08656558 0.022861652 -0.11590436 0.12985347
0000a0 9f 50 18 3e c3 15 60 3d 82 53 02 3e 76 3c ac bb
       0.14874505 0.054708254 0.12727168 -0.005256231
0000b0 53 44 98 3c cf 58 88 bd ca e1 c0 bc 80 38 40 3c
       0.018587267 -0.06657564 -0.023545165 0.011732221
0000c0 ad 7c 6a 3d c7 3b 1d 3c a1 5d eb 3d 0f 84 c0 bd
       0.057247806 0.009596772 0.11492468 -0.09400188
0000d0 9b 29 71 3b 3d ea 3b 3c 42 63 21 3e 41 0b c4 bd
       0.003679848 0.011469421 0.1576052 -0.09572459
0000e0 e0 be eb 3c ac 6a f0 bb 29 e6 08 ba a3 86 07 3c
       0.02877754 -0.007336935 -0.0005222285 0.008271846
0000f0 e2 64 80 bd 62 20 4d 3c 33 c2 fe 3d ef 0a 85 3c
       -0.06269242 0.012519928 0.12439384 0.016240565

mlp.4.weight f4 [1, 64]
000000 56 6b 91 3e 35 1d 48 bc 13 1a 47 3e 10 88 1a bf
       0.28402203 -0.012213995 0.1944354 -0.60363865
000010 9c 3e 12 bd 10 65 29 3e 20 a4 61 3e c0 70 c7 bc
       -0.03570424 0.16542459 0.22035265 -0.024345756
000020 41 0f 2f 3e 7a a4 8e bd 54 9f 3b 3e 88 60 58 3e
       0.17095663 -0.06964965 0.18322498 0.21130574
000030 06 89 74 3e 46 09 95 3e cd 82 8c bd 81 11 4d 3b
       0.23880395 0.29108638 -0.06860886 0.003129095
000040 2b 43 9a 3e ce 1e 47 3e 8c 71 b8 bd 1d cd e0 b9
       0.3012937 0.19445345 -0.09006032 -0.0004287743
000050 5d fe a8 3e a6 d2 76 3e 38 60 66 3a 79 61 3c 3e
       0.33006564 0.24103794 0.00087881414 0.18396558
000060 39 7a 0b bd 66 d1 72 3e 8f f1 32 bd 3a ea 87 bd
       -0.034052107 0.23712692 -0.0436874 -0.06636472
000070 68 97 f6 3d 30 5b b9 bc 44 7e 5a 3e ed 42 85 bd
       0.12040597 -0.02262649 0.21337229 -0.06506906
000080 9e 16 84 3e fd ab ad bd 16 66 37 3e 9f bd 42 3e
       0.25798506 -0.0848007 0.17910036 0.19017647
000090 b4 41 a7 3e f7 c5 90 3e 14 4b ce bd 07 be 7f 3e
       0.32667315 0.28276035 -0.10072914 0.24974833
0000a0 5f 97 98 3e 8a 92 32 bd c7 0a 4b 3e 7d ac 8c 3e
       0.29802987 -0.04359678 0.1982833 0.27475348
0000b0 49 55 67 3e 8e c0 63 bd 75 99 64 3e 40 ec af bd
       0.22591127 -0.055603556 0.22324164 -0.08589983
0000c0 24 8b 7e 3e ba 7a bd bd 68 d6 92 3e 97 44 c2 bd
       0.24857765 -0.09251924 0.28679204 -0.09485739
0000d0 5d 07 d5 be 0a 0f 86 bd 43 a7 5d 3e 94 f7 a7 bd
       -0.4160718 -0.06545837 0.21645837 -0.08201519
0000e0 8e ed c0 bd d5 79 bc bd e6 f4 08 bf ce 27 c6 3e
       -0.0942031 -0.09202925 -0.53498685 0.38702244
0000f0 a3 18 56 bd 47 5b 86 bd 6d be 2d bf 6d 57 92 3e
       -0.05226959 -0.065603785 -0.6786869 0.28582326
