forecasting/midroll/dnn_model/model_2_ofipl2022.ckpt (torch, 42535 bytes, 5 tensors)

mlp.0.weight f4 [64, 90]
00000000: bdc0 dd3d 1d67 ab3d 3839 30bd 95af b8bd
00000010: 403b d6bc 3fa2 53bd 73d7 243e ea16 d5ba
00000020: 2c37 9abd ea4c 3f3d 8669 fbbc 6ce3 3abc
00000030: 4495 96bd 240c e9bd 2858 2ebd 8f08 43bd
00000040: f0c8 2b3d 2d70 a9bd 1c1a 1dbd f421 493d
00000050: 1d92 8bbd 9b66 2abd 14f2 dbbd 8e89 aabd
00000060: d04d 40bc 77db 993b 9873 af3d dc81 29be
00000070: 8200 0c3d 30a7 71bd 7c37 abbc 540d a6bd
00000080: c829 aabd 16e3 ddbd 25b6 75bc 32a0 8b3c
00000090: 65d9 81bd 0005 a1bd 5e43 d83d ae24 ef3d
000000a0: f13a 103d 32ff 953d 0e90 dd3c 52fe 0ebd
000000b0: de43 e0bd c940 75bd f1d4 0b3d 6a8a bc3c
000000c0: 2214 a5bd 2167 153e da80 32bc 9ae8 adbd
000000d0: df98 983d 833e dcbd 5692 733d 3d63 29bc
000000e0: b256 c93d ee0f 14bd d96b e03c 6aa5 eebd
000000f0: ebc3 103a b483 b13d ed7b d5bd 1e1e 583d
00000100: ae96 763d 1ee0 2d3d bedb 99bd 8b16 12bb
00000110: bd64 363d 53ed 00be 5c3b 673d b97e 5cbd
00000120: c76c acbc 8b40 b0bd 52f9 0b3c a771 12bd
00000130: d4bb 663d c608 acbd a419 0bbe a557 06bd
00000140: 9509 62bd 5bc2 4bbd 5a82 be3d 7833 bbbd
00000150: 8205 8abe d22e b9bd ffcd 11bd 463a 5fbd
00000160: e496 5c3d b9be af3d 3ffe fdbc 3dc2 323d
00000170: 8013 25bd a250 9fbd bf39 b7bc fc2a cbbc
00000180: 1d58 5a3e 70d0 793a 1954 8a3d f65a a53c
00000190: 3f60 80bd e525 56bd 8642 31bb 7f85 f03c
000001a0: 1f0f 78bd 3cf4 95bd a7e6 923d 9436 bd3d
000001b0: c24d 86bd f0cd 42bc 7898 42bd f490 ab3d
000001c0: 48f3 8d3d 80d3 373d 5e86 aebd edda b93d
000001d0: 63a7 87bc 70ed 82bc e10a 73bd 186d 35bd
000001e0: bf99 673d 5a74 853d 8faf b03d 37a1 0b3c
000001f0: aed3 b2bd 9ced 8fbd 7c21 b7bd bc3b 9bbd
00000200: 2427 b1bc 41ce 0b3e 9801 d23d 5c65 4b3e
00000210: f71d 4e3c 6516 e3bd d105 69be 8d9e 043e
00000220: 9aa5 feba b1cb 86bd aee5 003e c4af 0b3e
00000230: 7e1e bf3d 95b6 5c3c ab8f 68bc c184 65bd
00000240: b9d6 c2bd afa9 173e 5836 173d eb52 223d
00000250: 7dd5 b7bd a56a 4b3b 9600 653e e023 ddbd
00000260: 7fb5 19bd 816d 873d c6e5 f63d e841 b1bd
00000270: 3845 ae3d 8fcb a93c dc45 ff3d c76a 253d
00000280: e03e 423c 97c0 af3d d911 723d 215a 26bd
00000290: bd8e 79bd 0a94 bf3b 62b7 abbc 7e52 04bd
000002a0: b95a 6bbe 4d07 1e3c 7038 f33d e990 26be
000002b0: 8c91 a03d 4399 153e 64b8 543d 1475 17bd
000002c0: 57f1 fbbb 7ab4 193c 9988 183e 0483 24bd
000002d0: c650 f93c 3bb9 dabd 3a56 2e3d 2d0d 8fbd
000002e0: 08c6 b53d cc75 b43c ebbb 1cbd b3b4 c53d
000002f0: 1307 c0bc 472e babd 820c 0e3c 3676 f33c
00000300: bdc8 88bd d007 1a3d 679b 293d 177c 353d
00000310: fa85 ae3d 08c5 90bd 9c0e 4b3e e754 033e
00000320: 1841 d43d 14c7 413d 4c92 f0bd fb5d 7fbc
00000330: 47b6 ecbd 8762 d1bd ac07 13bd 2326 e73c
00000340: 24bc 9f3d a9e2 f4bd 8b84 423e 59e0 51bd
00000350: 529d 1dbe 6889 543d c657 f63b e078 203e
00000360: afbb 6cba ef29 183d 081c 6e3d ba75 aebd
00000370: 4954 933d 3b43 2f3e 9b55 b53d 15ad 2b3b
00000380: f542 7abe 3ebe 1e3e 625d cabc a5f3 62bd
00000390: f7ff c23c a422 223d b8a4 783d 45a9 163d
000003a0: 5125 b9bc 1846 c03d c271 193e 6bcf 903d
000003b0: 113e 38bd 4c3a 113e 56aa 86bd f63d 58be
000003c0: 71b5 ba3c d1fd c9bc cfff bd3c d8d7 24be
000003d0: 1cc6 153d abbf bbbc cd4a db3c 1fbb 5a3d
000003e0: 97f4 a7bd 5702 e43d f1e4 103d a2bb 263d
000003f0: f32f a0bd e6c0 a4bd b00f 90bd e889 383c
0.108277775 0.08369277 -0.043023318 -0.090178646 -0.0261513 -0.0516684 0.16097812 -0.0016257439
-0.075300545 0.04670421 -0.030689966 -0.011406761 -0.07352689 -0.11379269 -0.04256454 -0.047615584
0.041939676 -0.08273349 -0.038354978 0.049104646 -0.06814978 -0.04160176 -0.10739532 -0.08327018
-0.011737302 0.0046953517 0.0856697 -0.16553444 0.03418017 -0.058997333 -0.02090048 -0.08108011
-0.083087504 -0.10834329 -0.01499704 0.01704416 -0.06340293 -0.07862282 0.10559724 0.11676918
0.03521246 0.07324065 0.02704623 -0.034910508 -0.10950445 -0.059876237 0.034138624 0.02301522
-0.08060481 0.14590122 -0.010894978 -0.08491631 0.07451033 -0.10754111 0.05946573 -0.010338602
0.09830989 -0.036148004 0.027395176 -0.11652644 0.0005522358 0.086676985 -0.104240276 0.052763097
0.060202293 0.042450063 -0.075126156 -0.0022291269 0.044529665 -0.12590532 0.056453094 -0.05383179
-0.021047963 -0.086060606 0.008543329 -0.03575292 0.05633147 -0.08400111 -0.13584 -0.032798428
-0.05518492 -0.0497459 0.09302206 -0.09140676 -0.26957327 -0.090421334 -0.035596844 -0.054498933
0.053854838 0.08581299 -0.031005023 0.04364227 -0.0403018 -0.07779051 -0.022366403 -0.02480077
0.21322675 0.0009529656 0.067543216 0.020184975 -0.062683575 -0.052282233 -0.0027047708 0.02936053
-0.060561296 -0.07321975 0.071729 0.092389256 -0.065578 -0.01188992 -0.047508687 0.08377257
0.06931168 0.044879436 -0.08521722 0.0907496 -0.016559308 -0.01598236 -0.059336547 -0.044293493
0.056543108 0.06516333 0.08627235 0.008522323 -0.08731781 -0.07027742 -0.089419335 -0.07579753
-0.021625109 0.13652898 0.1025421 0.19862884 0.012580386 -0.11088256 -0.22756125 0.12951107
-0.0019428015 -0.0658182 0.12587616 0.13641268 0.09331988 0.013471265 -0.014194409 -0.056034807
-0.09513611 0.14810823 0.03691706 0.039629858 -0.089762665 0.0031038907 0.22363505 -0.10797858
-0.037526604 0.06612683 0.120555446 -0.08655149 0.08509296 0.020726947 0.124644965 0.040385034
0.011855811 0.085816555 0.059099052 -0.040613297 -0.06092714 0.005846505 -0.020961467 -0.032305233
-0.22983827 0.009645295 0.11875999 -0.16266216 0.07840261 0.14609246 0.05193366 -0.03697689
-0.007688682 0.009381408 0.14895858 -0.04016401 0.030434024 -0.10679861 0.0425627 -0.06984935
0.08875662 0.022028826 -0.03826515 0.09653606 -0.023440873 -0.09090858 0.008669974 0.029719453
-0.06678913 0.037605107 0.04140797 0.044307794 0.08521648 -0.07068831 0.19829792 0.12825356
0.10363978 0.047308996 -0.11746654 -0.0155863715 -0.11558204 -0.10223871 -0.03589599 0.028216427
0.07799557 -0.119572945 0.18995874 -0.051239345 -0.15392044 0.051888853 0.0075177876 0.1567111
-0.00090306526 0.037149366 0.0581322 -0.08518548 0.071938105 0.1711549 0.088542186 0.0026195694
-0.24439605 0.15502259 -0.024702732 -0.05540814 0.023803694 0.039583817 0.060703963 0.03678252
-0.022600802 0.09388369 0.14984801 0.07070812 -0.044981066 0.14182395 -0.06575458 -0.21117386
0.022791596 -0.024657162 0.023193268 -0.16097963 0.036565885 -0.022918543 0.026769066 0.05340111
-0.08200949 0.11133259 0.035374586 0.040706284 -0.078216456 -0.08044605 -0.07034242 0.011263348

mlp.0.bias f4 [64]
00000000: f300 e03b 9db8 77bd 10b4 0cbd eee3 bcbc
00000010: 0c27 f4bc 9011 8d3d 356e 863d a9da 293d
00000020: 0eb4 41bd d6ab 953d d20c 513d 6af9 ba3d
00000030: ebfe 883c 8785 87bd a170 e2bc 1372 cabd
00000040: 0429 e4bd 9664 b0bd c64c 71bd ab40 68bd
00000050: d91e 1d3c f220 95bd 1623 67bd 7378 913b
00000060: 50a6 cbbd 6238 a7bd e538 70bd bc8f cdbb
00000070: 1757 463d 0dc8 843b 094a a1bd 065b 903d
00000080: fe33 ef3b 2bde 683d 780e 973d ae2e ce3c
00000090: daff dabd d371 95bd 8c65 8f3d 15cc 8dbd
000000a0: be5e b0bd 4027 eebd aaad d73d a7c4 663c
000000b0: ea74 2f3d 1dc1 e0bd b68e a63d 6052 26bc
000000c0: 22db 68bd 953d a93c 8ae0 adbd ec55 903d
000000d0: c484 373c 2064 b3bd 273f 4f3d 4b04 a0bd
000000e0: 336a 2e3d 4ab9 09bd 356b 833d 2498 fc3c
000000f0: fab8 503c 2001 733d 1b94 acbd c1e8 da3d
0.0068360507 -0.060478795 -0.03435141 -0.023057904 -0.029803775 0.068881154 0.06563989 0.041468296
-0.047290854 0.07308166 0.051037617 0.09129603 0.016723117 -0.06617265 -0.027641596 -0.09885039
-0.111406356 -0.08612935 -0.058911107 -0.056702297 0.009589874 -0.072816744 -0.056429945 0.0044394075
-0.09943831 -0.08165051 -0.05864801 -0.006273238 0.0484229 0.004052168 -0.07875449 0.07048611
0.007299899 0.0568525 0.073758066 0.025168743 -0.10693331 -0.07297101 0.070017904 -0.06923691
-0.08611821 -0.1162858 0.10531171 0.0140849715 0.042836107 -0.109743334 0.08132689 -0.010151476
-0.056849606 0.020659247 -0.08490093 0.07047638 0.011201087 -0.08759332 0.050597336 -0.07813319
0.04258175 -0.03362397 0.064169325 0.030834265 0.012739414 0.059327245 -0.084266864 0.106889255

mlp.2.weight f4 [64, 64]
00000000: eb4d c4bd 38f9 c93d 348e 38be 1fa2 82bd
00000010: 467c 97bd a87f 073e fce6 c83d debe f2bd
00000020: 9e2a 383d 6757 af3d e3b9 d23d 4ab0 bf3d
00000030: 00fb 9fbd ed71 79be 0ab3 cbbd 43e9 0d3d
00000040: bd9d 22bd aafc 583c fa4b 75be b4c7 13be
00000050: e5df 803d 6436 21be b159 b73b a22f febc
00000060: e3ff 33bd e768 a6bd c4e9 373d 50fa 02bd
00000070: eff0 ae3d e57d 953c 0693 a63c c701 54bd
00000080: fca1 96bd fac8 ba3d bd54 fc3d ddfa f43d
00000090: 1597 0c3e 7335 813d 05f7 68bc c29d 9e3c
000000a0: d28d f4bd b561 4dbd 30b7 34bc 115b a1bd
000000b0: 3a11 c33d 5a88 b0bd 8f90 0bbc 6af0 963d
000000c0: 1549 ce3c de08 17be 4260 bcbd 26b4 8bbd
000000d0: 9963 a0bd 937b 1a3d 41b9 033e 115f 03bd
000000e0: aa85 69be ddb9 1b3e e935 ca3d 959b ee3d
000000f0: 55c4 cfbc 8353 903c 0b08 3dbd fcc2 0dbe
00000100: 58fc ffbd 50f2 27be 2dfc 72be c198 f9bd
00000110: 2212 b63c 5e71 d53d d31b 3c3d 7e5b 99bc
00000120: 92b0 88bd f101 adbc 8a16 37bd f938 eeb9
00000130: 96f3 45be e905 8e3d 1836 c53d df80 c3bd
00000140: a050 803d 2eef c53c a77b 63bd da76 2039
00000150: 996b adbc fe11 f03c f35a 363d 618c 473d
00000160: b5e9 03bd bd4b f2ba d013 55bc 1e42 f13c
00000170: 05d7 eebc a7dc 5abc fe89 26be 2a7a 03bd
00000180: 338d 48bd b264 85bc 55b6 893d 1dc3 ac3c
00000190: 169e 0d3e 4ec4 fa3d 4061 e5bb 7228 5fbd
000001a0: 1675 25be eaca 903d c20e b33c aa80 06be
000001b0: aec3 abbe 86fc 453d b131 c33d e3cf 26bd
000001c0: 2c08 a7bd 08fc abbd 0678 9f3a 66fe 00be
000001d0: 8b25 d9bd 2e14 36bd ac2b debc 9dfd 9dbd
000001e0: 332b 97be 12eb fd3d d8c3 abbd 8f26 9a3b
000001f0: 5d08 203c aa26 443c 23fc 1b3e f94f 9c3d
00000200: 3517 b43c 54c0 4f3d ef84 20be d8c1 e0bd
00000210: 8a4f 5dbb f72a 82bd 9f9c 8ebd b06a abbd
00000220: b0d3 9d3b 28c7 b6bd a8f8 97bd cc73 203c
00000230: 79f3 be3d 9ae6 b5bc dc9f 8f3d 6ecc a53d
00000240: 7faa 8f3d a6f4 283d bb57 e0bd 5df7 bdbd
00000250: 2cac 5fbd a286 4b3d a994 643d 8976 873d
00000260: ab9c f8bd 31a1 20bd 272d 373d c958 853d
00000270: 19ae 023d dfaa 2e3d d1db 87bd 6aae 683d
00000280: 2e46 613d 9033 263d 2542 aabd 21ee f93d
00000290: 2353 4cba 9e15 46bd 86f7 a3bd 619f 043e
000002a0: 16e5 49bd 59b5 6d3d 3d1a b53d 343f 0abe
000002b0: 60e2 80bd d63c a8bd 35e3 cfbb e19a ca3a
000002c0: da93 a43d e165 cfbd e92a 983d 4e17 a83d
000002d0: 5234 99bd 2481 b63b 9b30 97bb 7b9a ea3d
000002e0: 64ce adbd 836d 37bd 5642 6d3d 2239 bd3c
000002f0: 9750 a03d d2d2 db3d 9f47 82ba 5acf 923d
00000300: bece 15be 6766 343c ad3c 013c da8d 0abe
00000310: 6ae0 913d 3bc5 87bd 97a1 3abe 7949 1bbd
00000320: 276c 48be f8d1 383d 2f83 ac3d 1e90 2e3c
00000330: 9fc4 0a3e 7b98 50be 5ef9 6fbd f6cc eebb
00000340: c2ef 49be 1442 d13d ad5d b83d f527 3e3e
00000350: 45b4 fe3d 0cef b33c cc84 e93d 9b98 953d
00000360: 8cce 21bd b3d7 c33b ae8c d7bc 62da d1bd
00000370: c1b3 943d 70d5 59bd 65f9 b8bd 9073 ecbd
00000380: d969 5f39 1687 f13d 2785 eebc 5cbc 27bc
00000390: e23f c6bd 6875 3dbd f463 10bd 748c 00be
000003a0: fb90 2b3d 47c5 02be 5a76 0ebe 2318 723c
000003b0: a6f5 96be cd03 d1bd 5b8f 13be d320 c13a
000003c0: 9ab2 4d39 dc4d 01be c5c2 97bd e73d cbbd
000003d0: f059 aebb afec ae3d f54d ddbd c5db 453d
000003e0: fe10 a3bd 9992 42be 6190 893d 3f8e 3bbd
000003f0: 0c66 88bd d798 9cbd dd8d ad3d 6b90 af3d
-0.09585174 0.09861988 -0.18022996 -0.063785784 -0.0739675 0.1323229 0.09809682 -0.11852811
0.044962518 0.085615925 0.10289361 0.09359796 -0.07811546 -0.24359865 -0.09946258 0.034646284
-0.039701212 0.013243834 -0.23954764 -0.1443165 0.062927045 -0.15743405 0.005595409 -0.031028572
-0.043945204 -0.08125477 0.04490067 -0.031976998 0.08542048 0.018248508 0.020333778 -0.051759508
-0.07355115 0.091203645 0.1232085 0.11961911 0.13729508 0.06309023 -0.01421905 0.019362334
-0.119411126 -0.05014201 -0.011030003 -0.07878698 0.0952477 -0.08619757 -0.008518352 0.07370074
0.025181333 -0.14749476 -0.09198047 -0.0682147 -0.07831497 0.037715506 0.12863638 -0.032073084
-0.22804895 0.1520762 0.09873564 0.11650769 -0.025362173 0.017617946 -0.04615025 -0.13843912
-0.124993026 -0.16401029 -0.2372901 -0.121873386 0.022225443 0.10422014 0.045924973 -0.018720385
-0.06674303 -0.02111909 -0.04469923 -0.00045437345 -0.19331202 0.06934721 0.09629458 -0.095460646
0.06265378 0.024161901 -0.055537846 0.00015303065 -0.02116947 0.029305454 0.04452033 0.04871786
-0.032205302 -0.0018485707 -0.013005212 0.029450472 -0.029155264 -0.013358272 -0.16263577 -0.032098927
-0.048962783 -0.016283367 0.0672423 0.021089131 0.13829836 0.122444734 -0.0070001185 -0.05448193
-0.16157946 0.07069953 0.021857623 -0.13135019 -0.3354773 0.04833653 0.09530962 -0.0407256
-0.081558555 -0.083976805 0.0012166507 -0.12597045 -0.10602864 -0.04445284 -0.027120434 -0.077143885
-0.29525146 0.12398352 -0.083869636 0.0047043036 0.009767619 0.011972109 0.15232901 0.07632441
0.021983722 0.050720528 -0.1567571 -0.10974473 -0.0033769333 -0.06355851 -0.06963467 -0.083699584
0.004816495 -0.08924705 -0.07420474 0.009793233 0.093237825 -0.022204686 0.07012913 0.080956325
0.070149414 0.04124894 -0.10954233 -0.092756964 -0.054607555 0.049688943 0.055805836 0.06614406
-0.12139257 -0.039216224 0.044720795 0.06511075 0.031904314 0.042643424 -0.066337235 0.05680696
0.05499857 0.040576518 -0.08313397 0.122036226 -0.0007794371 -0.04836046 -0.08006196 0.12951423
-0.04929074 0.058034275 0.08842895 -0.13500673 -0.062931776 -0.082147285 -0.006344224 0.0015457534
0.08036013 -0.10126854 0.074300595 0.0820757 -0.074806824 0.005569594 -0.0046139485 0.11455246
-0.084866315 -0.044782173 0.05792459 0.023098532 0.07827871 0.1073357 -0.0009939558 0.071684554
-0.14629647 0.011010743 0.007888001 -0.13530675 0.07122882 -0.066294156 -0.18225704 -0.037911866
-0.19572507 0.045122117 0.08423459 0.010654477 0.13551567 -0.20370667 -0.058587424 -0.007287617
-0.19720367 0.102176815 0.09002242 0.1856993 0.124367274 0.021964572 0.11402282 0.07304498
-0.03950362 0.005976641 -0.026312198 -0.10246731 0.07260848 -0.053182065 -0.09031943 -0.11545479
0.00021306369 0.11793344 -0.029116226 -0.0102377795 -0.096801534 -0.046254545 -0.035251573 -0.12553579
0.04188631 -0.12770568 -0.13912335 0.014776262 -0.2948429 -0.10205803 -0.14410155 0.0014734514
0.00019616858 -0.12627357 -0.07410196 -0.09923916 -0.00532078 0.085412376 -0.10805885 0.04830529
-0.079622254 -0.19001235 0.06716991 -0.045789953 -0.06660089 -0.076463394 0.08474324 0.085724674

mlp.2.bias f4 [64]
00000000: e301 be3d 25e6 813b ce2d 243e 8f3d 253d
00000010: e950 0dbe 4fea a93d 2988 d6bd 9351 1ebd
00000020: 11ac 27bb e478 9c3d b762 903b 472b ca3d
00000030: f7f0 8b3d 2f8c 0a3d 93c7 83bc fb3c debd
00000040: afa8 c83d b6f4 6cbd 7670 42bd d691 c23d
00000050: 7ce0 c2bd 5845 9d3c 6893 07be 3b6c 88bd
00000060: 1e84 063e 7de5 a83d d9d8 103d 22c5 f13c
00000070: f398 933d 69f2 933d db82 4d3d b67b 21be
00000080: cb82 55bd 14c2 a33d 2918 00bd 950b fbbc
00000090: 699a bf3d 9d36 c5bd cf6e 5a3d 9d8a b13d
000000a0: 5c01 c8bd 4e6e 89bd b9b5 e7bc a7d0 e1bd
000000b0: 2b4f d33c 749c 8c3d e500 dfbd 1f2d 1a3c
000000c0: 1024 823d 8bfe b43d 84f2 363d 4296 143e
000000d0: c25f 973d 1cc1 7ebc f55e 89bc 065e 093d
000000e0: 8cd7 4d3d 643c 2fbc 3af1 c63d cb5a 62bd
000000f0: 5c06 7f3c 71bb fd3c d2f9 383d e890 93bd
0.092777036 0.003964203 0.16033098 0.04034191 -0.13800396 0.08296644 -0.10475189 -0.038652014
-0.0025584737 0.076402456 0.004406299 0.09871536 0.0683307 0.033825096 -0.016086375 -0.10851475
0.09797799 -0.057850562 -0.047470532 0.09500472 -0.09515473 0.019198105 -0.13239825 -0.06661268
0.13136336 0.082468964 0.035363052 0.029512946 0.07206907 0.072239704 0.05017362 -0.15769848
-0.052126687 0.07996002 -0.03127304 -0.030645171 0.09355623 -0.09629557 0.05332833 0.086690165
-0.09765884 -0.06710492 -0.028284894 -0.110261254 0.025794586 0.068657786 -0.108888425 0.009410172
0.063545346 0.08837613 0.044664875 0.14510444 0.07391311 -0.015548971 -0.016768912 0.033536933
0.05025439 -0.010695551 0.09713979 -0.05526237 0.015565481 0.030973168 0.045160122 -0.07205373

mlp.4.weight f4 [1, 64]
00000000: 1749 843d e8d7 763c 4ed0 d33d 2ce5 8fbd
00000010: 0a77 4dbd 54bf d2bc 0a9e 16be 2ffb fd3d
00000020: 8c60 703d 7ead b53b da99 8c3d df73 8e3d
00000030: 28ad 9b3d 3f06 c13c 0968 99bd 856c bfbd
00000040: 2485 ea3d 5fad 60bd a23f 92bd 438a bcbd
00000050: c1bf d3bd 3599 a33d 2dca f7bd e10f cc3d
00000060: 7626 7f3d cb82 c83d 39ad 0d3e e58a 79bd
00000070: a852 4bbd c08a dc3d 06ee afbd 8887 cabd
00000080: 5d5a b4bd 92ea 1ebd 0bd7 123e b8a6 95bd
00000090: 546e a6bc a85e 06be e7ca 5a3c 3d6d b23d
000000a0: 9ac9 26bd 595b 73bd 73e8 0cbd a426 1dba
000000b0: 4158 3dbd 7def b83a f87d 8bbd 1cd9 a43d
000000c0: 3e4e c6bc a7d0 5cbd 3f0e 673d 5d0c f03d
000000d0: be5d 11bd 1e83 6c3d c232 b63d 4607 8bbd
000000e0: df28 cbbd 85f6 773d 2a0a a33d 2d5d dfbd
000000f0: b5e8 ed3d e066 7d3d b775 1d3e ae31 a4bd
0.06459253 0.0150661245 0.10342465 -0.07026133 -0.050162353 -0.025725998 -0.14708725 0.12401425
0.058685824 0.0055443635 0.06865282 0.069556944 0.07601386 0.023562549 -0.07490546 -0.0934687
0.11451176 -0.05485284 -0.07141043 -0.09206059 -0.103393085 0.07988206 -0.12099109 0.09963966
0.06229254 0.09790572 0.1383561 -0.060923476 -0.049639374 0.10768652 -0.08590321 -0.09889132
-0.08806298 -0.038797922 0.14339845 -0.0730719 -0.02031628 -0.13122046 0.01335404 0.08712242
-0.040719606 -0.059413288 -0.03440137 -0.00059948326 -0.046226744 0.0014109459 -0.06811136 0.08049223
-0.02420723 -0.053909924 0.05641007 0.11721108 -0.03548979 0.05774223 0.088964 -0.06788497
-0.09919905 0.060537834 0.07960923 -0.10906444 0.11616651 0.061865687 0.15376936 -0.08017288
