forecasting/midroll/dnn_model/model_2.ckpt (torch, 42071 bytes, 5 tensors)

mlp.0.weight f4 [64, 90]
0	0x3dc50bab	0.09621366
1	0x3d625d67	0.055264857
2	0x3cecd57a	0.028910387
3	0x3d65a96c	0.056069776
4	0x3d82e1a2	0.06390692
5	0x3d771d6e	0.0603308
6	0xbd5eae37	-0.054365363
7	0x3d87e040	0.06634569
8	0xbdc5f53d	-0.09665916
9	0xbdc84574	-0.09778872
10	0xbe0c6fdc	-0.13714546
11	0xbc6e5df5	-0.014548768
12	0xbcdb4dca	-0.026770491
13	0xbe271496	-0.16316447
14	0xbdad4a6c	-0.084614605
15	0x3e228651	0.1587155
16	0x3dc84695	0.097790875
17	0x3deed83c	0.11662337
18	0x3d16ee27	0.036848214
19	0x3db71746	0.08939986
20	0xbcd9c544	-0.026583321
21	0xbd9cc77d	-0.07655237
22	0xbd59ac9f	-0.05314314
23	0xbd386e9a	-0.045027353
24	0xbe099934	-0.13437349
25	0xbb9406af	-0.0045173983
26	0xbcb73a0e	-0.02236655
27	0x3b0c9a0c	0.0021454124
28	0x3c969319	0.018380689
29	0x3dc87cfa	0.097894624
30	0xbe0a2896	-0.13492045
31	0xbdbeef7b	-0.09323021
32	0xbd818ceb	-0.06325706
33	0xbd8df94b	-0.069323145
34	0xbcd399fa	-0.025830258
35	0xbe1d2028	-0.15344298
36	0x3cef3aca	0.029202837
37	0xbdcb0c09	-0.09914405
38	0x3d4284f3	0.04749007
39	0x3e02f9d2	0.12790611
40	0xbbef24e7	-0.0072981003
41	0x3d2a2fe3	0.041549575
42	0x3dca8765	0.09889106
43	0x3dd22fb8	0.10263008
44	0xbe369b53	-0.17832689
45	0xbdb55a48	-0.088551104
46	0x3dd2c560	0.102915525
47	0xbd293c64	-0.04131736
48	0x3d35b731	0.044364158
49	0xbb3f2e8f	-0.0029172038
50	0x3d739c2f	0.05947512
51	0x3c7b9aa2	0.015356692
52	0x3d31a7ba	0.043372847
53	0xbd8784e9	-0.066171475
54	0xbc440e02	-0.01196623
55	0xbe2d8130	-0.16943812
56	0x3e6dcb09	0.23221983
57	0xbcdecc22	-0.027196947
58	0x3d3c9ce1	0.04604805
59	0xbe2396cf	-0.15975498
60	0xbda2143f	-0.07914018
61	0xbe9faf11	-0.31188253
62	0xbda1332e	-0.0787109
63	0x3d99ec1b	0.07515737
64	0xbafe9a67	-0.0019424678
65	0xbefed97b	-0.497753
66	0xbd983fea	-0.07434066
67	0x3df2bc13	0.118522786
68	0x3d194052	0.037414856
69	0xbd48653b	-0.048924666
70	0x3d201f46	0.039092325
71	0x3dcf6edb	0.10128566
72	0xbc3a924b	-0.011387418
73	0x3d8de53a	0.06928487
74	0x3ca62327	0.020280434
75	0x37c6dcf2	2.3706325e-05
76	0x3ba78c5a	0.0051131668
77	0xbd9bdc53	-0.07610383
78	0xbdc1e890	-0.09468186
79	0xbd9f76f6	-0.07786362
80	0x3c00a05f	0.007850735
81	0xbe07fb74	-0.13279516
82	0xbdced8eb	-0.100999676
83	0xbc8adaf4	-0.016950108
84	0xbb2e2bc1	-0.0026576372
85	0xbcea8fc2	-0.028633002
86	0xbc2aea10	-0.010431781
87	0xbdb973d6	-0.09055297
88	0xbe1cccf2	-0.15312555
89	0x3de16fc5	0.110076465
90	0x3cf71449	0.03016104
91	0xbc2bd3dd	-0.010487524
92	0xbce8e2e7	-0.028428508
93	0x3dd5b037	0.10434001
94	0xbcde656e	-0.027147975
95	0xbd9afa74	-0.075673014
96	0xbd465753	-0.048423123
97	0xbd6290d7	-0.05531391
98	0x3dbb8482	0.09156133
99	0xbd662b7c	-0.056193814
100	0xbd4b7c6e	-0.049679212
101	0x3c7f8d94	0.01559772
102	0xbc280a8d	-0.010256422
103	0xbd0ee2e9	-0.034884367
104	0xbd9c18bc	-0.07621905
105	0x3ddf44a8	0.10901767
106	0x3d15c472	0.036564298
107	0xbdfb349b	-0.12265893
108	0x3d9f46af	0.07777154
109	0xbdcba12f	-0.09942853
110	0x3cf9ad07	0.030478014
111	0x3d2d598b	0.042321723
112	0x3d5bf68c	0.053701922
113	0x3d795141	0.060868505
114	0x3cb8eadf	0.022572933
115	0xbd16555b	-0.036702495
116	0xbd5572cd	-0.052111436
117	0x3d6367da	0.055518962
118	0xbc4656a6	-0.01210562
119	0xbd4f3095	-0.05058344
120	0x3d69da41	0.05709291
121	0xbcce1e85	-0.025161037
122	0xbde3134b	-0.11087664
123	0xbc4e3e61	-0.0125881145
124	0x3d969a93	0.073537014
125	0x3e0bdede	0.13659236
126	0xbe751ef3	-0.23937587
127	0x3ce9aba5	0.02852423
128	0x3d94ccf4	0.07265654
129	0x3e10af4a	0.14129367
130	0x3e59bafc	0.21262735
131	0x3cf390aa	0.029732067
132	0x3cd59954	0.02607409
133	0x3de915ec	0.113811344
134	0xbdaed518	-0.08536738
135	0xbb448e46	-0.0029992028
136	0xbd18115f	-0.03712594
137	0xbda259c2	-0.07927276
138	0x3d9c9a6b	0.076466404
139	0x3d8893a0	0.06668782
140	0x3da39317	0.079870395
141	0xbd84d787	-0.06486421
142	0x3dd8609a	0.105653
143	0xbd46fdb3	-0.04858179
144	0x3bf94f52	0.0076083327
145	0x3c011529	0.00787858
146	0x3d5f118e	0.0544601
147	0x3d5b73e6	0.053577326
148	0xbcb10795	-0.02161006
149	0xbc8d25e3	-0.01722998
150	0x3daf4de8	0.08559781
151	0x3d3e0a32	0.04639644
152	0xbdf508aa	-0.11964543
153	0xbe7809a9	-0.24222435
154	0xbe106e94	-0.14104682
155	0x3dcb3daf	0.099238746
156	0xbd5dcca3	-0.054150235
157	0xbd5b34ac	-0.05351703
158	0x3d541a95	0.051783163
159	0x3da0a150	0.07843268
160	0xbd1a1a45	-0.03762271
161	0xbdc640cc	-0.09680328
162	0xbc4d8cca	-0.012545774
163	0xbd8bf58d	-0.068339445
164	0x3e01b58b	0.1266691
165	0x3dba5437	0.09098094
166	0xbdf16c43	-0.117882274
167	0x3d9ee631	0.07758749
168	0xbdbfce63	-0.09365537
169	0xbe0756d0	-0.1321671
170	0x3dbf83ef	0.09351336
171	0xbd761e56	-0.060087524
172	0xbc12564e	-0.008931709
173	0x3e038024	0.1284185
174	0xbd721caa	-0.059109367
175	0x3e0ea3ae	0.13929626
176	0xbcaa3e69	-0.020781713
177	0xbd1eb95a	-0.038750984
178	0x3c10855c	0.008820858
179	0xbe007882	-0.1254597
180	0x3de721c0	0.11285734
181	0xbc224001	-0.009902955
182	0x3d5d2f86	0.0540004
183	0xbdfe8738	-0.12428135
184	0x3cc4fd30	0.02404651
185	0xbd9ec8a9	-0.07753117
186	0xbde1e2fe	-0.110296234
187	0x3dbf6af9	0.09346575
188	0xbe0174cb	-0.12642209
189	0xbd458a9f	-0.048227903
190	0x3cf70f32	0.030158613
191	0xbd303170	-0.043015897
192	0xbe1e5df0	-0.15465522
193	0xbd268d77	-0.040662255
194	0x3b286efd	0.002570092
195	0xbde86f22	-0.11349322
196	0xbdea342f	-0.114357345
197	0xbc9eb889	-0.019375103
198	0xbd8738bd	-0.06602619
199	0x3df34067	0.11877518
200	0xbd679a9d	-0.056543935
201	0x3c11b4dd	0.008893219
202	0xbdbd5e9d	-0.09246562
203	0x3e3b8949	0.18314089
204	0xbe12dd5d	-0.14342256
205	0x3e227108	0.1586343
206	0xbe642b19	-0.22282065
207	0xbd18340c	-0.03715901
208	0x3d921bf8	0.07134241
209	0x3d2f7a5c	0.0428413
210	0x3d73163c	0.059347376
211	0xbc8480a4	-0.016174622
212	0xbd17c36e	-0.03705161
213	0xbd72bff7	-0.059265103
214	0xbbbb0b67	-0.0057081464
215	0xbd02a0b3	-0.031891536
216	0x3e067a6c	0.13132638
217	0x3db2f61e	0.087383494
218	0xbe259129	-0.16168655
219	0x3d1b8e07	0.037977245
220	0xbc727f94	-0.014800925
221	0xbc2f78e8	-0.010709979
222	0xbcee6d80	-0.029104948
223	0xbdc2b15f	-0.09506487
224	0x3d1bc14e	0.038026147
225	0xbbc5647f	-0.006023943
226	0x3e032d74	0.12810308
227	0x3a9fb326	0.0012184128
228	0x3d57df19	0.052702997
229	0x3e2d79b4	0.16940957
230	0x3d0f0c4b	0.034923833
231	0x3d3544fc	0.04425524
232	0x3deb665f	0.11494135
233	0x3dfb0727	0.122572236
234	0x3ca0e8b2	0.019642208
235	0xbd52578d	-0.051353026
236	0xbca3cb90	-0.019994527
237	0x3d2b3e90	0.04180771
238	0xbceb8241	-0.028748633
239	0x3ce09a5f	0.02741736
240	0xbd7cdd81	-0.06173468
241	0x3d406302	0.04696942
242	0x3cb1676c	0.02165576
243	0x3e37405f	0.1789565
244	0x3d3d5534	0.046223834
245	0xbe269a32	-0.16269758
246	0x3d0aa4d3	0.033848595
247	0xb6b50520	-5.394817e-06
248	0xbdb0f35b	-0.08640166
249	0x3d05e738	0.03269121
250	0x3c7bb106	0.01536203
251	0xbbbfd6b0	-0.00585445
252	0xbde90090	-0.113770604
253	0x3d0d5d03	0.03451253
254	0x3d8d3d0c	0.068964094
255	0xbd7a36ba	-0.061087348

mlp.0.bias f4 [64]
0	0xbd80339d	-0.062598445
1	0x3d123312	0.035693236
2	0x3cb4afbe	0.022056457
3	0xbdb00fc9	-0.08596761
4	0xbd2d22c4	-0.042269483
5	0xbd95bf01	-0.07311822
6	0xbd09bf1d	-0.033629525
7	0xbce89c95	-0.028394977
8	0xbc000bdb	-0.007815327
9	0xbd7e9e7c	-0.06216286
10	0xbdb3b80b	-0.08775338
11	0x3cbda7c8	0.023151293
12	0x3db15bcb	0.08660086
13	0xbdc1b6d5	-0.094587006
14	0x3d825a19	0.06364841
15	0xbdd3319b	-0.10312196
16	0x3d692b3b	0.056925993
17	0xbcca76a5	-0.024714777
18	0x3bed41c2	0.007240505
19	0x3d8385f9	0.06422038
20	0x3dc7251b	0.09723874
21	0x3d8e5296	0.06949346
22	0x3ce9434e	0.028474476
23	0x3d4b6580	0.049657345
24	0x3ce90ddb	0.02844899
25	0x3e000bea	0.12504545
26	0x3d5f2cb3	0.054485988
27	0xbd680496	-0.056645
28	0x3d88b290	0.06674683
29	0xbdad2ab3	-0.0845541
30	0xbd415e8c	-0.047209308
31	0xbdb9afc7	-0.0906673
32	0xbbd28511	-0.006424554
33	0x3d8c4209	0.06848533
34	0xbde3260a	-0.1109124
35	0xbd8e65f0	-0.06953037
36	0x3da7a8db	0.081865035
37	0x3d970b3b	0.07375189
38	0xbd6c7106	-0.057724975
39	0x3d885e51	0.066586144
40	0xbb8e81bb	-0.004348961
41	0xbce378bc	-0.027767532
42	0xbcaa1256	-0.020760696
43	0xbce56c70	-0.028005809
44	0x3b8d52b8	0.0043128394
45	0x3ba085ef	0.0048987786
46	0xbd895210	-0.06705105
47	0xbdb81941	-0.08989192
48	0xbdec4e73	-0.115384005
49	0x3d81f6b5	0.06345884
50	0xbd671659	-0.056417797
51	0xbd690160	-0.056886077
52	0xbd0d527d	-0.034502495
53	0x3d882fb1	0.066497214
54	0xbdb6e8d0	-0.08931124
55	0xbda1d561	-0.07902027
56	0xbcb0ce2e	-0.02158269
57	0x3c67d149	0.014149019
58	0x3cf6c32a	0.030122358
59	0xbd8f41e2	-0.06994988
60	0xbe118168	-0.14209521
61	0x3d937750	0.072004914
62	0x3d719f65	0.0589899
63	0x3db08a28	0.08620101

mlp.2.weight f4 [64, 64]
0	0xbce03499	-0.02736883
1	0xbdc2bf0c	-0.095090955
2	0xbdebbbeb	-0.11510452
3	0x3d74f0b8	0.05979988
4	0x3a801ced	0.0009774246
5	0x3e1c26e0	0.15249205
6	0x3d99b458	0.07505101
7	0xbc3cc565	-0.011521672
8	0xbd7c4cce	-0.061596684
9	0xbd9f21e5	-0.07770137
10	0x3e0afd91	0.1357329
11	0xbe051372	-0.12995699
12	0xbdd2c527	-0.1029151
13	0x3dd3b681	0.10337544
14	0x3cb37c11	0.021909745
15	0xbc220b37	-0.009890369
16	0x3d8f9030	0.070099235
17	0x3dbeeb72	0.093222514
18	0x3b6359fb	0.0034691084
19	0xba95d9aa	-0.0011432667
20	0xbd429c05	-0.047512073
21	0xbe92e0fe	-0.2868728
22	0xbe106a8a	-0.14103141
23	0x3d87f94d	0.06639347
24	0x3d0aabc8	0.03385523
25	0x3db3b952	0.087755814
26	0x3db441b2	0.08801593
27	0x3cefc669	0.029269414
28	0xbde92fda	-0.1138608
29	0x3d924b50	0.07143271
30	0xbcf1e8f9	-0.029530035
31	0xbd94d822	-0.072677866
32	0x3d8d5ecb	0.06902846
33	0xbddd8a9a	-0.10817452
34	0x3d14469f	0.036200162
35	0xbd94940b	-0.072547995
36	0x3da55792	0.08073343
37	0xbdac9449	-0.08426721
38	0x3db0dcd5	0.0863587
39	0xbc873ec0	-0.016509414
40	0x3dbb875f	0.09156679
41	0x3d3ec439	0.04657385
42	0x3cc96dea	0.024588544
43	0x3da00896	0.07814138
44	0xbe1f9a02	-0.15586093
45	0x3c9e3661	0.01931304
46	0xbe2ac22e	-0.16675636
47	0xbd94700e	-0.07247935
48	0xbca89e66	-0.020583343
49	0x3d9c3812	0.07627882
50	0xbddd76bc	-0.108136624
51	0xbe0d153b	-0.1377763
52	0x3d20237b	0.039096337
53	0xbd12e0b3	-0.03585882
54	0x3af392f7	0.0018583228
55	0xbd731ce3	-0.05935372
56	0x3d809463	0.062783025
57	0xbcf445a6	-0.029818367
58	0xbdbccf7c	-0.09219262
59	0x3d524cb8	0.051342696
60	0x3dabc628	0.08387405
61	0x3c953e54	0.018218197
62	0x3d50fabc	0.05102037
63	0x3d52d087	0.0514684
64	0xbd460196	-0.048341356
65	0x3dbe84d1	0.093026765
66	0xbdd5d3b3	-0.10440769
67	0x3cd7debf	0.02635133
68	0xbe0371d1	-0.12836386
69	0xbe145896	-0.14486918
70	0xbd9069e6	-0.070514485
71	0xbe5ce751	-0.21572615
72	0xbd8d37c3	-0.06895401
73	0xbdf8a8db	-0.121415816
74	0xbe26834f	-0.16261028
75	0x3bc938b7	0.006140794
76	0xbc4c97c0	-0.012487352
77	0xbd48396d	-0.04888289
78	0xbe10013a	-0.14062968
79	0x3d94e514	0.07270256
80	0xbc5b9651	-0.013402537
81	0x3db250ed	0.087068416
82	0xbd424db3	-0.04743738
83	0x3d193ce1	0.037411574
84	0xbe5cd42d	-0.21565314
85	0xbe4aeeb5	-0.19817622
86	0xbd6850fd	-0.05671786
87	0x3d931851	0.07182372
88	0xbda684e7	-0.08130818
89	0xbda8a877	-0.08235257
90	0x3e0eaee4	0.13933903
91	0xbdf0d36a	-0.11759074
92	0xbd04dfa9	-0.03243986
93	0xbdc230df	-0.09481978
94	0x3e25e420	0.16200304
95	0xb989b170	-0.00026262878
96	0xbd596d70	-0.053082883
97	0xbd3cc045	-0.0460818
98	0x3c9e7058	0.019340679
99	0x3dc83154	0.097750336
100	0x3c435ad0	0.011923507
101	0x3e390188	0.1806699
102	0x3cb4e468	0.022081569
103	0x3d6d204a	0.05789212
104	0xbd14dac7	-0.036341455
105	0x3dd69805	0.10478214
106	0x3d6985ee	0.05701249
107	0xbd9f6ff7	-0.077850275
108	0xbd91b99d	-0.07115481
109	0x3c89952e	0.016794767
110	0x3c39f843	0.011350694
111	0x3dee6a4a	0.11641367
112	0x3d160d74	0.036633924
113	0xbc80212c	-0.015640818
114	0x3c80af08	0.015708461
115	0xbc389055	-0.01126488
116	0xbd2db1ba	-0.04240582
117	0x3ada57c3	0.0016658235
118	0xbca1c560	-0.019747436
119	0xbca0c333	-0.019624328
120	0x3d9fab16	0.07796304
121	0x3d51a816	0.05118569
122	0xbd6be2c2	-0.0575893
123	0xbe196d8f	-0.149832
124	0xbb8b10e2	-0.004243956
125	0xbdc8c37b	-0.0980291
126	0x3bd4f4fc	0.006498931
127	0x3d85accc	0.06527099
128	0x3ddb9dd3	0.10723462
129	0x3dcb448b	0.09925183
130	0xbd0a8527	-0.03381839
131	0xbda76ad8	-0.08174676
132	0xbb865fc2	-0.0041007707
133	0x3afc01f4	0.0019226656
134	0xbda7465d	-0.081677176
135	0xbd822d72	-0.06356324
136	0xbdcbf9a5	-0.09959725
137	0x3dc49ba1	0.09599996
138	0xbd858cc6	-0.06520991
139	0xbdcb6ccd	-0.099328615
140	0x3dafe1ec	0.08588013
141	0x3d2ac5a7	0.041692402
142	0x3d8f6e2f	0.07003438
143	0xbca21dc7	-0.01978959
144	0xbe38ab3a	-0.18034068
145	0xbcb196dc	-0.02167838
146	0xbe18dafd	-0.14927287
147	0x3d4d8e22	0.050184377
148	0x3db0b54d	0.086283304
149	0xbd11e63c	-0.03561996
150	0x3dbe8b97	0.093039684
151	0xbd7f7c75	-0.06237455
152	0x3dac6526	0.0841773
153	0x3d184e43	0.03718401
154	0x3e0913ca	0.13386455
155	0xbcb6f96f	-0.022335736
156	0x3daccee7	0.08437901
157	0x3dfb8df2	0.12282933
158	0x3ca3e695	0.020007411
159	0xbd8a2330	-0.06744993
160	0xbdd66df0	-0.10470188
161	0x3c34d578	0.011037223
162	0x3de3e0ca	0.111268595
163	0x3a8b4a9f	0.0010627097
164	0x3dbb15ee	0.09135042
165	0xbdca2f5a	-0.09872313
166	0x3cff86ad	0.031192148
167	0xbdc1d328	-0.09464103
168	0xbdce80e5	-0.100831784
169	0xbd9b1d2b	-0.07573923
170	0xbceb1c15	-0.028699914
171	0x3ca41ba1	0.020032706
172	0xbe14a934	-0.14517671
173	0x3db2ea88	0.087361395
174	0xbcdbfcb2	-0.026853893
175	0xbd4d42b4	-0.05011244
176	0x3d93bb28	0.072134316
177	0xbd8b2b05	-0.06795315
178	0xbdf9965b	-0.12186881
179	0xbc4b6b37	-0.012415699
180	0xbcd8b0c7	-0.026451482
181	0xbda8871c	-0.08228895
182	0xbdc197a5	-0.09452752
183	0xbd2a5c6f	-0.041592058
184	0xbe196993	-0.1498168
185	0x3c156015	0.009117146
186	0xbd92c336	-0.0716614
187	0xbde06276	-0.1095628
188	0xbce0bb91	-0.027433189
189	0xbd858ecf	-0.06521379
190	0x3dc21a08	0.09477621
191	0xbdf629cd	-0.120196916
192	0x3d25aa3a	0.040445544
193	0x3dde49d1	0.10853923
194	0xbc53fb00	-0.012938261
195	0x3daad980	0.08342266
196	0x3d5b781d	0.053581346
197	0x3d737beb	0.05944435
198	0x3b9599a5	0.004565435
199	0x3df1241e	0.11774467
200	0xbd78383d	-0.060600508
201	0xbd474118	-0.048646063
202	0xbd903c53	-0.07042756
203	0x3dcf27ba	0.10114999
204	0xbda4556c	-0.080241054
205	0x3bde1a7d	0.00677806
206	0x3d55bdf7	0.052183118
207	0x3de8c2ab	0.11365255
208	0xbce804a3	-0.028322523
209	0xbe0e5a3d	-0.1390161
210	0x3d8c467f	0.068493836
211	0x3d8670f1	0.065645106
212	0x3e062746	0.13100919
213	0x3d24acdf	0.040203925
214	0x3d897631	0.06711996
215	0x3d5c6e3d	0.05381607
216	0xbb4d06ba	-0.0031284527
217	0x3af0a18b	0.001835869
218	0xbd97fc47	-0.07421165
219	0x3e18b717	0.14913593
220	0x3db28d99	0.08718414
221	0x3cc17b62	0.023618404
222	0xbd3908c6	-0.045174383
223	0x3d44f79e	0.04808771
224	0x3d540136	0.051758967
225	0xbdfcedd6	-0.12350051
226	0x3dd2c59f	0.102915995
227	0xbd77cd39	-0.06049845
228	0x3d83212c	0.064028114
229	0x3d9b551d	0.075845934
230	0xbde1cf82	-0.11025907
231	0x3b2434d2	0.0025055897
232	0xbcb7e5f2	-0.022448514
233	0x3c3b8cf7	0.011447183
234	0x3cfca194	0.030838765
235	0xbaf9748d	-0.0019031927
236	0x3e2bc802	0.16775516
237	0x3dc14af0	0.09438121
238	0xbd54c42e	-0.051944904
239	0xbbc91d74	-0.0061375443
240	0xbda6fc7f	-0.081536286
241	0xbbec632b	-0.00721397
242	0xbdd99021	-0.106231935
243	0x3dc787bd	0.09742687
244	0xbb92267f	-0.0044601555
245	0xbd28ee3a	-0.041242816
246	0x3d9e7e16	0.07738893
247	0xbd7a02dc	-0.061037883
248	0xbcd54347	-0.026033057
249	0x3dcda40e	0.100410566
250	0x3debaf68	0.115080655
251	0x3b9f01f1	0.0048525264
252	0x3dc2e12f	0.095156066
253	0xbdbae9cb	-0.09126624
254	0x3cbaa025	0.022781441
255	0xbae479ad	-0.0017431282

mlp.2.bias f4 [64]
0	0xbd92c81d	-0.07167075
1	0xbdcc73c7	-0.0998302
2	0x3d41c260	0.04730451
3	0x3dae2e8a	0.0850497
4	0x3e089f74	0.13342077
5	0x3d02dced	0.031948972
6	0x3d64ef71	0.05589241
7	0xbe05d34b	-0.13068883
8	0x3da623bc	0.081122845
9	0xbde87f93	-0.11352458
10	0x3cab98a2	0.020946804
11	0x3d72d69b	0.059286695
12	0x3ca67645	0.020320067
13	0xbd49e498	-0.04929027
14	0x3ca525f2	0.020159695
15	0x3e2c8978	0.16849315
16	0x3de9ded9	0.11419458
17	0x3db7e11e	0.089784846
18	0x3daddf2c	0.08489832
19	0xbe09dbf1	-0.13462807
20	0xbc988dd7	-0.018622322
21	0x3c191afa	0.009344811
22	0x3de957dc	0.11393711
23	0xbc10d015	-0.008838673
24	0x3d4cc650	0.049993813
25	0x3dbf5d0c	0.09343919
26	0xbe14b419	-0.14521827
27	0x3dbe93ea	0.09305556
28	0x3cbb5b30	0.02287063
29	0xbda7908f	-0.08181869
30	0xbe009e5f	-0.12560414
31	0xbd008d98	-0.031385034
32	0x3e1e9570	0.15486693
33	0x3d3374f5	0.04381271
34	0x3e34610f	0.1761515
35	0x3c90c73f	0.017673133
36	0x3dc6a6d7	0.09699791
37	0xbd20df2b	-0.03927533
38	0xb8fabd9c	-0.000119562465
39	0x3dc93027	0.098236375
40	0x3dcb01a0	0.09912419
41	0xbd75fe76	-0.060057126
42	0x3cfe06af	0.031009046
43	0x3e2b314b	0.16718023
44	0xbde46470	-0.111519694
45	0x3c9117b0	0.01771149
46	0x3c594957	0.0132621145
47	0xbdb41043	-0.08792164
48	0xbd6d96f1	-0.058005277
49	0xbd2b31d9	-0.041795585
50	0xbcdffece	-0.02734318
51	0xbe1073a1	-0.14106609
52	0x3e0ab710	0.13546395
53	0x3db1913d	0.0867028
54	0xbc60332f	-0.013684078
55	0xbdc2d04f	-0.09512388
56	0x3d6894f4	0.056782678
57	0x3c66b230	0.014080569
58	0xbd680d07	-0.05665305
59	0x3e349fd1	0.1763909
60	0xbd848e24	-0.06472424
61	0xbd1d2d94	-0.038373545
62	0xbe004c73	-0.12529163
63	0x3e1b42f8	0.15162265

mlp.4.weight f4 [1, 64]
0	0xbcfbbc44	-0.03072942
1	0x3e12ed7e	0.14348409
2	0xbcff6001	-0.031173708
3	0x3d752568	0.059850127
4	0x3dde3d62	0.108515516
5	0x3cc09a0d	0.023510957
6	0xbd83a5fd	-0.06428144
7	0xbd9634d3	-0.07334294
8	0x3d59fbbb	0.053218585
9	0xbd166ee3	-0.036726844
10	0xbd4535a9	-0.048146877
11	0x3d3de8ac	0.04636447
12	0xbdd7aef0	-0.105314136
13	0xbcecc000	-0.028900146
14	0x3d0355e7	0.032064345
15	0x3dc7f4a0	0.097634554
16	0x3d156a72	0.036478467
17	0xbcd823cd	-0.026384259
18	0x3bae4fe4	0.0053195823
19	0xbd811079	-0.0630197
20	0xbe1296a9	-0.14315285
21	0xbdc3eb20	-0.09566331
22	0x3d8f7ff7	0.07006829
23	0x3a3fb750	0.00073133875
24	0xbcd2b75d	-0.0257222
25	0xbb5d5926	-0.003377506
26	0x3cc402f3	0.023927188
27	0x3dc0310d	0.09384356
28	0xbcc0670f	-0.023486642
29	0xbd829a88	-0.06377131
30	0xbdd28c07	-0.10280614
31	0xbdbf6e2d	-0.09347186
32	0x3d35235c	0.044223174
33	0xbdd883c4	-0.10572007
34	0x3d35cd3e	0.044385187
35	0x3d5a3c1f	0.053279992
36	0xbd3552a3	-0.04426826
37	0x3da587d9	0.080825515
38	0xbe16d355	-0.14729054
39	0x3da0e33f	0.07855844
40	0x3da83628	0.082134545
41	0xbe1a0ca1	-0.1504388
42	0xbdb0aa72	-0.0862626
43	0x3cb35818	0.021892592
44	0x3a4053a1	0.00073366804
45	0x3cb09cb7	0.021559102
46	0xbcd12f6c	-0.025535308
47	0xbd0640ec	-0.032776758
48	0x3df30da3	0.118678354
49	0xbd92ce52	-0.07168259
50	0x3db44951	0.088030465
51	0xbde35046	-0.11099295
52	0x3d24c26d	0.04022448
53	0x3d8540fd	0.06506536
54	0x3c802ae9	0.015645461
55	0xbd377228	-0.044786602
56	0xbdf21b75	-0.11821643
57	0xbdd92a8b	-0.106038176
58	0xbdae8d1a	-0.08523007
59	0x3dab2daa	0.08358319
60	0x3c62739d	0.01382151
61	0x3dbfb2fb	0.0936031
62	0x3be159fd	0.0068771825
63	0x3dbef600	0.093242645
