forecasting/midroll/dnn_model/model_0_ofac2022.ckpt (torch, 42527 bytes, 5 tensors)

mlp.0.weight f4 [64, 90]
0	0xbdd400a0	-0.10351682
1	0x3d90c543	0.07068875
2	0xbc3c190d	-0.011480582
3	0xbe0c25d1	-0.13686301
4	0x3d5249e5	0.051340003
5	0x3d36be04	0.044614807
6	0x3cadd16e	0.021218028
7	0xbd829bf1	-0.063774
8	0x3d96ab7e	0.07356928
9	0xbdc9c2d4	-0.09851614
10	0x3baa38bc	0.0051947515
11	0x3ce880d0	0.028381735
12	0xbd4a5277	-0.04939505
13	0x3cf5f0f7	0.030022128
14	0x3ba49fe3	0.005023943
15	0xbcc4b53a	-0.024012197
16	0xbc3d55e3	-0.0115561215
17	0xbdb5847c	-0.0886316
18	0xbda8ae2a	-0.08236344
19	0x3d1d8f66	0.038466834
20	0xbc9e6fd0	-0.019340426
21	0x3dd68f57	0.10476559
22	0x3c6de974	0.014520992
23	0xbdb14396	-0.08655469
24	0xbd72b86e	-0.059257917
25	0xbd872dcb	-0.06600531
26	0x3cccf4a2	0.025018994
27	0x3d4aa575	0.0494742
28	0xbdb6a158	-0.08917493
29	0x3d8c6dd6	0.06856887
30	0x3debcffa	0.11514278
31	0xbe068753	-0.1313756
32	0x3e06521c	0.1311726
33	0xbd7a404d	-0.06109648
34	0xbd48f591	-0.049062315
35	0xbcdaa844	-0.026691563
36	0x3ce3aefd	0.027793402
37	0xbd027e26	-0.031858586
38	0xbd167cf7	-0.03674027
39	0x3ced675a	0.028979946
40	0xbcb0351c	-0.0215097
41	0xbdc17ac8	-0.09447247
42	0xbcdba3ce	-0.026811507
43	0xbb5f8028	-0.0034103487
44	0xbc6e240b	-0.0145349605
45	0x3ca544f9	0.02017449
46	0x3d169466	0.036762618
47	0x3dcc52e9	0.09976751
48	0xbdd1ace7	-0.10238057
49	0xbe166241	-0.14685918
50	0xbcb47c4c	-0.022031926
51	0xbdd5c9d8	-0.10438889
52	0x3d8ecc06	0.06972508
53	0x3d2408fb	0.040047627
54	0x3c5796bb	0.013158496
55	0x3e163d87	0.14671908
56	0xbd53d998	-0.051721185
57	0xbd43bbab	-0.047786396
58	0xbd87865e	-0.066174254
59	0x3bede3f6	0.007259841
60	0xbc7cbe6f	-0.015426262
61	0x3ddeea5f	0.108845465
62	0xbdf45fc2	-0.11932327
63	0xbd6acae8	-0.057322413
64	0xbe0123b8	-0.12611282
65	0x3da9eb6a	0.08296855
66	0x3dae9c3b	0.08525892
67	0x3ccabf8e	0.024749544
68	0xbda25e87	-0.07928186
69	0x3d137f4a	0.036010064
70	0x3da4b961	0.08043171
71	0x3def94ee	0.11698328
72	0xbd1bf150	-0.03807193
73	0xbc88d9f3	-0.016705489
74	0xbc0e39d0	-0.008680776
75	0xbd36df98	-0.04464683
76	0x3b43f7b6	0.0029902286
77	0xbbd80d5e	-0.0065933904
78	0x3d685e92	0.056730814
79	0x3d90f479	0.070778795
80	0x3e01f047	0.12689315
81	0xbdb484f9	-0.08814425
82	0x3d1ebfba	0.038757063
83	0xbce28645	-0.027651915
84	0xbd60ebd9	-0.05491242
85	0xbd2301e7	-0.039796736
86	0x3d6f0e59	0.058363292
87	0x3c2d35df	0.010571926
88	0x3c2d8ca5	0.010592614
89	0x3cc209a2	0.023686234
90	0x3d03020e	0.03198438
91	0xbd281fa6	-0.041045807
92	0xbdca1e71	-0.098690875
93	0xbe1bcc77	-0.15214716
94	0xbdb34e6a	-0.08755191
95	0x3d847386	0.06467347
96	0xbe281826	-0.16415462
97	0xbcc4b653	-0.02401272
98	0xbd596c87	-0.053082015
99	0x3c0859fa	0.008322233
100	0xbd0236a5	-0.031790394
101	0x3ce4ba69	0.027920919
102	0xbc767c94	-0.01504435
103	0x3bd5c3ed	0.0065236003
104	0xbe111226	-0.1416708
105	0xbc2930e8	-0.010326602
106	0xbd96c555	-0.07361857
107	0xbd15c78c	-0.036567256
108	0xbdab1df2	-0.08355321
109	0x3c4fcc8b	0.012683044
110	0x3d4a06bf	0.04932284
111	0x3e0482dc	0.12940544
112	0xbd2acd07	-0.041699436
113	0x3d6b60a1	0.0574652
114	0xbd5e81e7	-0.054323103
115	0xbda50a86	-0.08058648
116	0xbca62e64	-0.020285793
117	0xbddb4ec1	-0.107083805
118	0xbb1f9ba2	-0.002435424
119	0x3cd4b676	0.02596591
120	0xbdbe4044	-0.092896014
121	0xbda43ea1	-0.08019758
122	0x3ddbc9d4	0.10731855
123	0xbd970d82	-0.07375623
124	0x3c97201c	0.018447928
125	0xbc0aac5a	-0.008463943
126	0x3c90b576	0.017664652
127	0xbdf57222	-0.1198466
128	0x3d271e75	0.04080053
129	0x3cf2a613	0.029620206
130	0x3d0792bf	0.033098932
131	0x3cf03fde	0.02932733
132	0xbd8b5c58	-0.068047225
133	0xbdb40d38	-0.08791584
134	0xbd95ff22	-0.07324053
135	0x3c9c624a	0.019089837
136	0x3d7f082e	0.06226366
137	0x3e12ca47	0.14334975
138	0xbe3f5118	-0.18683279
139	0xbe240c02	-0.16020206
140	0xbd63c7a9	-0.055610333
141	0x3b0d5647	0.0021566318
142	0x3e251528	0.16121352
143	0xbdcde19e	-0.10052799
144	0x3d78a013	0.060699534
145	0x3e0e6190	0.13904405
146	0xbdf64d10	-0.12026417
147	0xbe106061	-0.14099266
148	0xbe13211f	-0.14368103
149	0x3d12e0cc	0.035858914
150	0xbd9747c5	-0.07386736
151	0xbcff23fe	-0.031145092
152	0xbdd9c9ed	-0.106342174
153	0x3baaf994	0.0052177403
154	0xbe6114cd	-0.21980591
155	0x3d918578	0.07105535
156	0x3cfad230	0.030617803
157	0xbdc147a5	-0.09437493
158	0x3d62b740	0.055350542
159	0x3c8e0c97	0.017339988
160	0xbdc857c2	-0.097823635
161	0x3d57f39f	0.05272257
162	0x3cf14445	0.029451499
163	0x3dcd9e02	0.10039903
164	0xb9976807	-0.0002887847
165	0x3d345406	0.044025443
166	0xbd547825	-0.05187239
167	0x3dac5e9f	0.08416485
168	0xbd103c4a	-0.035213746
169	0x3b8de0f0	0.004329793
170	0x3d953d91	0.072871335
171	0xbe206225	-0.15662439
172	0x3d45ede5	0.048322577
173	0x3e0aaefc	0.13543314
174	0xbb1d9be4	-0.0024049217
175	0x3da30f37	0.079618864
176	0x3cd02559	0.025408434
177	0xbd618ab6	-0.055063926
178	0x3dbc5f70	0.09197891
179	0x3cf07029	0.029350357
180	0xbdc75726	-0.09733419
181	0x3bee5062	0.007272766
182	0xbda8106e	-0.08206259
183	0xbd324ed0	-0.043532193
184	0xbded2f10	-0.11581242
185	0x3d518cd9	0.051159713
186	0xbdc1513a	-0.09439321
187	0xbe34d8ed	-0.17660876
188	0xbd8fbf0b	-0.070188604
189	0x3dba55c2	0.09098388
190	0x3bde38a6	0.0067816554
191	0x3de81ef6	0.1133403
192	0x3c750e86	0.014957076
193	0x3dc7281a	0.09724446
194	0xbc60e4bd	-0.01372641
195	0xbd4405a6	-0.04785695
196	0x3c2958d6	0.010336122
197	0xbd08877b	-0.03333233
198	0xbd9702ce	-0.07373582
199	0xbb8aa134	-0.0042306427
200	0x3bc851e6	0.0061132787
201	0x3c87879f	0.016544161
202	0x3d84c760	0.0648334
203	0xbd0d9213	-0.034563135
204	0xbca75692	-0.020427022
205	0xbd2da945	-0.042397756
206	0xbddec6ab	-0.10877737
207	0xbe087a83	-0.13327985
208	0x3cc42966	0.023945522
209	0xbcc11944	-0.023571618
210	0xbdc60120	-0.09668183
211	0xbd116043	-0.035492193
212	0xbc887c66	-0.01666088
213	0xbd382d64	-0.044965163
214	0xbcacf74b	-0.021114012
215	0x3dc2f632	0.09519614
216	0xbdb41f45	-0.08795027
217	0x3cb2810e	0.021790054
218	0x3dcbf3b4	0.09958592
219	0xbcd24a22	-0.025670115
220	0xbd8bf746	-0.06834273
221	0x3c89125e	0.016732391
222	0xbdc8b010	-0.09799206
223	0xbcd8c673	-0.026461815
224	0xbdbe8721	-0.093031175
225	0x3db158fd	0.08659551
226	0xbd1d77df	-0.038444396
227	0xbda00e4b	-0.07815226
228	0xbdcdc531	-0.10047377
229	0xbd6c5e6f	-0.057707246
230	0xbd7a97b6	-0.06117984
231	0xbde4eabf	-0.11177587
232	0x3d7120a1	0.058869008
233	0x3c81a38f	0.015825061
234	0xbd319452	-0.04335434
235	0xbdce8852	-0.10084595
236	0xbcf6201d	-0.03004461
237	0x3d854044	0.06506398
238	0xbdeec594	-0.11658779
239	0xbe14eb10	-0.14542794
240	0x3be255c1	0.0069071953
241	0x3d6f9ed0	0.058501065
242	0xbda483dc	-0.08032963
243	0xbd96b23a	-0.07358213
244	0xbdd8b732	-0.10581817
245	0x3d9ac3a8	0.0755685
246	0xbc97043b	-0.018434634
247	0xbd2b14fb	-0.041768055
248	0x3db02d1d	0.08602355
249	0x3cd9fce5	0.026609847
250	0xbdaeab36	-0.0852875
251	0x3d387a53	0.045038532
252	0x3c9a4293	0.018830573
253	0x3bc0d98e	0.0058853095
254	0x3c1d1e86	0.009589797
255	0xbd50c815	-0.050972063

mlp.0.bias f4 [64]
0	0x3d0e535b	0.034747463
1	0x3d94369a	0.07236977
2	0x3dbd5393	0.09244456
3	0x3d540225	0.051759858
4	0x3cc7aca8	0.024374321
5	0x3d90d51a	0.07071896
6	0xbd239bba	-0.039943434
7	0x3d383690	0.04497391
8	0x3ccb1e46	0.024794709
9	0x3d5d7bf6	0.054073296
10	0xbd6460e7	-0.055756476
11	0x3c539bc8	0.012915559
12	0x3d9bae28	0.07601577
13	0x3d0f91ce	0.03505116
14	0x3d6f242b	0.0583841
15	0xbc4c50bf	-0.012470423
16	0xbdcbcf29	-0.09951622
17	0xbd5718b2	-0.052513786
18	0x3dccc070	0.09997642
19	0xbdbe4485	-0.09290413
20	0x3cb9fd98	0.02270393
21	0x3d1bf768	0.03807774
22	0x3da6a4a5	0.08136872
23	0xbdc5e0e4	-0.09662035
24	0x3cf0e462	0.029405776
25	0x3c07e7a2	0.008294972
26	0xbdbb34cd	-0.0914093
27	0xbde99145	-0.11404661
28	0x3da0ace0	0.07845473
29	0xbd668b85	-0.0562854
30	0xbd34a6d2	-0.044104405
31	0x3db84881	0.08998204
32	0xbd3727ab	-0.044715565
33	0x3d8aeedb	0.06783839
34	0xbb7af1c9	-0.0038291088
35	0xbd323e89	-0.04351667
36	0xbddd919a	-0.10818787
37	0x3cf8005b	0.030273607
38	0x3d8e96a8	0.06962329
39	0x3c657dc6	0.0140070375
40	0x3d9590f4	0.07303038
41	0xbcc80a1f	-0.024418889
42	0x3c1100f8	0.008850329
43	0xbd1f6906	-0.038918518
44	0xbd131cfc	-0.035916314
45	0xbc2a0614	-0.010377426
46	0xbce7f443	-0.028314715
47	0xbd1c8143	-0.03820921
48	0x3da603e1	0.081062086
49	0x3d5276c7	0.051382806
50	0x3daaf507	0.083475165
51	0x3da67122	0.08127047
52	0x3c4b8b64	0.01242337
53	0x3d6dea5a	0.058084823
54	0x3d23e18e	0.040010028
55	0xbda78f15	-0.081815876
56	0x3cfc832f	0.030824272
57	0xbdad1eda	-0.0845315
58	0xbd989c0a	-0.07451637
59	0xbdaa65fc	-0.08320233
60	0xbd6c5695	-0.05769976
61	0x3b3e31a8	0.0029021297
62	0x3ca10863	0.01965732
63	0x3daffe07	0.08593374

mlp.2.weight f4 [64, 64]
0	0xbdae6061	-0.085144766
1	0x3d7ed3d7	0.062213745
2	0x3ded9a25	0.11601666
3	0xbc529a14	-0.012854118
4	0x3d97743a	0.07395215
5	0x3e1af0ca	0.15130916
6	0xbd193a34	-0.037409022
7	0xbdcdffeb	-0.10058578
8	0x3cca69a7	0.024708582
9	0x3dfec0c9	0.124391146
10	0xbd4cab8b	-0.049968284
11	0x3cb181a6	0.021668267
12	0x3df01959	0.11723585
13	0x3c49a67b	0.012307758
14	0x3de08dc9	0.10964543
15	0xbdf8ec69	-0.12154467
16	0x3e25dbc7	0.1619712
17	0x3d2fbe9d	0.042906392
18	0x3d9420e2	0.072328344
19	0x3d7ab382	0.06120635
20	0x3d4f3fa9	0.05059782
21	0xbd8a8e41	-0.06765414
22	0x3d9eb9fc	0.077503175
23	0x3db1480c	0.0865632
24	0x39f688c0	0.00047022663
25	0xbdf06575	-0.117381014
26	0xbc521d53	-0.012824374
27	0xbca25ad9	-0.01981871
28	0xbd9a02c5	-0.075200595
29	0xbcb0a7be	-0.02156436
30	0xbe3161af	-0.1732242
31	0x3c73801c	0.014862087
32	0x3c1b3d10	0.009475008
33	0xbb8f3619	-0.0043704626
34	0x3e176080	0.14782906
35	0x3ca34547	0.019930495
36	0x3e0402ca	0.12891689
37	0x3df14049	0.117798395
38	0xbd51b873	-0.051201295
39	0x3d5c8ef8	0.053847283
40	0xbdaa1233	-0.083042525
41	0x3c1e12f6	0.009648075
42	0xbd8ac55b	-0.06775924
43	0x3e2e8acf	0.17045139
44	0x3da46c0b	0.0802842
45	0xbca653cf	-0.020303635
46	0xbd3b8073	-0.045776796
47	0x3d1a0311	0.03760058
48	0xbd83a60c	-0.06428155
49	0xbc6df4ff	-0.014523744
50	0xbdda3571	-0.106547244
51	0xbda57356	-0.08078639
52	0x3da3088e	0.07960616
53	0x3daba3ec	0.08380875
54	0x3c473b0a	0.012160072
55	0xbe2fd74e	-0.17171976
56	0xbbd6e8fa	-0.0065585347
57	0x3dca3a24	0.09874371
58	0x3c92c1b5	0.017914632
59	0x3d3e976f	0.046531137
60	0xbd26d2a6	-0.040728234
61	0x3d56902a	0.05238358
62	0xbb371b46	-0.002793984
63	0x3c925691	0.017863544
64	0x3d6c92dc	0.057757244
65	0xbc9117ce	-0.017711546
66	0x3bec5514	0.0072122905
67	0x3c860b0f	0.016362695
68	0xbd3a52df	-0.04548919
69	0xbd3e98f3	-0.046532582
70	0x3daf417b	0.08557411
71	0xbdb257f1	-0.0870818
72	0xbd422ffd	-0.047409046
73	0xbdae5d93	-0.085139416
74	0x3df7aa45	0.12093023
75	0xbd8fd14a	-0.070223406
76	0x3cdf570a	0.027263183
77	0xbc051270	-0.008122072
78	0x3de11df9	0.10992045
79	0xb97185f1	-0.00023033448
80	0x3cecb2c3	0.028893834
81	0xbe591455	-0.21199162
82	0xbd8aed53	-0.06783547
83	0xbd8931ac	-0.06698927
84	0xbd6c6a19	-0.05771837
85	0xbd7ffb08	-0.06249526
86	0x3e044462	0.12916711
87	0xbca42756	-0.020038288
88	0x3bd29a20	0.0064270645
89	0xbdbfba33	-0.093616866
90	0x3e0022fd	0.12513347
91	0xbd7d858f	-0.06189495
92	0x3baaa381	0.0052074795
93	0xbda2101d	-0.079132296
94	0x3e0096d6	0.1255754
95	0x3d967453	0.07346406
96	0x3d9c7c93	0.07640948
97	0x3cb00b4a	0.021489758
98	0xbd1a7b18	-0.037715048
99	0x3e09df56	0.13464102
100	0xbe098db2	-0.13432959
101	0xbd801a2b	-0.06254991
102	0x3de36522	0.11103274
103	0xbdceb077	-0.10092252
104	0xbd10c1ff	-0.03534126
105	0x3d6772d5	0.056505997
106	0xbd411f0b	-0.047148746
107	0xbd65098d	-0.05591731
108	0xbdf799a6	-0.12089853
109	0x3bf67427	0.0075211707
110	0xbdfcaa56	-0.123371765
111	0xbccfb122	-0.025353018
112	0x3df5db89	0.12004764
113	0x3da06b3e	0.07832955
114	0x3dc5bb87	0.096549086
115	0x3dc45a92	0.095875874
116	0x3de84ffb	0.1134338
117	0x3dcf1710	0.10111821
118	0x3d637cc9	0.055538926
119	0x3d5895ca	0.052877225
120	0x3df25e07	0.118343405
121	0xbd0978dc	-0.033562526
122	0xbdfed09a	-0.12442131
123	0xbd519131	-0.051163856
124	0xbdb07614	-0.086162716
125	0xbdf730ef	-0.1206988
126	0x3d8d0eb2	0.068875685
127	0xbc1b9b43	-0.0094974665
128	0x3da2be50	0.079464555
129	0xbd85e9fc	-0.065387696
130	0x3d6daa5b	0.05802379
131	0xbc6e9b95	-0.014563461
132	0xbe444dd5	-0.19170316
133	0x3d3cf88b	0.046135467
134	0x3dad282c	0.08454928
135	0xbda2cab2	-0.07948817
136	0x39b6a54a	0.00034836895
137	0xbe0a276f	-0.13491605
138	0x3e003b9c	0.12522739
139	0xbd911120	-0.070833445
140	0xbd8a05a5	-0.06739358
141	0xbcf5a809	-0.029987352
142	0xbd59a3bb	-0.05313466
143	0x3ca55f1f	0.020186959
144	0x3c8a0891	0.016849788
145	0xbb4f1143	-0.0031595982
146	0x3cb36009	0.021896379
147	0xbd2ed2f5	-0.042681653
148	0x3e4b794f	0.19870494
149	0x3d8ea930	0.06965864
150	0x3da1c344	0.07898572
151	0xbd65543d	-0.05598854
152	0x3d1095b5	0.03529902
153	0x3c7b103e	0.015323697
154	0xbcc04e1d	-0.023474747
155	0x3d6c5be5	0.057704825
156	0x3d8fbd73	0.070185564
157	0xbcd99879	-0.026561962
158	0xbd154921	-0.036446694
159	0xbdcb5b49	-0.09929521
160	0x3d16d910	0.0368281
161	0xbcf9b8a1	-0.030483546
162	0x39b8e13c	0.00035263028
163	0xbdb41969	-0.08793909
164	0xbc828357	-0.015931768
165	0x3ded0bee	0.11574541
166	0xbd139b8a	-0.036037005
167	0x3de575d5	0.11204115
168	0x3dd395b9	0.10331292
169	0x3d85e1ea	0.0653723
170	0xbd1cd76e	-0.038291387
171	0x3e65fea1	0.22460414
172	0xbd322f95	-0.04350241
173	0x3ddccbb5	0.107810415
174	0x3cda3f4e	0.026641514
175	0x3bb13841	0.0054083173
176	0xbe1c2446	-0.15248212
177	0x3cb574db	0.022150448
178	0xbd1a25d7	-0.037633743
179	0x3c768ce2	0.0150482375
180	0xbdffb77e	-0.1248617
181	0x3d868103	0.06567576
182	0xbdc9b8c8	-0.09849697
183	0xbe60a820	-0.21939135
184	0xbe06b679	-0.13155545
185	0xbd27d3ea	-0.04097358
186	0x3d8b1753	0.06791558
187	0x3d914dd7	0.07094925
188	0x3e04fbba	0.12986651
189	0x3d8b39e9	0.06798155
190	0xbdbbd388	-0.09171206
191	0x3db1fe4a	0.0869108
192	0x3d694a2d	0.056955505
193	0x3ce12bea	0.02748676
194	0xbd818eba	-0.06326051
195	0xbe037f91	-0.12841631
196	0xbd6ed1f2	-0.05830569
197	0x3d90f14d	0.070772745
198	0x3daf4edb	0.08559962
199	0xbc6222ae	-0.013802214
200	0x3deab119	0.1145956
201	0x3e01c58e	0.12673017
202	0x3da48a88	0.08034235
203	0x3de8ba30	0.113636374
204	0xbd752366	-0.05984821
205	0xbd97c999	-0.074114986
206	0x3d888908	0.06666762
207	0x3c15f5eb	0.00915287
208	0xbe0da570	-0.1383264
209	0x3cba6c4d	0.02275672
210	0xbdb768dd	-0.08955548
211	0xbe289e15	-0.16466554
212	0xbe5b6d71	-0.21428467
213	0x3c6e1957	0.014532409
214	0x3dd1680a	0.10224922
215	0xbde5ec66	-0.1122673
216	0xbd1f7472	-0.03892941
217	0x3d4776a8	0.048697144
218	0x3cad1f9b	0.021133235
219	0x3daaa5cd	0.08332405
220	0xbda8eb7d	-0.08248041
221	0x3d387a69	0.045038614
222	0x3e08702e	0.13324043
223	0x3d47e75b	0.048804622
224	0x3d3d4981	0.046212677
225	0xbdaed3a4	-0.08536461
226	0xbd680d95	-0.056653578
227	0x3d072dfb	0.033002835
228	0xbd2f7fe3	-0.04284657
229	0x3db52811	0.08845533
230	0xbdcc2198	-0.09967345
231	0x3d91ec04	0.071250945
232	0xbbe064b6	-0.006847943
233	0x3df69f64	0.1204212
234	0x3db90c19	0.090355106
235	0xbe3d6368	-0.18494952
236	0xbdf1f642	-0.11814548
237	0xbd93aede	-0.07211088
238	0xbd897b81	-0.067130096
239	0xbddbc2c5	-0.10730509
240	0x3d8829f2	0.066486254
241	0xbcbb3e91	-0.022856982
242	0x3d8220b1	0.06353892
243	0xbe4014c8	-0.18757927
244	0x3d9cca10	0.07655728
245	0xbdf278fb	-0.118394814
246	0xbb205510	-0.0024464764
247	0x3e12267a	0.1427249
248	0x3e3443e6	0.17604026
249	0x3dc0191e	0.09379791
250	0x3c9ca954	0.01912371
251	0x3d2e5beb	0.04256813
252	0xbc117e4b	-0.008880208
253	0x3d9bbfa4	0.07604912
254	0x3bddb566	0.006766009
255	0xbd2c2af7	-0.042033162

mlp.2.bias f4 [64]
0	0x3e1fdf66	0.15612563
1	0xbd6c8f82	-0.057754047
2	0x3db257af	0.087081306
3	0x38ee5f86	0.00011366517
4	0x3a48ba4b	0.00076571543
5	0xbd89427a	-0.067021325
6	0x3dcf78de	0.101304755
7	0x3d1082e7	0.03528109
8	0x3d726246	0.059175752
9	0xbae1f18b	-0.0017238123
10	0xbd2ac379	-0.041690324
11	0x3d20adbb	0.039228182
12	0xbcfab043	-0.030601626
13	0xbda49f0c	-0.08038148
14	0xbd30c3cc	-0.043155476
15	0xbc56cf99	-0.013111019
16	0x3d96ea95	0.07368962
17	0xbd25e3b1	-0.040500347
18	0x3d1f0a71	0.038828317
19	0xbdd4fa91	-0.10399354
20	0x3c412836	0.011789372
21	0x3c9c54e0	0.01908344
22	0x3d22a610	0.03970915
23	0xbd6a1cf8	-0.057156533
24	0xbd1bdc17	-0.03805169
25	0x3cc2ed87	0.023794902
26	0x3d1f6fdc	0.038925037
27	0x3d91f2bd	0.07126377
28	0xbd9c1ae8	-0.076223195
29	0xbd25fc56	-0.04052385
30	0x3d05fc64	0.0327114
31	0xbcf86bb4	-0.030324794
32	0xbd2c1eef	-0.042021688
33	0x3d4c58df	0.04988944
34	0x3c2bd895	0.010488649
35	0xbd851752	-0.064985886
36	0x3d6267d5	0.055274803
37	0x3d6fee46	0.058576845
38	0xbc7dc2c5	-0.015488331
39	0xbd4648e9	-0.048409376
40	0xbd6d93ae	-0.058002166
41	0xbc9845a8	-0.018587902
42	0x3c2c9aa2	0.010534914
43	0xbddd57f3	-0.108077906
44	0x3df234f9	0.1182651
45	0x3da60b6c	0.08107647
46	0x3dad11ce	0.084506616
47	0xbca3005d	-0.019897634
48	0x3d84501a	0.06460591
49	0x3de0ce8e	0.10976897
50	0xbd86cde7	-0.065822415
51	0x3e0a0056	0.1347669
52	0x3b92e011	0.004482277
53	0xbdaed02a	-0.08535798
54	0xbde4af06	-0.111661956
55	0x3d0918d4	0.033470944
56	0x3dff097c	0.12452981
57	0x3d89e079	0.06732268
58	0xbdba00f7	-0.09082215
59	0x3db42fd7	0.08798187
60	0xbdf1c502	-0.118051544
61	0xbc25a391	-0.010109798
62	0x3e19e760	0.15029669
63	0xbdca84be	-0.098886

mlp.4.weight f4 [1, 64]
0	0x3da67633	0.081280135
1	0xbd5ae175	-0.05343767
2	0x3c9e889e	0.019352254
3	0xbd64ab5a	-0.055827476
4	0xbd103fc0	-0.035217047
5	0x3cbf30fc	0.023338787
6	0x3d69e17d	0.057099808
7	0x3dac4fbc	0.084136456
8	0xbdf5600f	-0.11981212
9	0x3b4ac596	0.0030940524
10	0x3deae080	0.11468601
11	0x3d7aa0cf	0.061188515
12	0xbcfcae89	-0.030844944
13	0xbdae255c	-0.085032195
14	0xbcfb240f	-0.030656843
15	0x3d528e29	0.051405106
16	0xbd80af95	-0.062834896
17	0xbe003f28	-0.12524092
18	0xbd9484e3	-0.07251909
19	0xbe01233a	-0.12611094
20	0x3cfe79cc	0.031063937
21	0x3db75ce2	0.08953263
22	0x3dc25071	0.09487999
23	0x3c965403	0.018350607
24	0xbb7787d0	-0.003777016
25	0xbd596ed0	-0.053084195
26	0xbc93068d	-0.01794746
27	0xbd542caa	-0.051800407
28	0xbc1bcbb4	-0.009509016
29	0x3d9a6090	0.07537949
30	0xbd9ca41b	-0.07648488
31	0x3d1dac30	0.03849429
32	0x3dc0a46a	0.094063595
33	0x3d948020	0.072510004
34	0xbd9dd938	-0.07707447
35	0xbd402054	-0.04690583
36	0x3dc1b872	0.09459008
37	0xbe2df9fe	-0.16989896
38	0xbb6cb340	-0.0036117584
39	0xbdb1f604	-0.08689502
40	0xbd95f124	-0.073213845
41	0xbd5d67ea	-0.05405418
42	0xbd1ef6fa	-0.038809754
43	0x3cfcc186	0.030853998
44	0x3e101da4	0.14073807
45	0xbd288d29	-0.041150246
46	0x3ad153a9	0.0015970367
47	0x3db4e88e	0.08833419
48	0x3d572f61	0.05253542
49	0x3cb6caf1	0.022313567
50	0x3e18c406	0.14918527
51	0x3d05cf6a	0.03266851
52	0xbdcd70c6	-0.100312755
53	0xbd99b863	-0.07505872
54	0xbe044a9b	-0.12919085
55	0x3dc92451	0.0982138
56	0x3d629bdb	0.055324417
57	0x3cac272b	0.02101477
58	0xbdeabea5	-0.11462144
59	0xbca94f63	-0.020667737
60	0x3e0ee2d0	0.1395371
61	0x3cadbadc	0.021207266
62	0x3de59cb4	0.112115294
63	0x3e1482e2	0.14503053
